dqn/solution/checkpoint.pth (torch, 21783 bytes, 6 tensors)

fc1.weight f4 [64, 8]
-0.09495012 0.23028907 -0.20797765 0.07964085 0.14759025 0.07428718 0.1500151 0.55873656
-0.67835575 -0.049054105 -1.199221 -0.70460236 -0.51864755 -0.18061331 -0.2262923 0.063584544
0.049380157 0.10523424 0.24439491 0.16707054 -0.96657115 0.33601508 -0.17048796 0.36104518
0.010546524 0.050586227 0.706426 0.1581535 -1.1936891 -0.34010336 -0.090910114 0.4517752
0.082299896 -0.47051892 -1.4120189 -0.45756495 0.5356714 0.00669229 0.16401072 0.22951327
-0.11878118 -0.020981153 0.07991504 -0.7851762 -0.42864385 -0.12332546 0.19583313 0.44216576
-0.5139272 -0.14067215 -0.082082585 0.14948244 0.50860995 0.55999506 0.062291417 -0.7824768
0.39023423 -1.2065611 -0.5674693 -0.7792359 0.29296353 -0.028365524 0.053057194 0.10085265
0.7573992 0.041638624 0.54588044 0.61833245 -0.6703947 -0.057499357 0.32031998 -0.5852865
0.23353422 0.26467088 -0.07191425 0.65741426 -0.7222329 -0.6558097 0.24194421 0.45247307
0.01871423 0.9645618 0.3807962 -1.8760446 0.29634032 0.059817508 0.026672548 -0.13673623
0.20322554 0.056886252 0.29777783 -0.06927012 0.9378051 0.69376796 -0.41351193 -0.040155683
-0.04280666 0.39902815 0.1151832 0.93217933 0.36378032 0.7170355 0.17454019 0.054802764
-0.20754756 0.26194313 -0.016180448 -0.116667725 0.18544576 0.21179318 0.06367765 0.46624354
0.07443739 0.9168043 0.9253051 -1.9078972 -0.27452728 0.0033831915 0.06301013 -0.092544675
0.34586516 0.20081277 0.36795628 0.31503052 0.8683817 0.12593725 -0.65479696 -0.21511087
-0.41400754 -0.20519722 -0.13786437 -0.33124638 -0.4140467 -0.020568697 0.3167513 0.038855907
-0.7023354 0.0023398842 0.15840653 0.22257194 -0.69996774 0.25704238 0.38921276 -0.21022475
-0.03162265 -0.22464933 -0.43527007 -0.7061277 -1.2854364 -0.61182237 -0.3432156 0.18480544
0.10556623 0.38195872 0.2815997 -0.98159325 0.66915566 -1.3817574 0.02139463 -0.08815323
-0.33896193 0.04863242 -0.2193868 -0.5445635 0.52761203 -0.032754146 -0.3354843 0.47379637
0.33668014 -0.7809168 0.0026489142 2.6504364 0.88322484 0.12949345 0.04305391 0.3841331
0.16445838 -0.32501203 0.5010087 -1.2280216 -0.60308164 -0.036757965 0.23894374 0.1461119
-0.060454596 0.16090983 0.12263582 0.09257331 -0.66495246 -0.30801046 0.5034107 0.43597144
-0.5860694 0.0738134 -0.33423263 0.036704924 0.45162922 0.059601396 0.16699092 0.32681194
-0.0627536 0.30916628 -0.046407595 -0.07420099 0.084561914 0.50085485 0.08967544 0.39488637
0.33938745 -0.7635858 0.48808995 -1.0947273 -0.08877534 -0.07734044 -0.10397382 -0.053410754
0.9141426 -0.9423364 1.5182725 -0.9684111 -0.04544175 -0.11706089 0.0015743433 0.19185616
0.33642042 -0.17982401 -3.7416587 -0.012696023 0.15252809 0.21915464 -0.17782663 0.5552182
0.19171074 -0.34526667 -0.8693606 1.8914227 0.0069029075 -0.49201694 -0.004645728 0.47422117
0.089411564 0.071199894 0.027071152 0.005343429 -0.058640707 -0.807147 0.17025292 0.38085082
0.10823586 -0.75007087 -0.98121834 -0.630635 0.22310252 0.12845547 0.082057066 0.1806419
00000000: 3575 c2bd e6d0 6b3e 18f8 54be be1a a33d
00000010: e621 173e e123 983d 8f9d 193e 5c09 0f3f
00000020: b9a8 2dbf f5ec 48bd 1380 99bf d260 34bf
00000030: 16c6 04bf b2f2 38be 2bb9 67be 9d38 823d
00000040: d942 4a3d 0d85 d73d a942 7a3e 8a14 2b3e
00000050: 3571 77bf 2b0a ac3e 6594 2ebe eada b83e
00000060: 54cb 2c3c 8133 4f3d 56d8 343f fef2 213e
00000070: ceca 98bf 0722 aebe 152f babd 144f e73e
00000080: d98c a83d dbe7 f0be 09bd b4bf f445 eabe
00000090: c321 093f ff4a db3b 6df2 273e 8705 6b3e
000000a0: 8c43 f3bd abe0 abbc 7faa a33d 4f01 49bf
000000b0: 3577 dbbe 0f92 fcbd 7b88 483e 8d63 e23e
000000c0: bc90 03bf 5c0c 10be ea1a a8bd ed11 193e
000000d0: 4334 023f d65b 0f3f 4925 7f3d 6650 48bf
000000e0: c8cc c73e 9870 9abf ab45 11bf 017c 47bf
000000f0: 51ff 953e d15e e8bc 8052 593d d68b ce3d
00000100: eae4 413f 438d 2a3d d2be 0b3f 094b 1e3f
00000110: fd9e 2bbf 7284 6bbd fb00 a43e 56d5 15bf
00000120: 9823 6f3e f182 873e c747 93bd 4d4c 283f
00000130: 41e4 38bf 25e3 27bf 39c0 773e 8daa e73e
00000140: 964e 993c 86ed 763f b8f7 c23e 3b22 f0bf
00000150: ebb9 973e 3403 753d 6380 da3c 9504 0cbe
00000160: 5b1a 503e 8f01 693d 5676 983e 7edd 8dbd
00000170: ff13 703f c79a 313f d6b7 d3be 497a 24bd
00000180: 0956 2fbd 6b4d cc3e 2be5 eb3d 4ea3 6e3f
00000190: 6a41 ba3e a38f 373f aaba 323e dd78 603d
000001a0: 5987 54be 691d 863e dc8c 84bc 7def eebd
000001b0: 7ee5 3d3e 50e0 583e 6e69 823d 79b7 ee3e
000001c0: a172 983d b0b3 6a3f cce0 6c3f fa35 f4bf
000001d0: d78e 8cbe 89b8 5d3b 740b 813d 1088 bdbd
000001e0: 3d15 b13e dda1 4d3e c464 bc3e ae4b a13e
000001f0: 434e 5e3f b2f5 003e c6a0 27bf 0646 5cbe
00000200: ccf8 d3be 381f 52be 512c 0dbe 2099 a9be
00000210: eefd d3be af7f a8bc 3a2d a23e 5f27 1f3d
00000220: 41cc 33bf be58 193b 5235 223e e6e9 633e
00000230: 1631 33bf 0f9b 833e e546 c73e 2845 57be
00000240: c086 01bd 790a 66be b8db debe c9c4 34bf
00000250: 2e89 a4bf 64a0 1cbf f5b9 afbe a33d 3d3e
00000260: 1c33 d83d 1890 c33e d62d 903e b249 7bbf
00000270: c94d 2b3f 6ddd b0bf cb43 af3c ae89 b4bd
00000280: 6b8c adbe ca32 473d efa6 60be 8368 0bbf
00000290: 9511 073f 3629 06bd 99c4 abbe 7095 f23e
000002a0: 5761 ac3e 2aea 47bf 6899 2d3b c0a0 2940
000002b0: 061b 623f ee99 043e 4c59 303d 18ad c43e
000002c0: c767 283e fa67 a6be 1b42 003f d02f 9dbf
000002d0: 8f63 1abf 858f 16bd abad 743e 5c9e 153e
000002e0: 3d9f 77bd 8cc5 243e 7d28 fb3d 1397 bd3d
000002f0: 533a 2abf 8cb3 9dbe 86df 003f a637 df3e
00000300: a508 16bf 7b2b 973d 8a20 abbe e757 163d
00000310: f23b e73e 9820 743d abff 2a3e e553 a73e
00000320: f684 80bd 0b4b 9e3e e415 3ebd b0f6 97bd
00000330: cc2e ad3d 0638 003f c2a7 b73d 8c2e ca3e
00000340: 31c4 ad3e 5c7a 43bf ede6 f93e 0620 8cbf
00000350: d8cf b5bd aa64 9ebd 3af0 d4bd 3cc5 5abd
00000360: 4005 6a3f f53c 71bf c156 c23f cae9 77bf
00000370: 2121 3abd 9fbd efbd 325a ce3a f175 443e
00000380: 4c3f ac3e c923 38be 5677 6fc0 fb02 50bc
00000390: 5330 1c3e 136a 603e 2f18 36be c822 0e3f
000003a0: d24f 443e cbc6 b0be 6b8e 5ebf 241a f23f
000003b0: c931 e23b a5e9 fbbe 313b 98bb 1ecd f23e
000003c0: 691d b73d 40d1 913d 52c4 dd3c ee17 af3b
000003d0: 3d31 70bd 30a1 4ebf c856 2e3e e1fe c23e
000003e0: c3aa dd3d a504 40bf 2031 7bbf 4c71 21bf
000003f0: fd74 643e d589 033e 890d a83d 31fa 383e

fc1.bias f4 [64]
-0.35448667 -0.17475823 -0.18304288 -0.35647258 -0.38734347 -0.33701983 0.30785957 -0.27309212
-0.23938367 0.3469247 1.0348889 -0.3967606 0.027771896 -0.36021647 0.86200917 -0.47081545
-0.33565462 -0.45862383 0.13535438 0.42315578 -0.47110662 -0.32111582 -0.37170455 -0.16265018
-0.23473017 -0.39006904 -0.1031092 -0.19181864 0.14284077 -0.42290315 -0.07848487 -0.25287554
-0.46121252 0.052023336 0.33385012 0.43493533 -0.1450883 -0.17544734 -0.19081701 -0.19203892
0.2192254 -0.33083484 0.3737303 0.29556233 0.4607207 -0.07180462 0.5018599 -0.17026624
0.27855378 -0.26397416 0.020646743 0.39472842 -0.26299298 0.72323656 -0.26116657 -0.546523
-0.096792236 0.09729521 0.71589434 -0.2894246 -0.30341074 -0.41694704 0.0218151 0.4783687
00000000: 477f b5be d2f3 32be 986f 3bbe 9383 b6be
00000010: e251 c6be dd8d acbe c59f 9d3e bbd2 8bbe
00000020: fe20 75be 1da0 b13e 3d77 843f 3524 cbbe
00000030: e381 e33c 4b6e b8be a2ac 5c3f b90e f1be
00000040: ecda abbe bed0 eabe 579a 0a3e e0a7 d83e
00000050: e334 f1be 4b69 a4be 0f50 bebe c58d 26be
00000060: 1b5d 70be 21b7 c7be eb2a d3bd 1b6c 44be
00000070: da44 123e c386 d8be adbc a0bd e778 81be
00000080: 0c24 ecbe 6c16 553d 67ee aa3e d8af de3e
00000090: 0792 14be 78a8 33be 8965 43be daa5 44be
000000a0: a07c 603e 2f63 a9be 9459 bf3e f253 973e
000000b0: 95e3 eb3e 4d0e 93bd e479 003f 465a 2ebe
000000c0: 9a9e 8e3e 9f27 87be 5c23 a93c d819 ca3e
000000d0: 04a7 86be 0826 393f a0b7 85be eee8 0bbf
000000e0: 023b c6bd b642 c73d da44 373f 762f 94be
000000f0: a758 9bbe 157a d5be 95b5 b23c beec f43e

fc2.weight f4 [64, 64]
0.1141371 0.53893 0.41913253 0.84550935 0.31192762 -0.14780521 0.4240076 0.33044145
-0.10486753 0.6049438 0.15937687 0.9920445 0.071624875 0.16664322 0.12268109 -0.07345479
-0.039413583 0.50508666 0.35924646 -0.20577928 0.39706025 0.66842264 0.8275071 0.101507835
-0.025451146 -0.12569025 0.7009899 0.7579513 -0.759077 0.3996882 0.18060812 0.34868318
0.10020974 -0.034639988 0.34811792 0.41085616 -1.0348618 0.45933703 1.3768725 1.1415596
0.12964052 0.11199427 0.46894327 -0.12972797 0.73190516 0.45471942 0.2723049 -0.11342782
-0.65639645 0.38618538 -0.18639626 -0.14112358 0.71474165 -0.3208623 0.6796288 0.22438532
0.24393417 0.19885527 0.046626728 -1.2191744 0.41352445 0.48806474 0.050847705 -0.44727728
0.120194875 0.46169955 0.31597832 0.4303294 0.6827984 0.2026383 0.52958506 0.6165802
1.0688497 0.24335472 0.30080602 1.0453044 0.29665288 0.006645998 0.055864934 -0.72982335
0.2476406 0.69331646 0.22593075 -0.10052464 0.4496125 0.5746549 0.7602916 0.17769118
0.15705171 0.32983515 0.8177394 0.882449 -0.7475835 0.4765729 -0.3263748 0.8892219
0.12125226 0.21644832 0.17193803 0.181236 -0.9132535 0.5611384 1.4049098 0.84564847
0.3917458 0.26145738 0.25422773 0.11255289 1.182974 0.71795416 -1.5932205 0.051948294
0.043033082 0.56074715 -0.3748582 -0.3076322 0.8351202 0.019577086 1.1360795 0.1946474
0.74962646 0.02984303 -0.008538515 -0.14448099 0.6814565 0.95687824 0.008462817 -0.2737488
-0.058312096 0.15674436 0.33865958 0.26511756 -1.7187064 0.15030217 0.1299155 -0.51400995
-1.1668118 0.33829767 0.47375965 1.95134 -0.18328746 0.23499809 0.5279203 0.46961176
0.00537422 -0.54581356 -0.10357923 0.1775641 0.0815601 -1.3232682 -0.09694157 0.045887865
-0.04011229 -0.48814592 -0.21347405 0.110792585 -2.142269 0.74127895 0.12655748 -0.49806112
-0.23918715 1.1855164 -3.7348273 0.987199 -1.1724973 -0.13570116 1.3568506 -0.19093692
-0.46637288 -0.87148905 0.6184124 0.55969936 1.1456704 -0.14961265 -0.91041017 0.21054292
0.520865 0.9608778 -0.4756219 -0.47002247 -0.0464538 0.3130777 -0.937318 -0.19499063
-0.64181095 -1.1624128 -0.0034970539 -0.044327475 -1.2490138 -0.7497269 -0.12772532 -0.049552664
0.0068069096 0.6091989 0.028221406 0.36447522 0.6324098 0.36816266 0.52892834 0.40177116
0.45845735 0.075551584 0.18849601 0.515148 -0.017200604 0.2348013 0.111526355 -0.19037238
0.39287367 0.3282874 0.36546734 -0.2998631 0.35713387 0.76326644 0.6721844 0.14669551
0.32896882 0.44306532 0.6134094 0.47576633 -0.7064428 0.34727997 0.3052367 0.5612477
0.27302435 -0.050559033 0.38096234 0.25821462 -1.2392334 0.65924096 0.68674433 0.5624673
0.13840233 0.3997205 0.072529875 -0.46186203 0.5182369 0.2975155 0.08687483 0.38583362
-0.8906144 0.24735662 -0.20409952 -0.33548024 0.68657106 -0.25817764 1.2625493 0.55697924
0.16706564 0.5429921 0.19574212 -1.0622873 0.39847195 0.8461911 0.19218361 -0.21517439
00000000: b6c0 e93d 51f7 093f 8a98 d63e 4d73 583f
00000010: fab4 9f3e 405a 17be 8617 d93e 9f2f a93e
00000020: cac4 d6bd 99dd 1a3f b133 233e a1f6 7d3f
00000030: 10b0 923d 85a4 2a3e 3940 fb3d 776f 96bd
00000040: 2370 21bd 5c4d 013f 27ef b73e ceb7 52be
00000050: 7b4b cb3e bf1d 2b3f 81d7 533f 57e3 cf3d
00000060: ec7e d0bc f2b4 00be 1374 333f 1909 423f
00000070: df52 42bf efa3 cc3e 56f1 383e 9a86 b23e
00000080: c43a cd3d a9e2 0dbd 833c b23e bd5b d23e
00000090: 5a76 84bf 392e eb3e 5c3d b03f a01e 923f
000000a0: 7cc0 043e 405d e53d 5519 f03e 69d7 04be
000000b0: 235e 3b3f fcd0 e83e 8c6b 8b3e d84c e8bd
000000c0: 9909 28bf 17ba c53e a9de 3ebe b382 10be
000000d0: 4ff9 363f 1048 a4be 27fc 2d3f 44c5 653e
000000e0: e1c9 793e b7a0 4b3e abfb 3e3d e80d 9cbf
000000f0: 7ab9 d33e 9fe3 f93e af45 503d 8701 e5be
00000100: bb28 f63d e263 ec3e e9c7 a13e 2354 dc3e
00000110: e0cb 2e3f 6a80 4f3e e392 073f 33d8 1d3f
00000120: 11d0 883f fb31 793e 3f03 9a3e 89cc 853f
00000130: e3e2 973e acc6 d93b a1d2 643d b4d5 3abf
00000140: 7f95 7d3e 307d 313f 645a 673e dddf cdbd
00000150: 9c33 e63e 951c 133f 78a2 423f adf4 353e
00000160: 2ad2 203e 27e0 a83e 5f57 513f 2de8 613f
00000170: a261 3fbf 5d01 f43e 991a a7be 0ca4 633f
00000180: 1b53 f83d a1a4 5d3e 8610 303e ee95 393e
00000190: fbca 69bf c4a6 0f3f 16d4 b33f 6b7c 583f
000001a0: e892 c83e bedd 853e 232a 823e 2182 e63d
000001b0: b16b 973f d8cb 373f a6ee cbbf bcc7 543d
000001c0: 7543 303d 208d 0f3f 6aed bfbe f881 9dbe
000001d0: 70ca 553f 2060 a03c 0e6b 913f a651 473e
000001e0: 85e7 3f3f 5f79 f43c 21e5 0bbc d3f2 13be
000001f0: ef73 2e3f f9f5 743f a1a7 0a3c cd28 8cbe
00000200: aad8 6ebd 9881 203e ca64 ad3e 7dbd 873e
00000210: 92fe dbbf d0e8 193e 9208 053e 2896 03bf
00000220: 175a 95bf 5a35 ad3e a090 f23e 82c5 f93f
00000230: b5af 3bbe 57a3 703e c925 073f f470 f03e
00000240: 3a1a b03b 70ba 0bbf 5921 d4bd 5dd3 353e
00000250: fb08 a73d da60 a9bf 4d89 c6bd eaf4 3b3d
00000260: c94c 24bd 43ee f9be f198 5abe 39e7 e23d
00000270: ef1a 09c0 75c4 3d3f 4998 013e de01 ffbe
00000280: 7aed 74be 00bf 973f 6907 6fc0 13b9 7c3f
00000290: 6414 96bf 3ff5 0abe 48ad ad3f f884 43be
000002a0: 6dc8 eebe e819 5fbf 4650 1e3f 7548 0f3f
000002b0: 54a5 923f 0f34 19be a410 69bf 9098 573e
000002c0: 6957 053f 16fc 753f b784 f3be c9a6 f0be
000002d0: 5746 3ebd b84b a03e 13f4 6fbf a0ab 47be
000002e0: b94d 24bf f1c9 94bf d42e 65bb ba90 35bd
000002f0: afdf 9fbf 1aee 3fbf 6dca 02be bcf7 4abd
00000300: 7f0c df3b 76f4 1b3f 9430 e73c 7f9c ba3e
00000310: 9ce5 213f d17f bc3e d967 073f f3b4 cd3e
00000320: ecba ea3e caba 9a3d 1905 413e bde0 033f
00000330: 48e8 8cbc c16f 703e ee67 e43d faf0 42be
00000340: bd26 c93e 4915 a83e 891e bb3e a887 99be
00000350: 40da b63e 6e65 433f 4714 2c3f 5937 163e
00000360: 9a6e a83e 75d9 e23e 6608 1d3f a597 f33e
00000370: 6fd9 34bf aece b13e fc47 9c3e eead 0f3f
00000380: d9c9 8b3e fd16 4fbd 7f0d c33e b534 843e
00000390: 339f 9ebf 04c4 283f 7ace 2f3f dbfd 0f3f
000003a0: 57b9 0d3e 2aa8 cc3e 8b8a 943d 2e79 ecbe
000003b0: 2cab 043f f453 983e 6eeb b13d fc8b c53e
000003c0: 4eff 63bf 0e4b 7d3e 77ff 50be 11c4 abbe
000003d0: 1fc3 2f3f dc2f 84be 379b a13f 3196 0e3f
000003e0: 4113 2b3e 8801 0b3f 9f70 483e 08f9 87bf
000003f0: 8404 cc3e fb9f 583f c8cb 443e ad56 5cbe

fc2.bias f4 [64]
0.19274183 0.081304625 -0.0087869195 0.16651168 -0.18730195 0.025270825 -0.03590133 0.11071308
0.4208985 -0.117105 -0.017550623 -0.13233902 0.18361397 0.0782456 0.4650617 1.1216373
0.01035641 0.10206438 0.20902842 0.11244136 -0.17154254 -0.038859967 0.112228125 -0.11150351
-0.011321303 -0.14282581 0.26605192 -0.047295257 0.123774804 0.021415442 0.513643 0.88739365
0.056852125 0.21628644 -0.04279828 -0.12175585 -0.11185176 0.08601499 -0.14917482 0.276213
0.10027283 0.20009519 0.03675447 0.3929512 0.3944744 0.56371045 -0.1223704 0.21208148
0.011995846 0.096660286 0.20676118 0.15358284 0.57245415 0.25988293 0.14596385 -0.12285494
-0.032323666 0.25374746 -0.43554226 -0.023894144 -0.1116182 0.012784082 1.0971323 0.07048611
00000000: 1d5e 453e 0a83 a63d 03f7 0fbc 0a82 2a3e
00000010: 15cc 3fbe c304 cf3c 460d 13bd 8abd e23d
00000020: 0280 d73e bfd4 efbd 53c6 8fbc e183 07be
00000030: 4d05 3c3e 3b3f a03d 911c ee3e d091 8f3f
00000040: efad 293c 2107 d13d 8c0b 563e a847 e63d
00000050: d9a8 2fbe a12b 1fbd dcd7 e53d f45b e4bd
00000060: fd7c 39bc ee40 12be f537 883e acb8 41bd
00000070: a57d fd3d 706f af3c 1c7e 033f 3b2c 633f
00000080: c6dd 683d 317a 5d3e 404d 2fbd 225b f9bd
00000090: 8912 e5bd a128 b03d 49c1 18be ca6b 8d3e
000000a0: d75b cd3d c1e5 4c3e db8b 163d e630 c93e
000000b0: 8cf8 c93e 544f 103f 559d fabd e32b 593e
000000c0: 3a8a 443c d4f5 c53d 34b9 533e d244 1d3e
000000d0: 5b8c 123f 600f 853e 8c77 153e 5f9b fbbd
000000e0: d265 04bd 30eb 813e 65ff debe a7bd c3bc
000000f0: 1598 e4bd 5474 513c d56e 8c3f 065b 903d

fc3.weight f4 [4, 64]
-0.5727484 -0.44687468 1.2755253 -0.7696778 -0.42586032 -0.8387163 0.0432358 -0.43601122
0.6142967 0.038339898 -0.87290287 -0.05603021 -1.5523183 -0.4905415 1.2212445 1.6653919
2.1086202 -0.56273323 0.81755656 -0.38937837 -0.5508462 0.057565544 -0.16256604 -0.028338576
-0.5999125 0.069027394 1.2697924 -0.58221805 -0.60962886 -1.0307034 2.8205075 1.287314
-1.0074748 -1.0244389 -0.4068536 -0.10754472 -0.22491579 -0.4488654 -0.013279302 -0.64663774
-0.480398 -0.9256018 -0.21605232 1.2013664 1.8562618 -1.0733954 0.056783017 -0.56760025
-0.7088152 -0.66230863 -0.3364212 -0.17538817 -0.025046855 -0.25896186 -0.3558113 0.09388304
-1.4146745 -0.61667985 -0.6123864 -0.35380667 -0.9032845 -0.37393847 1.8087106 -0.5833796
-0.2580806 -0.5530884 1.6363783 -0.8296721 -0.40659344 -0.4283696 -0.02625757 -0.33319098
0.69249386 -0.0800042 -0.60823226 -0.028456237 -0.37218052 -0.17160283 0.89143604 1.8811066
1.9875436 -0.34464073 0.914574 -0.7398163 -0.5785548 0.121078074 -0.71109086 -0.049964804
-0.6620476 0.12233766 2.8531733 -0.4722224 -0.7174632 -0.4426699 2.1805575 1.2581052
0.015656188 -0.7064188 -0.70139515 0.12477073 -1.1974237 -0.73470646 0.060606655 -0.5783459
-0.7711216 -0.5348374 -0.77282923 1.5754303 1.278621 -1.4777565 0.08615808 -0.4338673
-0.563439 -0.7977716 -0.6915403 -0.75377786 -0.00043852767 -0.34228584 -0.78830165 0.06952699
-0.38668534 -0.21172713 -0.649357 -1.2064154 -0.5378776 -0.45720908 1.9451361 -0.54700327
-0.729589 -0.4723452 -0.51043755 -0.31976286 0.33924598 -0.23510776 0.010004055 -0.4665196
2.1747591 0.07464154 -0.5973004 0.029477151 0.9445104 -0.6593923 1.2379448 1.8769381
1.8254019 -0.76188254 -0.13735287 -0.5650666 0.20979534 0.07387478 -0.91181713 0.017451845
-0.47335947 0.09271899 0.584453 -0.59634805 -0.64250296 -0.33974978 2.278793 1.3283216
-0.8170964 -0.64975196 -0.3609899 -0.034707863 -0.027622376 -0.5282008 0.03677585 -1.1090593
-0.6960335 -0.9341153 -0.6232919 1.8988281 2.910876 -0.96597755 -0.07443015 -0.7198142
-0.46468577 -0.6686973 -0.7071776 -0.78632855 -1.1170986 -0.6901063 -0.3916391 -0.08351641
0.033455133 -0.7286459 -0.12374456 -0.060939718 -0.43168738 -0.49098513 1.94936 -0.5549057
-0.5238273 -0.2137267 0.4180919 -0.6243108 -0.08584651 -0.39095315 0.03203967 -0.86614984
0.090679966 -0.012133922 -0.58782256 -0.018370356 -1.0457226 -0.75000006 1.350422 2.2257662
2.1143644 -0.56592286 1.1868135 -0.5817309 -0.15404728 -0.08245838 -0.7128936 0.014149144
-0.50155145 0.05589337 2.3208163 -0.68908256 -0.68309575 -0.668345 2.8439875 0.62364405
-0.86702716 -0.2848713 -0.61466616 -0.07586983 -0.30196783 -0.50064373 -0.056542873 -0.36858174
-0.5652098 -0.563264 -0.48222166 1.0520146 1.8878632 -0.87218887 0.0423356 -0.5018525
-0.58040696 -0.382846 -0.7325676 -0.48640284 -0.26130268 -0.3487328 -0.7981408 -0.05033504
-0.10301048 -0.8324075 -1.0120949 -0.48396444 -0.6401275 -0.736384 1.8343618 -0.47471645
00000000: a49f 12bf c2cc e4be 6a44 a33f 9b09 45bf
00000010: 5d0a dabe 1db6 56bf 0618 313d dd3c dfbe
00000020: 8c42 1d3f 4c0a 1d3d 9076 5fbf ef7f 65bd
00000030: 5eb2 c6bf 4128 fbbe bd51 9c3f 902b d53f
00000040: a2f3 0640 490f 10bf 634b 513f 9a5c c7be
00000050: 4204 0dbf d9c9 6b3d b677 26be 4d26 e8bc
00000060: de93 19bf 3c5e 8d3d 8f88 a23f 3e0c 15bf
00000070: a310 1cbf 17ee 83bf 3283 3440 b5c6 a43f
00000080: eff4 80bf d020 83bf 1d4f d0be 6840 dcbd
00000090: 5350 66be b0d1 e5be 6e91 59bc 0d8a 25bf
000000a0: baf6 f5be 3df4 6cbf d23c 5dbe 60c6 993f
000000b0: fd99 ed3f 0565 89bf 4f95 683d 404e 11bf
000000c0: ea74 35bf 0f8d 29bf 663f acbe f598 33be
000000d0: 102f cdbc a696 84be e62c b6be c045 c03d
000000e0: 0e14 b5bf bbde 1dbf 5bc5 1cbf 2626 b5be
000000f0: a73d 67bf dd74 bfbe d483 e73f 5e58 15bf
00000100: 2423 84be 3497 0dbf d874 d13f 6465 54bf
00000110: 042d d0be 4353 dbbe 1e1a d7bc 0298 aabe
00000120: 4747 313f 3ed9 a3bd 1cb5 1bbf 0e1d e9bc
00000130: 728e bebe a7b8 2fbe 2735 643f 1ac8 f03f
00000140: d467 fe3f c074 b0be 8621 6a3f 9a64 3dbf
00000150: 2b1c 14bf c8f7 f73d 0d0a 36bf e5a7 4cbd
00000160: f47b 29bf 2b8c fa3d 649a 3640 22c7 f1be
00000170: abab 37bf a1a5 e2be 418e 0b40 9709 a13f
00000180: 6841 803c ddd7 34bf a28e 33bf cc87 ff3d
00000190: 2e45 99bf b915 3cbf af3e 783d 7a0e 14bf
000001a0: 3a68 45bf 1beb 08bf 23d8 45bf b3a7 c93f
000001b0: daa9 a33f 2027 bdbf a673 b03d db23 debe
000001c0: 8a3d 10bf c23a 4cbf c908 31bf 96f7 40bf
000001d0: 30ea e5b9 1740 afbe 23ce 49bf 2b64 8e3d
000001e0: 9ffb c5be ffce 58be 433c 26bf d26b 9abf
000001f0: 59b2 09bf 4f17 eabe 38fa f83f 6808 0cbf
00000200: 58c6 3abf 3bd7 f1be 09ac 02bf f5b7 a3be
00000210: a6b1 ad3e 17c0 70be 0ce8 233c a8db eebe
00000220: 412f 0b40 aadd 983d aee8 18bf 117a f13c
00000230: 6fcb 713f efcd 28bf fa74 9e3f 823f f03f
00000240: c5a6 e93f bc0a 43bf 3ba6 0cbe 34a8 10bf
00000250: 97d4 563e a94b 973d d96c 69bf 2cf7 8e3c
00000260: 2c5c f2be 74e3 bd3d b69e 153f 44aa 18bf
00000270: 137b 24bf aff3 adbe bfd7 1140 7106 aa3f
00000280: 3b2d 51bf 2556 26bf abd3 b8be d529 0ebd
00000290: 5248 e2bc 2b38 07bf 46a2 163d a8f5 8dbf
000002a0: 402f 32bf 2e22 6fbf 0f90 1fbf cd0c f33f
000002b0: cb4b 3a40 4e4a 77bf d66e 98bd be45 38bf
000002c0: 4beb edbe bf2f 2bbf 9709 35bf d44c 49bf
000002d0: 16fd 8ebf ceaa 30bf ec84 c8be a70a abbd
000002e0: 4008 093d 8a88 3abf ca6d fdbd ed9b 79bd
000002f0: 2106 ddbe 6762 fbbe a184 f93f 4d0e 0ebf
00000300: 8c19 06bf 2cdb 5abe 2410 d63e d5d2 1fbf
00000310: 4cd0 afbd 032b c8be 073c 033d ffbb 5dbf
00000320: 6bb6 b93d 5ccd 46bc 8a7b 16bf 6e7d 96bc
00000330: 3dda 85bf 0100 40bf a1da ac3f f472 0e40
00000340: bf51 0740 52e0 10bf 81e9 973f 51ec 14bf
00000350: 92be 1dbe f0df a8bd 3280 36bf d0d1 673c
00000360: ad65 00bf 72f0 643d 4188 1440 b767 30bf
00000370: 5ddf 2ebf a818 2bbf e403 3640 23a7 1f3f
00000380: 7ef5 5dbf a7da 91be c35a 1dbf a461 9bbd
00000390: 879b 9abe 302a 00bf 8099 67bd bfb6 bcbe
000003a0: 97b1 10bf 1232 10bf c2e5 f6be 6aa8 863f
000003b0: 80a5 f13f c547 5fbf 1868 2d3d 6879 00bf
000003c0: 8d95 14bf 6404 c4be 8d89 3bbf cb09 f9be
000003d0: 77c9 85be 1b8d b2be f552 4cbf 1d2c 4ebd
000003e0: 29f7 d2bd a818 55bf 538c 81bf 30ca f7be
000003f0: 65df 23bf a983 3cbf 5ecc ea3f 090e f3be

fc3.bias f4 [4]
0.48424393 0.46268845 -0.054895476 -0.34734574
00000000: d2ee f73e 80e5 ec3e 14da 60bd 4dd7 b1be
