cross-entropy/checkpoint.pth (torch, 1695 bytes, 3 tensors)

fc1.weight f4 [16, 2]
1.4228461 5.4911947 -0.6398065 6.5488124 0.044813354 -2.90236 -1.1256634 -0.8354419
0.6849191 0.42917368 3.0292413 1.4425348 -1.891491 0.81608593 0.9714418 -3.158365
0.45087674 3.3792348 0.63669544 -1.5368247 -0.5966459 2.096081 1.0989707 0.30633622
-1.3558538 -0.55407083 -1.0645051 6.6480355 1.0109217 -3.937583 0.14448254 -3.4133503
00000000: d21f b63f deb7 af40 5cca 23bf df8f d140
00000010: 358e 373d 44c0 39c0 bd15 90bf 85df 55bf
00000020: dc56 2f3f a7bc db3e 17df 4140 fba4 b83f
00000030: 611c f2bf 02eb 503f 69b0 783f a722 4ac0
00000040: 51d9 e63e 6245 5840 79fe 223f acb6 c4bf
00000050: c9bd 18bf 3126 0640 12ab 8c3f 1ad8 9c3e
00000060: 9e8c adbf 96d7 0dbf b441 88bf b5bc d440
00000070: e265 813f 5c01 7cc0 3bf3 133e 5574 5ac0

fc1.bias f4 [16]
-0.115055546 -0.077933565 -0.5688821 -2.6708145 0.030482186 -3.633009 -1.9137585 -0.3009131
0.54451346 -0.7697849 -3.7956266 -1.8420206 -4.615404 -1.2086581 -0.9178668 -0.6930352
00000000: 3ea2 ebbd a29b 9fbd 42a2 11bf a0ee 2ac0
00000010: c7b5 f93c 3883 68c0 0af6 f4bf 4811 9abe
00000020: 3c65 0b3f a010 45bf 8ceb 72c0 55c7 ebbf
00000030: 64b1 93c0 4fb5 9abf 52f9 6abf c16a 31bf

fc2.weight f4 [1, 16]
2.4909666 1.7483419 -1.134063 -0.6570405 0.2630099 1.7580997 -0.10054166 0.6415359
1.0856744 1.2596623 0.24853277 2.8409648 0.7490107 1.6771654 -0.77840054 -3.1208236
00000000: ff6b 1f40 abc9 df3f fa28 91bf ce33 28bf
00000010: 3ca9 863e 6909 e13f c9e8 cdbd b23b 243f
00000020: 61f7 8a3f 9d3c a13f 607f 7e3e 5ed2 3540
00000030: 2abf 3f3f 5bad d63f 4245 47bf 93bb 47c0
