ddpg-pendulum/checkpoint_actor.pth (torch, 490647 bytes, 5 tensors)

fc1.weight f4 [400, 3]
000000 1c 30 53 be 12 96 92 bd eb a5 5a be de a9 8a 3d
       -0.20623821 -0.0715753 -0.21352355 0.06770681
000010 64 8b b1 be a7 3d 8c bd ad 8c 50 be b7 08 7d 3d
       -0.3467666 -0.06847697 -0.20366164 0.06177589
000020 dc 77 dd bd e4 a2 67 be a8 eb 53 be 82 0c 5a bd
       -0.10813877 -0.22620732 -0.20695364 -0.053234585
000030 b4 eb 4d 3e 63 88 5c be a7 20 2a bb e6 2a b1 3c
       0.20109445 -0.21536402 -0.0025959404 0.0216269
000040 fb 2e 2f bd 00 40 fe b8 5e 2c bd 3d 8e e4 5f be
       -0.042769413 -0.00012123585 0.09236978 -0.2186453
000050 cb 8a 68 bc 31 4d 2f be 14 5c e0 3a bd a5 bf bc
       -0.014193247 -0.1711929 0.0017117285 -0.02339446
000060 62 42 2b be 83 c5 cd 3d a0 42 89 3d 3e 4e 3f be
       -0.16724542 0.10047438 0.06702161 -0.18682191
000070 12 b9 73 bd 5e e5 cc 3d 75 ca 26 bd c0 9d d9 3a
       -0.05950267 0.10004686 -0.04072042 0.0016602799
000080 80 18 05 3a cc 42 54 3e f9 34 10 3e ba 54 0e 3e
       0.0005077198 0.20728606 0.14082707 0.13899508
000090 bf 0a f1 3d f9 ba 95 3e b9 11 58 3d b4 f3 10 bc
       0.11769628 0.2924421 0.052751277 -0.008847166
0000a0 12 18 bf 3c b0 bc d5 bb 1e 0a 9d 3e e0 29 5d 3e
       0.023326907 -0.0065227374 0.3067178 0.21598005
0000b0 9d f1 1a 3e d5 d2 f7 bd e2 5e a8 bd 18 a8 d8 3c
       0.1513123 -0.1210076 -0.082212225 0.02644734
0000c0 6d 5e 2b 3b 87 84 bf 3c a8 48 18 bd a8 c0 db bb
       0.0026148811 0.023378624 -0.037178665 -0.006706316
0000d0 0c f0 5f 3c c0 a7 e9 3a e9 e9 87 be 83 4a 1e 3d
       0.0136680715 0.0017826483 -0.26545647 0.03864528
0000e0 52 60 46 bb 63 ab 8c be 0d 80 96 be 1b 09 4d be
       -0.0030269814 -0.27474508 -0.2939457 -0.20023005
0000f0 50 45 a6 bb 57 b3 06 3d 95 42 44 3d 9a 4e 29 bd
       -0.0050741807 0.032885876 0.04791506 -0.041334726
000100 a2 aa a7 3c 3c f5 7d 3c ae b1 8d be 66 ba 97 3e
       0.020467106 0.015500363 -0.2767462 0.29634398
000110 db fa 9c bc 80 23 22 3b 66 83 cf 3c 38 f0 28 bc
       -0.019162586 0.0024740398 0.02533121 -0.010311179
000120 7a 5a 58 be 92 18 55 bd 15 2e 58 bd 61 ce 10 be
       -0.21128264 -0.052025385 -0.052778322 -0.14141227
000130 7f 48 cd be c2 4d c6 bd 60 11 39 be 6b c4 3a 3f
       -0.40094373 -0.096828 -0.18073034 0.7295596
000140 e8 02 4f 3c b0 3d 2a bb 00 f8 72 bb 80 ce 3b bb
       0.01263497 -0.002597671 -0.003707409 -0.002865702
000150 d2 18 db 3c 4a 5e c6 bc 81 f4 33 3d e2 58 dc 3c
       0.026745234 -0.024214882 0.04393435 0.026897851
000160 c9 41 0e 3d ed 8b 29 bd 18 43 c8 3b 5b c3 15 3d
       0.034730706 -0.04139321 0.006111514 0.03656326
000170 a0 7c 20 3c fb b0 10 be 5d b8 87 bd 50 3a 9a 3d
       0.009795338 -0.14130013 -0.066269614 0.075306535
000180 65 60 2f 3d d0 b2 0a bb 94 17 8d bc 35 ac 31 3e
       0.04281654 -0.002116371 -0.017223157 0.17350848
000190 cb 75 74 3c 28 bd b3 3c cf fb c1 3e b6 f4 f3 3d
       0.014920662 0.021940783 0.37887427 0.11911909
0001a0 b6 6e 35 3e 06 89 8a 3e d2 d1 48 3e e5 c7 1a 3e
       0.17718014 0.27057666 0.1961129 0.15115316
0001b0 44 ad a8 3d 07 ac 4c bd 10 77 57 be 11 34 4e be
       0.08236173 -0.049968746 -0.21041512 -0.2013705
0001c0 68 fc e5 bd 41 f6 e5 bc fc 83 84 bc 23 02 a8 bc
       -0.11229783 -0.028071525 -0.016176216 -0.020508831
0001d0 f6 a4 81 bc df da 24 be 1b fc a4 bd 16 92 b1 3d
       -0.01582573 -0.16099118 -0.08055898 0.08670442
0001e0 00 86 49 3d 08 75 54 3e 57 91 52 3d 17 b3 40 bd
       0.049200058 0.20747769 0.051408138 -0.047045793
0001f0 29 73 45 3d 50 19 ce 3b dd 4f 82 bd 7d ed e9 3e
       0.04820553 0.0062896386 -0.06362889 0.45689002
000200 1c 27 ff bc 19 5e 06 3e 07 df f0 3d 2d 4c f1 bb
       -0.031146578 0.13121833 0.11761289 -0.007363817
000210 3f 79 80 bd dd bd 65 3e 9c 35 85 3d e6 d0 d4 3c
       -0.06273126 0.22435708 0.06504366 0.025978517
000220 6d 21 1e 3d d0 b8 b1 bc fb b6 4c be 7d 4f 2c be
       0.038606096 -0.02169457 -0.19991677 -0.16827197
000230 2e d2 49 bd 9b 17 1e be af 2a fb 3d 23 f1 f8 bd
       -0.04927271 -0.15438692 0.122640006 -0.12155368
000240 11 2c 61 3e cd ac a3 3e 72 3c ba 3d bf 8e 07 be
       0.21989466 0.31967774 0.0909356 -0.13238047
000250 5d 17 a2 be 25 33 8d bd 22 17 87 be d8 bd a4 3d
       -0.3165845 -0.06894521 -0.26384836 0.08044022
000260 67 0d c6 3d 5f de 2f be af 0a a6 bd 0b 6e 6b be
       0.09670525 -0.17174672 -0.081075065 -0.22991197
000270 fd 0f 0d bd e4 42 0b bd 5d 0a fd bc 71 4f 1b 3d
       -0.034439076 -0.03399934 -0.03088873 0.037917558
000280 eb fb a8 be 8a fe 71 bd 0f b3 11 bd b3 bd 27 3e
       -0.33004698 -0.059080638 -0.035571154 0.16380958
000290 05 cc 69 bd 6e b2 a6 3c b4 0e 0a 3c 88 c3 69 bc
       -0.057079334 0.020348754 0.008426357 -0.01426781
0002a0 c7 33 ab bc 6c a3 69 3e d6 59 89 3d 44 ab f9 3d
       -0.020898713 0.22816247 0.06706588 0.121908695
0002b0 ed d2 b5 be 30 d6 ab 39 2d 07 1b 3d d0 fc 8e 3b
       -0.35512486 0.00032775244 0.03784864 0.0043636337
0002c0 f1 a5 d1 bd 38 7e 28 bd d2 ba 64 3e 3f a7 6e 3d
       -0.10236729 -0.041135997 0.22336891 0.058264967
0002d0 da e8 15 bd d0 20 ab bb 29 78 06 3d e1 31 40 3d
       -0.036599018 -0.0052224174 0.032829437 0.04692257
0002e0 96 cb 0a bd 81 c9 3c 3d 69 0d c8 bd ac c1 b3 3e
       -0.03388556 0.046090607 -0.09768183 0.35108697
0002f0 95 0a 09 be 4b b2 3e bd 23 7c 38 bd 18 40 1e 3c
       -0.13382943 -0.046556752 -0.04504026 0.009658836
000300 d5 d5 10 3d 89 58 32 3d e4 77 52 3c 38 e5 1a be
       0.035360176 0.043541465 0.012845967 -0.15126503
000310 96 a7 fa 3d bb 6d f2 bd d7 63 42 3d 42 32 cf 3c
       0.12238996 -0.11837336 0.047458496 0.02529252
000320 70 2a af bb 5d 01 51 be 8f 8d 06 be 52 da ea 3d
       -0.005345635 -0.20410676 -0.13139938 0.114674225
000330 7f 67 23 3d e4 56 81 bc 38 b6 56 bc 61 fa 10 3d
       0.039893623 -0.015788503 -0.013104968 0.03539503
000340 c8 a1 25 bc 72 79 8d 3c 22 1a c5 3c 07 30 e6 bc
       -0.010109372 0.017269824 0.024060313 -0.028099073
000350 88 be 10 3c 31 fe 90 3c 50 e4 06 bf b7 cc 8b be
       0.008834489 0.017699333 -0.5269213 -0.27304623
000360 d1 ff 67 be 09 b0 04 3e 35 84 a3 3d 53 67 63 be
       -0.2265618 0.12957777 0.07984201 -0.22207384
000370 c9 cf 16 3e 3c 5e 96 3d e2 04 df bd 92 11 84 3e
       0.14727701 0.073421925 -0.10889603 0.25794655
000380 8c 8f ce bd a4 6f 5f 3c a7 7e cb bc 68 0b 5c bc
       -0.10085973 0.013637457 -0.024840666 -0.013430454
000390 4a bb b7 3c 79 da 44 3d 8e 03 ed 3c 50 c9 59 bb
       0.022428174 0.048059914 0.02893236 -0.0033231564
0003a0 70 fb 95 3b 34 4f 65 bc c3 34 05 be df a9 dd be
       0.004577093 -0.013995934 -0.13008408 -0.43293664
0003b0 6e 4e 1d bd 87 b1 b8 3d 9c 47 4e bf 94 77 58 be
       -0.038404875 0.09018236 -0.8057802 -0.21139365
0003c0 8f 6c ff bd dd a9 62 be 88 fb d6 bc 6d b1 8e b9
       -0.12471878 -0.2213511 -0.026242986 -0.00027216543
0003d0 6b 14 a0 be 25 fb 31 bd 91 32 5f 3e c8 9e a7 3e
       -0.31265578 -0.0434524 0.21796633 0.32738328
0003e0 ff cf 9e 3d 8c c8 9c 3d 07 7e 4a bf dc dd 31 be
       0.07754516 0.07655439 -0.7909855 -0.17369789
0003f0 59 b1 1b be d9 59 5c be 58 f2 98 3b b3 ec 70 3d
       -0.15204372 -0.21518649 0.0046675615 0.058819484

fc1.bias f4 [400]
000000 a9 d6 06 be 09 f1 fb 3e cc 4d 24 3e 7a 0b ed 3e
       -0.13167824 0.49207333 0.16045302 0.46297818
000010 6c e6 2a 3e ea ad e8 be cd 9f 41 3e 87 af 78 3e
       0.16689461 -0.45445186 0.18908615 0.24285708
000020 96 74 85 3e 8c e2 ba 3e b0 70 b1 bd 94 1e 32 3e
       0.2606551 0.36500967 -0.086640716 0.17394477
000030 9d 7e 18 bb b6 6f 5d be 2a 46 c9 bd 5f ea 06 3f
       -0.0023268827 -0.21624646 -0.09827836 0.5270137
000040 2f 03 9e be 90 b6 a4 bd ea 20 dd 3e 5e 94 4d bd
       -0.30861804 -0.080426335 0.43189174 -0.050190322
000050 38 fa ff be 70 d1 00 bf 4d 13 8b 3e 24 d7 84 be
       -0.4999559 -0.50319576 0.27163163 -0.2594539
000060 a9 ca ac 3e 72 77 94 3c 3b ec 20 3e f0 49 8a bd
       0.33748367 0.018123362 0.15715115 -0.06752384
000070 d1 2d 02 bf aa f3 f8 be 6d 35 db be e9 6a 61 3e
       -0.5085116 -0.486234 -0.42814198 0.22013439
000080 3e 6a ee be 64 34 c2 3e c9 7f b9 be 8c 18 71 3e
       -0.4656543 0.37930596 -0.36230305 0.2354452
000090 ef b1 68 3d 0a 2a c7 3e f4 7e ba be 70 4b 91 3e
       0.056810316 0.3889926 -0.36424983 0.28377867
0000a0 40 bd 60 3e f2 92 98 be d3 dc 22 3e 64 a3 5d 3e
       0.21947193 -0.2979961 0.1590455 0.2164436
0000b0 60 ce 2b 3e 2e b5 d3 be 9a 52 e8 3e 23 b8 42 3e
       0.16777945 -0.41349167 0.4537552 0.19015555
0000c0 3f 97 0a be b6 4a c4 3e f4 6c 7f 3e 2f ce 1d be
       -0.13534258 0.3833825 0.24943906 -0.15410684
0000d0 31 cd e1 be d1 f8 dc 3e 63 06 84 3e 38 98 84 be
       -0.4410186 0.43158582 0.25786123 -0.25897384
0000e0 ae 27 4f 3e 92 50 86 3e 09 d6 53 3e 39 27 3c 3e
       0.2022998 0.26233345 0.20687117 0.18374337
0000f0 8c 60 e7 be 37 78 0d bf df f5 d6 3d 9d 45 d3 be
       -0.45190847 -0.5526156 0.10496115 -0.41264048
000100 86 75 06 bf e8 9d 3e 3e dd d4 8c be 4b 2e a6 3e
       -0.52523077 0.18614924 -0.27506152 0.32457194
000110 c6 39 f2 be 0c 7c 8a be 0c 03 d4 be d2 ad c8 3b
       -0.47309703 -0.27047765 -0.41408575 0.0061242366
000120 81 38 85 3e e2 3a 8a 3e 91 e0 68 3e e2 42 0d bf
       0.26019672 0.2699805 0.22741915 -0.5518018
000130 d3 98 a2 be 2a 2a 46 be 84 65 10 3e bd f5 6b bd
       -0.3175722 -0.19352022 0.14101225 -0.0576074
000140 19 71 86 3e 0b 75 a3 3e ea 5d da bd 37 6f 7a bd
       0.26258162 0.31925234 -0.10662444 -0.06114122
000150 b9 6b 5c 3e 5d f0 8b be a4 b3 39 be 14 16 f5 be
       0.21525468 -0.2733182 -0.18134934 -0.47868407
000160 ea 92 d7 3e dd 41 6c 3e 6d 81 ca be ea 45 4a 3e
       0.42104274 0.23072 -0.3955187 0.19753233
000170 db c5 a8 3e 36 92 19 3d 3e ff 9b 3e 48 27 b6 be
       0.32963452 0.037492953 0.30468172 -0.35576844
000180 c2 11 84 3b c4 c3 98 be c3 0e cb 3c 04 10 16 3e
       0.004030437 -0.29836857 0.024787312 0.14654547
000190 1e 6b cb be 37 0e 1e 3d 6c b1 9e 3e ac be b5 be
       -0.3973016 0.038587775 0.30994737 -0.35497034
0001a0 b5 a9 08 be ba 17 be 3e f6 09 c4 3e 64 f4 f0 be
       -0.13345988 0.37127477 0.3828885 -0.47061455
0001b0 3a 78 8a 3e aa be a8 be a0 7c da 3d d3 c8 94 be
       0.2704485 -0.32957965 0.106683016 -0.29059467
0001c0 f6 d0 01 bf 2e fa 87 be e2 66 45 bd 6f ab db 3d
       -0.50709474 -0.2655806 -0.04819382 0.10726058
0001d0 b7 fc 0e 3e b5 7f c1 bc 7a f6 e7 3e 88 1b 3f 3e
       0.1396359 -0.023620466 0.45305234 0.18662846
0001e0 3b 2f 0e bf 78 31 b8 3e 56 a5 93 be b3 cb b0 3e
       -0.5554082 0.35975242 -0.2883708 0.3453041
0001f0 ce 3c d9 be 8e 40 04 bf f4 ba c8 3e 71 96 64 3e
       -0.42429203 -0.51661 0.39205134 0.22323014
000200 f3 ac 0d bf da 96 d4 3d c7 e9 a8 3e cb 80 22 3e
       -0.55342025 0.10380335 0.32990858 0.15869443
000210 c7 b8 5c 3e 7a 03 28 3e 02 ae 93 3e a0 4f bb be
       0.21554862 0.16407576 0.28843695 -0.36584187
000220 b7 75 f6 3e 34 4f fc be ea e8 ca 3d af 6a 92 3e
       0.48136684 -0.49279177 0.09907706 0.28597018
000230 3f e5 de 3e f0 10 e3 3d e0 39 14 3d c4 c9 7c be
       0.43534276 0.11087215 0.036188006 -0.24686342
000240 ad c8 19 3e 82 e8 04 bf 36 90 80 3e 38 06 0d bf
       0.15017958 -0.5191728 0.25110024 -0.55087614
000250 da 79 9e be 96 04 41 be 4b c8 92 3d df 2e ec be
       -0.3095234 -0.18849406 0.07167109 -0.4612951
000260 76 59 98 3e 1a 4d 61 bd 10 ef 92 be a5 05 ca 3e
       0.29755753 -0.05500517 -0.28698015 0.3945743
000270 c4 ca 0f 3e 46 c0 ea be 43 62 84 be ce bf 2e be
       0.14042193 -0.45849818 -0.25856218 -0.17065355
000280 a4 97 13 be 86 2e 31 3e 90 b1 63 be 05 f4 e9 3e
       -0.14413315 0.17302904 -0.22235703 0.45693985
000290 a4 28 02 3f c1 bc 52 3d 85 70 3c 3c 50 2a 39 be
       0.5084326 0.05144954 0.011501436 -0.18082547
0002a0 a4 bb de bc 2e da 84 3e 31 9e 88 be 5f c1 d5 3e
       -0.027189083 0.25947708 -0.2668319 0.41749093
0002b0 84 c4 e0 3c aa e5 4d be 35 5c da be ad 7a 3e be
       0.027437456 -0.20107141 -0.42648473 -0.18601485
0002c0 29 1c dc 3e a0 97 00 bf 59 8c 3c be 66 d6 bf be
       0.42990234 -0.5023136 -0.18412913 -0.3746826
0002d0 5e 5e 92 3e 22 93 c8 3e b4 87 7d 3e 28 6f 3b bd
       0.2858762 0.39174753 0.24758798 -0.045760304
0002e0 61 c8 b5 be a1 6b ea 3c bd 10 e2 3d ab d1 04 bf
       -0.3550444 0.028615775 0.11038349 -0.5188243
0002f0 f2 85 e0 be 74 93 ea be c5 93 7b 3e cf 7b 6b 3e
       -0.43852192 -0.45815623 0.24568088 0.22996448
000300 d4 23 a3 3d 17 de 10 bd 83 ca 13 3e 79 ef e4 3e
       0.07965818 -0.03536805 0.14432721 0.44713953
000310 d7 87 8f 3e ad 85 c0 be c3 ae 24 3e 66 b3 e0 be
       0.28033325 -0.37601987 0.16082291 -0.4388687
000320 ae 49 f5 be 03 bb d6 3e fb 9b 0f bf 92 52 75 3e
       -0.47907776 0.41939554 -0.5609738 0.2395728
000330 d7 c9 01 3e 68 86 a6 3e 2b 03 9e 3d 40 eb ad be
       0.12674652 0.3252442 0.07715448 -0.33968544
000340 25 90 58 3e 35 de 26 3c 98 91 f6 be fa 7c 3a 3b
       0.21148737 0.010184814 -0.48157954 0.002845584
000350 45 44 ae be da 50 d5 3d 31 da 98 3e 1f 3c bc 3e
       -0.3403646 0.10415812 0.29853967 0.3676462
000360 1f 4a 09 be 72 fb 9a 3e 9c b2 86 3e c0 6d a2 be
       -0.13407181 0.30269963 0.26308143 -0.31724358
000370 20 3d 34 be 57 a5 46 3e 5d 0f 89 3d b0 57 11 3e
       -0.17601442 0.1939901 0.066923834 0.14193606
000380 b5 7c 9e 3e 71 25 99 3e dc e4 be 3e d0 7a 6c 3e
       0.3095452 0.29911378 0.3728398 0.23093724
000390 b7 49 38 be fa 80 3c 3a fd 24 4a 3e 26 94 ba be
       -0.1799687 0.000719085 0.19740672 -0.36441153
0003a0 9c b1 9a be a7 c3 cf be f4 d9 0a bf 07 b1 a0 be
       -0.3021363 -0.40578958 -0.5423882 -0.3138506
0003b0 76 8d 0f bf 88 4b 96 3e 66 93 cc 3e 05 c9 4e 3e
       -0.5607523 0.293545 0.39956206 0.2019387
0003c0 63 87 00 bf 48 bc d3 3e 5e 08 df bc 2b ad 03 3e
       -0.50206584 0.41354585 -0.02722567 0.12859027
0003d0 fa 38 15 be 27 93 7c 3e 78 be 33 3e 9e 3b 43 be
       -0.14572516 0.24665509 0.17553127 -0.19065711
0003e0 a2 66 03 3e 58 30 cb 3e 8b 77 55 3e e0 0d 2f 3e
       0.1283212 0.3968532 0.20846383 0.17095137
0003f0 36 f9 55 3e 0b b1 b0 3d 22 f7 b9 3e 39 83 c1 be
       0.20895848 0.08627518 0.3632136 -0.37795427

fc2.weight f4 [300, 400]
000000 0f 00 fa bc e8 78 c1 3c d5 ca a2 be 91 4b 23 be
       -0.030517606 0.023617223 -0.31795374 -0.15946795
000010 6d 01 94 bb bc 5f e7 3c 7e ea 5e bd f7 59 b2 bd
       -0.0045167715 0.028243892 -0.054422848 -0.08708566
000020 1d f1 be bd 5c 08 f0 bd 40 8d 45 bc 0b 5e 94 3d
       -0.093233325 -0.117203444 -0.012057602 0.072445
000030 d9 43 63 3e 4e ab 47 3d 30 91 89 3e 86 d1 39 3c
       0.2219385 0.048747353 0.26868582 0.011341458
000040 80 7a 00 3d ec b4 59 3d b1 73 ae bd 55 f4 89 bd
       0.031366825 0.053151056 -0.0851816 -0.06736056
000050 4c d8 e3 bc ce 10 46 bd d6 1c 00 bd 1c 38 f8 3c
       -0.0278131 -0.04835587 -0.0312775 0.030300193
000060 ea f0 13 be ce 36 ff bd ae eb cc 3d e4 6a 52 3d
       -0.1444737 -0.12461625 0.1000589 0.05137147
000070 58 64 5d bc 89 c0 64 bd 52 54 46 bd 66 95 12 bd
       -0.013512693 -0.05584768 -0.048420258 -0.03578701
000080 f0 8f ad 3b fc 3c 4a 3d c8 12 b6 3e 68 1f a4 3d
       0.0052966997 0.049374565 0.35561204 0.08013803
000090 2c aa 3f be b2 f7 b5 bd f2 04 5f 3d ff 6a 33 bd
       -0.18717259 -0.08885135 0.054448076 -0.04380321
0000a0 ca ed c0 3d 50 77 46 bd 8c a4 54 3d 52 f6 96 3c
       0.09420355 -0.04845363 0.051914737 0.018428002
0000b0 52 cf 14 3c 74 80 49 3d bd e3 95 bd 89 00 9c be
       0.009082632 0.049194768 -0.07318828 -0.30469158
0000c0 ff 0b a6 3e 5a 1e 02 be 6d 32 e3 bd ae b5 72 bd
       0.32431027 -0.1270689 -0.11093602 -0.059255295
0000d0 f4 80 d1 3c f4 45 5a bd 63 6e 70 ba a6 c5 b1 bc
       0.025574185 -0.05328937 -0.00091717223 -0.021700691
0000e0 d0 71 05 3c a9 f3 7a bd b1 88 b4 3b c1 47 16 3d
       0.008144811 -0.06126753 0.005509459 0.036689524
0000f0 d8 77 ea bc 68 f3 8a 3c d6 9a c9 bd db c6 3a bd
       -0.0286216 0.016961768 -0.09843986 -0.0455998
000100 f0 72 6c bc 7a fc 8b be 0b 65 4a bd 4a 23 14 be
       -0.0144317 -0.27341062 -0.04941277 -0.14466587
000110 ca 76 4d 3d 39 ec 61 bd 48 cd 5d bd 58 fc d9 be
       0.050162114 -0.05515692 -0.05415085 -0.42575336
000120 2f c6 dd bc 1b ec 4d bd fe bb ce 3c b8 87 e3 3c
       -0.02707204 -0.050273996 0.025236126 0.027774677
000130 cc 04 66 bc 1a 15 1d bd 1f 2b d8 be 5f 6d a2 be
       -0.01403923 -0.038350202 -0.422204 -0.3172407
000140 a6 02 9f bd 5e 3d 61 3c 23 8f 6d 3e 3f 9d 50 be
       -0.07764177 0.013747541 0.23199134 -0.20372485
000150 6d 24 20 bd 03 d2 83 bc 5f ad d0 bd 1b ce 63 bd
       -0.03909724 -0.016091352 -0.10189318 -0.05561648
000160 01 26 a2 bd c2 62 49 bc 9a 80 4b 3d 1d bd 58 be
       -0.07917405 -0.012291612 0.04968319 -0.21165891
000170 66 88 2a be 73 2f f0 3d 7e b1 8f bc 66 7d 36 3d
       -0.16653594 0.117278 -0.01754069 0.044553183
000180 86 86 61 3e d7 c9 41 bd 3f 05 05 bf 18 45 47 be
       0.22023973 -0.04731163 -0.5196113 -0.19459951
000190 c6 69 0f 3d 63 6e d8 bd 31 a9 d6 3c 20 86 3a 3d
       0.035012983 -0.105679296 0.026203724 0.045538068
0001a0 d2 01 78 3e a8 d7 55 be 65 19 8e bd 60 d1 e7 bb
       0.24219444 -0.20883048 -0.06938437 -0.00707452
0001b0 90 01 0d be 20 84 7c bc 83 d5 48 bc 74 7b 90 3e
       -0.13770127 -0.01541236 -0.012257936 0.28219187
0001c0 6e fb 51 bd 40 7d 58 3d 2d a1 9c be ea 38 01 be
       -0.051265173 0.052853823 -0.30591717 -0.12619367
0001d0 42 60 59 3d c6 36 cf be 15 4f a4 bd d2 e2 d8 bc
       0.053070314 -0.40471476 -0.08022896 -0.026475344
0001e0 2c 25 34 3d 8c 44 a2 bc 16 36 1c 3d 02 e5 02 be
       0.043980762 -0.019808076 0.038137518 -0.12782672
0001f0 de d0 4e 3d 70 f1 7b bb b2 ed 37 3d c5 13 87 bc
       0.05049216 -0.0038443469 0.04490442 -0.016488919
000200 d3 a1 6a bd 7e 08 d9 bd 46 53 d1 bc 21 44 49 be
       -0.057283234 -0.10597323 -0.025552403 -0.19654895
000210 5b 06 fe bd 95 7f d1 be ce 57 19 bd d0 fe 45 bd
       -0.12403556 -0.4091765 -0.037437253 -0.04833871
000220 9d 24 15 be 84 ed 93 bc 04 68 13 3d ce 24 8d bd
       -0.14564748 -0.018057592 0.03598787 -0.068917856
000230 2e b7 a9 bd 75 8a 18 be c7 3d 12 bf 60 30 a4 bb
       -0.08286892 -0.14896567 -0.57125515 -0.0050106496
000240 f7 e2 86 3d 54 c8 da 3c 76 79 5e bd 80 b9 c7 3a
       0.06586259 0.026706852 -0.054315053 0.0015237778
000250 28 b7 09 3d 86 a0 b2 3e c4 df 80 3e 14 2f 5b bc
       0.033621937 0.34888095 0.2517072 -0.0133779235
000260 75 e3 4b bd 5a 1a 7e be 2c 34 c5 bc 9a 5b 8c bd
       -0.049777467 -0.2481474 -0.024072729 -0.06853409
000270 fa da 0c 3d 90 3b 19 bd 54 bf b0 bd 7c 73 cd bc
       0.03438852 -0.03741032 -0.08630243 -0.025079481
000280 bd eb 39 bd 39 c2 9c 3d 0a 81 f1 3e 8f cc cf bd
       -0.045390833 0.076542325 0.47168761 -0.10146438
000290 25 44 32 bd 80 32 60 bd 60 1e 46 3e 48 86 1b 3d
       -0.04352202 -0.05473566 0.19347525 0.037969857
0002a0 cd b4 a7 be 2e c3 9c bd c0 7d 59 3d 24 2b fe 36
       -0.32755128 -0.07654415 0.05309844 7.574812e-06
0002b0 58 b5 01 bd bc df 39 bc df 7a 69 bd 40 4b 86 bd
       -0.031667084 -0.011344846 -0.057001945 -0.065573215
0002c0 7a 10 07 be f0 26 03 3d 8b 36 d4 3e 6f 95 45 bd
       -0.13189879 0.032019556 0.41447863 -0.048238214
0002d0 f2 76 58 be 69 f8 3a bd 4a 8e 08 be 19 fc b1 be
       -0.21139124 -0.04564706 -0.13335529 -0.34762648
0002e0 bb e3 95 be 41 61 c8 3d 34 6c da be 60 aa 16 3b
       -0.29275307 0.09784175 -0.42660677 0.0022989735
0002f0 35 64 51 bd b0 44 f6 3b e9 21 a0 bd b8 3d bf be
       -0.051120955 0.0075155124 -0.07818968 -0.37351775
000300 6c e6 9c bd ad 95 ae be 84 69 04 bf a9 5a 2d bd
       -0.07661137 -0.3409857 -0.51723504 -0.04232279
000310 7f f1 a8 bd 10 dd a5 bc ff b6 c5 be 8e 14 2a bd
       -0.08249187 -0.020247012 -0.38616177 -0.04152351
000320 e6 12 28 3d 9f c9 52 be 74 d9 40 3d 5a 93 10 bd
       0.041033648 -0.20584725 0.04708238 -0.035296775
000330 bb f4 97 3d 39 59 8c 3d 36 e0 fb 3d c4 81 6a 3d
       0.074197255 0.06852955 0.12298624 0.05725266
000340 08 7f 69 be b6 dd 1f 3e ce 77 25 bd f9 ae d5 bd
       -0.22802365 0.1561192 -0.040397458 -0.10433764
000350 d8 6f 83 bb 96 be 38 3d ea 46 82 bc a1 37 84 bd
       -0.0040111355 0.045103632 -0.015902955 -0.06455923
000360 8a df 42 3d 4d 98 d1 bd 01 48 b4 3c 74 45 45 bd
       0.047576465 -0.10234127 0.02200699 -0.04816194
000370 da 7b db 3e 38 51 66 bc 69 5c 15 3e 9a 00 98 3d
       0.4286793 -0.01405745 0.14586033 0.0742199
000380 0c be 90 bd b4 41 de bd 02 c4 6b be 5a de 2b 3b
       -0.070674986 -0.108523756 -0.2302399 0.002622506
000390 b8 b8 c8 3e 7f 71 00 bd f2 4d a7 bd 40 35 7c ba
       0.3920343 -0.03135824 -0.08169164 -0.0009620972
0003a0 a2 24 54 3d e2 66 30 3d 36 e4 ff bc 04 f1 bf bd
       0.05179275 0.043066867 -0.03123675 -0.09372142
0003b0 57 78 0c bd 93 f3 d5 ba 2f 00 09 3d a3 82 32 3d
       -0.034294453 -0.0016323201 0.03344744 0.043581616
0003c0 10 80 5f 3c 44 0d 9e 3c 85 f0 ea be 55 17 55 3d
       0.013641372 0.019293435 -0.45886627 0.052024204
0003d0 8a c0 3c 3d 1d 33 d5 be b2 42 88 be d9 78 a5 3e
       0.046082057 -0.4164056 -0.26613384 0.32318762
0003e0 95 e1 0b be 43 2c 2b bd 12 4b 97 3b 1b 88 1d 3d
       -0.13660271 -0.04179026 0.0046171034 0.03845988
0003f0 7e 6c 41 bd 7b a4 32 be 5c 42 16 3d 20 b0 c4 3b
       -0.047222607 -0.17445557 0.03668438 0.006002441

fc2.bias f4 [300]
000000 b5 bd 7a bc cb 2a 61 bc 42 21 d4 3d 53 0c b8 3a
       -0.015304019 -0.013743113 0.10357906 0.0014041759
000010 6d e2 90 bc d6 c6 c2 bc 8a 83 47 3b d7 90 5e bc
       -0.017686093 -0.023776453 0.0030443394 -0.013584337
000020 c6 af b9 3c 6c bc ed 3c 94 36 12 3d da 08 63 bd
       0.022666823 0.02902051 0.03569658 -0.055428363
000030 3e 37 12 3e ab 48 29 bd 78 07 06 3d d4 3d ac bc
       0.14278886 -0.041329067 0.032721967 -0.021025576
000040 67 09 dc 3c 1e d3 7b bd 13 ad 3f bc 38 94 a3 b9
       0.026859952 -0.061480634 -0.011698979 -0.00031200214
000050 ec 6d be bc df ff 25 bd 99 1a 27 3c 8d 7d 05 3e
       -0.023245774 -0.04052722 0.0101992125 0.13036175
000060 ea c5 d0 bc dd 7a 2d 3d bc 81 06 bd 00 ef a9 bb
       -0.025484998 0.0423535 -0.032838568 -0.0051859617
000070 63 c9 ea bc 00 3d 13 3d d8 08 10 bd 1d 48 75 bb
       -0.028660482 0.035946846 -0.035164684 -0.0037427016
000080 b1 3d 01 bc 70 f6 0d 3c 51 95 ae bb 33 58 e1 bc
       -0.0078882435 0.008664712 -0.0053278585 -0.027507877
000090 0c ca 09 3d 80 b0 7e ba d9 4f 8f bc 1f e6 26 bd
       0.033639953 -0.00097156316 -0.017494129 -0.040746804
0000a0 27 7e 9d bc e5 3e 8c bd b8 74 48 bd a4 00 31 bc
       -0.019225193 -0.06847934 -0.048939437 -0.010803375
0000b0 f6 5d 42 3c 6a 20 2b 3a d4 ab 64 bc f6 14 03 3e
       0.011863222 0.00065279624 -0.013956983 0.12800965
0000c0 89 fa ce bc d5 1b 27 bd 45 4d 23 3d 8f 8b 8a 3d
       -0.025265949 -0.040798027 0.03986861 0.067649
0000d0 f5 a5 a5 bc 44 20 8b 3c 30 2f e3 bc 06 cf 23 bd
       -0.020220736 0.016983159 -0.027732462 -0.039992355
0000e0 40 25 55 bc 4d 36 ad 3c 9f 30 11 bd 43 8c ad 3d
       -0.013009369 0.021144057 -0.03544676 0.084740184
0000f0 5c 0e 02 3c d8 dd 71 bd 3a 34 98 3d f7 00 54 bc
       0.007937994 -0.059049457 0.074318364 -0.012939683
000100 eb c3 2a 38 fd f6 80 bd 6d 4c b8 bc 86 73 83 3d
       4.071362e-05 -0.06297109 -0.02249738 0.06418519
000110 54 10 0f 3e f3 be 2a bd 80 4a 18 3e 60 a8 bf 3d
       0.13971072 -0.04168601 0.1487217 0.09358287
000120 d2 5d 75 ba be 67 07 3d 95 b3 06 bd a7 0b 89 bb
       -0.00093599886 0.03305792 -0.032886107 -0.0041822973
000130 b0 96 fb bc 50 07 4c 3c a9 87 83 3c 1b b6 60 bd
       -0.030711502 0.012452915 0.016055899 -0.05486117
000140 af c4 89 3d ef 3b 63 3c 8d 99 09 3e 45 c2 26 bd
       0.067269675 0.01386927 0.13437481 -0.040712614
000150 ce 45 33 bc 19 84 b0 bc 3e 56 ef 3c 88 7c c6 bc
       -0.010941936 -0.021547364 0.029215928 -0.024229303
000160 ef f9 03 bd 84 bf b5 3b 23 6f e2 3c 17 91 e2 3d
       -0.032220777 0.005546512 0.027640885 0.1106283
000170 b1 3e 89 3b 45 8c 42 3c 9a cb 3a bd cb 18 31 3d
       0.0041883816 0.011874263 -0.045604326 0.043236535
000180 5c 4e 16 3d 30 8e 2b bc 11 bd 1b 3d 22 76 e0 bb
       0.036695823 -0.010470912 0.038022105 -0.00685002
000190 90 30 08 3e e7 36 3f bb be a1 32 bd f1 bf 95 3b
       0.13299775 -0.0029177011 -0.04361128 0.0045700003
0001a0 19 15 f1 bc 8f 65 97 3c f3 31 00 bd 78 d2 53 3d
       -0.029429005 0.018481044 -0.031297635 0.05171439
0001b0 8c a5 25 bd 85 b7 1f bd 56 1b 88 3d 65 f4 83 bc
       -0.04044108 -0.038993377 0.06645839 -0.016107747
0001c0 16 4c ea 3c d2 55 55 bc df 26 0a bd a4 ef 1d 3d
       0.028600734 -0.013020949 -0.033728477 0.038558617
0001d0 7b 85 3e bd 3e 14 d6 bc 66 f6 c6 3c 39 ad ca bc
       -0.046514016 -0.0261327 0.024287414 -0.024740802
0001e0 ae 8a 40 bd 40 68 74 bb bd c9 98 bc 8f c9 0d 3d
       -0.047007255 -0.0037293583 -0.018650884 0.03461605
0001f0 41 22 b7 3c 0d 77 e9 bc 89 92 1e bc 27 cb fa 3c
       0.0223552 -0.02849915 -0.009678491 0.030614449
000200 b0 da 85 3d 54 80 53 3c c3 ac 21 3d 7e 8b d7 bc
       0.06535852 0.012909014 0.0394714 -0.026311632
000210 d8 d9 25 3d c3 98 3a bd 49 d4 b2 3c 53 6b d8 3c
       0.040490955 -0.04555584 0.021829741 0.026418364
000220 58 01 9d bc 00 f8 72 3c 07 5e c1 3c 36 01 c4 bd
       -0.01916568 0.014829636 0.023604406 -0.095705435
000230 d4 3d 8f bc a4 40 bb bb b3 3e 56 bd ea 9d 90 3c
       -0.017485537 -0.005714493 -0.05230589 0.017653424
000240 2a 7b 2c bd ff 46 5f bd b2 34 b7 3c 3e 6f e9 bc
       -0.042109646 -0.054511067 0.022363994 -0.028495427
000250 35 14 08 bd 1e 53 84 3c 6b 4a b3 3d e2 24 a9 bc
       -0.033222396 0.016152915 0.087544285 -0.02064747
000260 88 9c 63 bd 06 f6 d9 bc cd d9 08 bd 7c f9 13 3c
       -0.0555692 -0.02660657 -0.033410836 0.00903165
000270 5e 15 8b 3d 98 98 c9 bc 05 f2 01 3b ea 01 93 bc
       0.06791185 -0.024608895 0.0019828093 -0.017945249
000280 1c cd 1b 3d 4b 27 a4 3d 48 c9 5f 3c 4e 16 7b 3d
       0.038037404 0.08015307 0.013658829 0.06130057
000290 46 23 25 3a 56 dd 07 3d 5f d0 a7 39 85 da 69 bc
       0.00062995066 0.033170067 0.0003200797 -0.0142732905
0002a0 44 58 08 bd 48 02 3e 3d df c8 87 bc 61 b5 99 bb
       -0.0332873 0.046388894 -0.016575275 -0.0046908115
0002b0 e8 c3 44 bd 7e ac 38 3d 7a 40 be 3c e2 e3 35 3d
       -0.048038393 0.045086376 0.023224104 0.04440678
0002c0 d2 0c 00 3c 50 d3 27 bd 87 7f 8c 3d bb 16 00 3d
       0.007815557 -0.040973008 0.068602614 0.031271677
0002d0 67 b5 82 bc 24 18 f9 3d b4 0a 3a bc b3 de e4 3c
       -0.01595564 0.121628076 -0.011355091 0.027938223
0002e0 c3 d3 ff 3d 07 e3 bb 3d 05 31 fd 3b 07 6b 1c 3b
       0.12491562 0.091741614 0.007726791 0.0023867504
0002f0 04 01 57 bd ac b8 de 3c 24 57 34 bc 87 a3 b4 ba
       -0.052491203 0.027187668 -0.011007104 -0.0013781645
000300 bb 06 2b bd 44 bc 9f 3c 0a 98 8f bc 70 40 f2 ba
       -0.041754466 0.019498952 -0.017528553 -0.0018482339
000310 48 87 9b bc 31 d0 2c 3d 5a 80 4b 3b 1e 63 59 3d
       -0.018985406 0.042190734 0.0031051845 0.05307304
000320 d8 65 7f bc 78 48 06 bd 40 16 4b bd 9b fc b8 ba
       -0.015588246 -0.032783955 -0.049581766 -0.0014113368
000330 f6 ed 0e bd b7 6f dd bc 22 c3 9c 3d cc 66 f4 3d
       -0.034894906 -0.027030809 0.07654406 0.119336694
000340 c7 1d 8e 3d d3 09 fd 3b 40 90 b7 bc 99 37 07 3c
       0.06939273 0.0077221184 -0.022407651 0.008253002
000350 3d 17 17 bd 5f fa 9e 3d 37 7e 9e bc 69 a0 f1 3c
       -0.036887396 0.07762598 -0.019347293 0.029495435
000360 3d e4 28 bd 66 dd 25 3d 96 77 f6 bb 2f 12 4a bd
       -0.04123329 0.040494345 -0.00752158 -0.049333747
000370 2c 93 e2 3c bc db e3 bc f7 9b ec bb 72 50 f5 bc
       0.027658068 -0.027814738 -0.007220741 -0.029945586
000380 c0 74 89 3c c5 e6 b2 3c ac 7d 25 3c 5c fb 0b bd
       0.016779304 0.021838555 0.010100763 -0.03417526
000390 78 79 07 bd 82 04 00 bc 41 08 29 3d b4 aa 0e bd
       -0.033074826 -0.007813575 0.041267637 -0.034830764
0003a0 b9 18 5d bc 00 9d cf bc 23 c3 f8 3c 00 54 80 38
       -0.013494664 -0.025343418 0.030366486 6.119162e-05
0003b0 40 bf e9 3c 7b ae e4 3c eb 3f d6 3c cc eb fd bc
       0.028533578 0.02791523 0.026153525 -0.030996226
0003c0 6d 37 fd bc 5a 5c 22 3d 5e 34 d4 3d 98 26 25 bd
       -0.030910218 0.039638855 0.10361551 -0.04032001
0003d0 44 63 ff 3c 0a 12 c8 3d c4 26 ab bd 15 e2 a0 3d
       0.031175263 0.09769066 -0.08357003 0.07855622
0003e0 33 06 06 3c 90 40 f1 bd 93 b2 10 bd e9 ba 20 bd
       0.008180189 -0.117798924 -0.03532655 -0.03924075
0003f0 3c b4 b2 3d 48 4b 4c bc dd 54 d3 bc c2 d9 12 3d
       0.08725783 -0.01246912 -0.025797302 0.0358522

fc3.weight f4 [1, 300]
000000 7e 4a 39 3f 96 29 6f bf 14 fb 4b 3e 8e d9 df be
       0.7237929 -0.9342283 0.19919997 -0.4372067
000010 6b 49 33 bf 08 60 f8 39 5a 14 c9 be 86 79 26 bf
       -0.700339 0.00047373795 -0.3927334 -0.6502918
000020 45 8c 89 bf 18 21 91 be 9e dc 9f be 46 8a 61 bf
       -1.0745932 -0.2834556 -0.31223005 -0.88101614
000030 c9 99 48 3e 01 9c d1 bf 0a 03 92 bf 30 35 01 bb
       0.19589914 -1.6375734 -1.1407177 -0.001971554
000040 11 ca 57 bf 37 c8 d9 be 04 73 e5 be d3 b5 8a be
       -0.84292704 -0.42535564 -0.44814312 -0.27091846
000050 27 21 ff be c0 00 8f bf 72 39 b6 bf 8f 8f 30 3e
       -0.4982998 -1.1172104 -1.4236281 0.17242263
000060 76 8a ac bf d4 b9 2f bf 49 1a 0c ba 81 db 5d bf
       -1.3479755 -0.68642926 -0.0005344493 -0.8666306
000070 3d 48 31 bb 1a 1e ad be 4e 6d 45 bd 51 5e 2b bf
       -0.0027051114 -0.33812028 -0.048199944 -0.6694079
000080 57 f5 53 ba 27 87 0a bf 41 05 8b be 85 77 d3 be
       -0.000808557 -0.54112476 -0.27152446 -0.41302124
000090 74 9c fc bf f4 48 1b 3b ee e7 a5 bf d7 af 1e 3b
       -1.9735246 0.0023694606 -1.2961404 0.0024213695
0000a0 a5 e7 ec be 9d 35 03 c0 ff 6a a5 be 13 51 13 37
       -0.4627048 -2.0501473 -0.32308194 8.780759e-06
0000b0 53 be 91 3a 94 00 0b c0 bb b8 6c be 70 61 1b 3e
       0.0011119343 -2.1719103 -0.23117344 0.15173888
0000c0 72 f8 0b 3a 39 39 89 ba d3 5b 6d 3e 21 1f 82 be
       0.00053394504 -0.0010469324 0.2317956 -0.25414374
0000d0 93 10 c5 bf 42 a5 6d bf 9e a3 72 bf 24 e3 05 bb
       -1.5395683 -0.9283029 -0.9478091 -0.0020429576
0000e0 0a 58 24 3b f3 31 a4 bf 1c 8a 0f c0 d1 f1 3e bf
       0.002507689 -1.2827743 -2.2428045 -0.7458773
0000f0 10 d9 7e bf b5 b7 0c bb 62 c1 88 be f4 1e 83 ba
       -0.9954996 -0.0021471803 -0.2671004 -0.0010003732
000100 70 b3 e6 be fd df 01 c0 2b 1d a7 be 01 a8 5f be
       -0.45058775 -2.0292962 -0.3263944 -0.21841432
000110 c0 b2 20 3e 65 04 a9 bf 94 14 2f 3e 47 9a 43 3e
       0.15693188 -1.3204466 0.17097694 0.19101821
000120 99 ab eb bf e1 e7 3d ba fa 45 c8 bf 5c 5f c0 bf
       -1.8411742 -0.00072443305 -1.5646355 -1.5029101
000130 4f a5 7d bf 29 dc df be 3e 92 4e bf 88 c1 cb be
       -0.99080366 -0.43722656 -0.806919 -0.3979609
000140 0d bc 30 3e 31 35 a1 be 13 93 23 3e 12 6f 23 c0
       0.17259236 -0.31485894 0.15974073 -2.5536542
000150 4b cf 1f bb db 8c d1 bf ee 4b 99 be 76 76 1d bb
       -0.002438503 -1.6371111 -0.29940742 -0.0024026907
000160 56 0b 1c 3f ee 6c 9f bf 82 ba da bf a5 81 78 3e
       0.609548 -1.2455118 -1.7088168 0.24268205
000170 a3 a8 ce bf 4f d1 9a bf 66 79 c2 ba b3 ca a5 be
       -1.6145214 -1.2095126 -0.0014837205 -0.3238121
000180 62 e6 45 3e 1f d0 47 bf 15 6a 70 3e e9 d1 cd bf
       0.19326165 -0.7805194 0.23477967 -1.6079684
000190 06 52 2a 3e e8 69 f7 be e9 ce 7f 3a b1 c3 64 bf
       0.16632852 -0.48322988 0.000975831 -0.893611
0001a0 4f fa cf bf 84 c1 cc b9 fb 4d c2 3a fd 8a 43 3e
       -1.6248263 -0.00039054092 0.0014824265 0.19095989
0001b0 c6 57 07 3b 66 43 a6 ba 79 46 5d 3e 06 4c cc bf
       0.0020651682 -0.0012684881 0.21608914 -1.59607
0001c0 0a 29 42 bb 59 b3 d2 bf f7 6c 3e bb f8 21 a1 3a
       -0.0029626512 -1.6460983 -0.0029056647 0.0012293449
0001d0 c6 a3 d5 bf 8f 5a 77 bf 87 6b 14 bf 77 ab be bf
       -1.6690605 -0.96622556 -0.57976574 -1.4896077
0001e0 91 42 c2 be e8 4d 8b be 7a d1 14 bf e3 e3 57 3e
       -0.3794141 -0.27207875 -0.58132136 0.21083026
0001f0 89 c9 5d bf 34 74 29 3b ba c9 8e be 54 0f cc be
       -0.86635643 0.0025856616 -0.2788828 -0.39855444
000200 67 77 82 be bd 47 97 be 1c a2 71 39 9a 63 b3 be
       -0.25481722 -0.2954692 0.00023043941 -0.35036927
000210 eb 6a a3 be 95 0a 76 bf ef 01 87 be 22 1a 90 bf
       -0.3191751 -0.96109897 -0.26368663 -1.1257975
000220 0f d6 30 bf 95 7c 0b c0 10 c8 38 3a bc 11 12 bf
       -0.6907663 -2.179479 0.00070488546 -0.5705831
000230 ae a3 bd ba 7a 90 fb be 68 a4 1f 3b 26 0e a2 be
       -0.0014468336 -0.49133664 0.0024359468 -0.3165142
000240 d8 02 08 3a a4 8f c4 be da 57 dc bf 6d f5 a2 38
       0.0005188412 -0.3839084 -1.721431 7.770476e-05
000250 aa 47 cb bf 5a 7d 38 bb af 8c a1 be 9b ab 01 3b
       -1.5881245 -0.0028150887 -0.31552646 0.0019786123
000260 5d 69 db bf 95 43 08 c0 aa 5b 06 bb f6 06 03 3c
       -1.7141529 -2.1291249 -0.0020501413 0.007997265
000270 03 76 1e 3e ac 9e d8 bf 22 ba 94 be 7d d4 ab be
       0.15474705 -1.6923423 -0.29048258 -0.33560553
000280 e6 37 ea be af f5 4f 3e 06 53 4c bf 43 15 a0 be
       -0.45745772 0.20308565 -0.79814184 -0.3126622
000290 96 65 0b bf 73 4b 13 c0 fc 1e 33 bf 4e 99 01 c0
       -0.5445188 -2.30148 -0.69969153 -2.024982
0002a0 92 6c 10 c0 73 f9 28 bf 64 15 77 be ab 80 b3 3a
       -2.2566266 -0.6600563 -0.24129254 0.0013694962
0002b0 4b f1 88 ba 53 b0 9c be 26 85 00 c0 f6 6a 00 bf
       -0.0010447887 -0.30603275 -2.0081267 -0.5016321
0002c0 a6 36 a5 be 3e 25 80 bf 42 dd 8b 3e 3a 4b d4 bf
       -0.32268256 -1.0011365 0.27317244 -1.6585457
0002d0 6e aa c2 bf 3d ee 44 3e 52 2b cb bd 63 43 95 be
       -1.5208261 0.19231506 -0.09920372 -0.29152974
0002e0 90 3f 15 bf 7d a3 2b 3e c0 f5 1d c0 dd 41 29 3b
       -0.58300114 0.16761585 -2.4681244 0.002582661
0002f0 95 09 60 3a b4 30 98 bf 9d 91 91 be 67 4b ce bf
       0.00085463497 -1.1889863 -0.28431407 -1.6116761
000300 5a 51 00 c0 14 f3 36 3e ff 73 f5 be 78 3d eb be
       -2.0049653 0.17866164 -0.4794006 -0.45945334
000310 f2 65 7e bf 0a 57 5d be 01 3d a5 bf ae a7 47 3e
       -0.99374306 -0.21615234 -1.2909242 0.19497558
000320 e1 09 e3 ba 38 06 1a 3a 90 f4 2c bb 98 e9 3d bf
       -0.001732167 0.00058755605 -0.0026390888 -0.7418456
000330 34 38 a9 3a bd b2 b8 ba 7d 33 99 be f0 9a 0e 3e
       0.0012910427 -0.0014091354 -0.29922095 0.13926291
000340 25 f2 78 3e bb cd 69 39 9e 4a 83 be c0 84 bf bf
       0.24311121 0.00022297252 -0.25642866 -1.4962387
000350 ec 1b e5 bf b4 9f 54 3e 3b 45 d5 bf 4d 27 98 b9
       -1.7899146 0.20764047 -1.6661752 -0.0002902098
000360 7d 3f 25 3b c9 5d 91 ba 02 34 45 bf 33 42 76 be
       0.0025214844 -0.0011090572 -0.7703248 -0.2404869
000370 4b 74 8b bf 78 93 9e bf 32 49 2c bf 48 63 4c bf
       -1.0894865 -1.2388754 -0.6729919 -0.7983899
000380 f2 52 9d bf e8 b6 8b bf 32 8d 69 be 85 98 ba be
       -1.2290938 -1.0915194 -0.22807768 -0.36444488
000390 6e 51 34 bf 45 a9 a0 bf 7b 18 ae ba f0 f2 80 bf
       -0.7043675 -1.2551657 -0.0013282442 -1.0074139
0003a0 f5 61 50 be 35 20 8a bf 05 a8 3a be 4f fe a2 be
       -0.20349868 -1.0791079 -0.18228157 -0.31834647
0003b0 44 ab b0 be 4e 22 cd be 23 15 1b bf 74 59 6a bf
       -0.34505665 -0.40065235 -0.6057913 -0.91542745
0003c0 14 9c 27 ba 9d 73 94 be 60 d9 20 3e ca 5d 86 be
       -0.0006393802 -0.28994456 0.15707922 -0.2624343
0003d0 0b 26 82 3e f7 e1 4d 3e 10 5a 9b be 3a fd 14 bf
       0.2541965 0.2010573 -0.3034215 -0.58198893
0003e0 87 e5 ac bf d5 65 a9 be 48 2e 96 39 0c ec 55 bf
       -1.3507546 -0.33085504 0.00028644712 -0.83563304
0003f0 fb 56 1e 3e 7e 37 0d 39 4c f7 d6 3a d0 d2 a1 3e
       0.15462868 0.0001346748 0.0016400605 0.3160615
