ddpg-pendulum/checkpoint_critic.pth (torch, 491863 bytes, 5 tensors)

fcs1.weight f4 [400, 3]
00000000: 0e44 50bf 7919 b3bf 88a0 48be 5bd6 29be
00000010: 1c84 44be 80a9 7dbd 89bb e63e 40b0 2dbe
00000020: be96 db3e 97b6 203e 2adc fdbe 37f6 bc3b
00000030: 2bd0 7dbe d2ce 9e3f 3adc 853e bf14 35bd
00000040: 487c 3ebd b42b 3d3c caa4 88bf 1b05 76bd
00000050: 3c93 c5bd bfd5 8ebf 62b0 bd3e f3c5 2f3e
00000060: 765b e1bf f156 df3d c9e3 acbe 75c8 993e
00000070: af42 b03f 80dc c1be 8dad bbbd b0f6 d5bf
00000080: 849c 8dbe 4f44 48bf 95e3 8bbe 5bfd 49be
00000090: 0390 adbf 447d a9be fa5f 19be 5339 143d
000000a0: 3439 7a3c b0b0 0ebb b4fc 5ebf eba2 653f
000000b0: 96a0 223e f384 073d b7f9 62be 89ac 6f3c
000000c0: 68ce 253c f882 31bc 300d 01bd ca94 b3bc
000000d0: 0826 273c e8f4 d2bb 2b23 8b3e d089 1fbf
000000e0: d8e7 e3bd 6051 baba 2c74 07bc e03f 0abc
000000f0: 472b 0d3d aaaf f2bc d012 a2bc efa0 0d3d
00000100: 8cc4 753c 1235 b33c 6c7e 123e b8d1 0fbf
00000110: 4c3b 3a3c d854 d73b 095d 003d 53ce edbc
00000120: 258d 093e a949 efbe 39e4 893b e5d3 383e
00000130: 67f5 06c0 2c9a e4be 6dcf 89bf 3f8c 6a3f
00000140: 7d70 223e 6477 68bf 5c8c 993f e8ae e83d
00000150: bea4 963c 9a6a bc3c 4847 49bd 3a69 febc
00000160: 2808 21bd 4e90 0cbd 0026 9ebc 22b4 da3c
00000170: d992 103d 9a41 85be 8042 fabd 1b35 42be
00000180: 4d48 083d 8396 d6bc 0513 30bd d963 a4be
00000190: c59c 92be 9f62 d8bd 1d47 253d 4559 0cbd
000001a0: e8c4 833b 7725 1ec0 9671 6d3f c9b2 6abf
000001b0: 6eab 6ebf 6007 aabe b167 86be 84a2 c93d
000001c0: d558 0c3f b3a5 cabd b567 cf3c fb87 dabc
000001d0: 968b c9bc 7dee 27bf ae6a 92bf 32fc 38bf
000001e0: f581 a9be 1059 3f3f 7f80 02be 3b6a 26bd
000001f0: 8957 1f3d c26a bb3c b839 07be 589a f33f
00000200: 3c6a cabe 9e24 51be 0410 ed3f fc3e 31bf
00000210: 91b7 8dbf 0527 713f f9b8 283e 2592 2ebd
00000220: a0e5 31bd 1a36 aa3c f991 5cbe 7306 d0be
00000230: fde4 9cbd 2692 cbbe 20c4 bb3f 9fc3 863e
00000240: 1c01 4b3f 62ba f5bf a166 01bf 209d 9c3d
00000250: 2cf9 dabe 8e26 1e3d 47bf 94bf a3ac 193e
00000260: 72c7 6fbe ca13 d53c 98b6 f8bb 8770 e0bc
00000270: 933e 19bd 667a c23c f60f 883c 730d bebe
00000280: 3b76 9bbe cbc7 36bd adfb 333f 56fb f33e
00000290: f133 d0be 6f71 653d fa21 103c 4113 0bbd
000002a0: 5705 4ebe 69e7 643f 5c49 9e3d d469 a4bd
000002b0: a550 993f 8103 e83d e274 1abf adf1 84be
000002c0: 6cf6 46be b3f9 9dbf 1986 01bf 31a5 97be
000002d0: 84fc 703c dfd1 0c3d 6048 213c 40ef 073c
000002e0: 8294 f13c 3a86 08bd 8abf eabd 895b a13f
000002f0: 6b21 823e 0034 e23b b8c7 1ebd 3a17 a4bc
00000300: b4f1 80bc e769 32bd 6e2c 27bd 90c1 d8be
00000310: a35c 8b3f 6e61 5b3e 6fad 01bc 40e3 c13b
00000320: 4356 003d 3dc7 bd3d 7eb5 683d 884b 173e
00000330: 51bb 063d ab33 183d 7475 0cbd beb4 bf3f
00000340: d07b 60bf f348 3abf 80e5 6b3a 2291 37bd
00000350: 900f 86bb cf88 bfbf 0ac8 80bd c780 9fbe
00000360: bbbd aebe 009b 54be d14e 10be 38a7 873d
00000370: 1646 a9bf 397f dfbd 948a a83e 8091 2dc0
00000380: 3eb5 34bf ef54 443d 9e71 ba3c b23d 20bd
00000390: 3b9c 25bd 8dba 1dbd 0870 04bc 2138 1c3d
000003a0: 949a 0a3c 86b6 ae3c 48d1 18bf 1d14 153f
000003b0: 78fb c13d 5cfc 503c e141 143d e807 d2bb
000003c0: d13e 6fbf 4749 a03e a903 9f3b 3be8 353e
000003d0: 2576 cebf a127 78be 59b6 8b3d fa9c 1bbc
000003e0: 54b2 77bb d79c 733c 4027 debc 0c71 10bc
000003f0: 3297 173e 14e2 ffbf 52ba 18bf b9f3 2e3d
-0.81353843 -1.3992149 -0.19592488 -0.16585676 -0.1919102 -0.061929226 0.45064953 -0.16961765
0.42888445 0.15694652 -0.49582034 0.005766656 -0.24786441 1.2406867 0.26144582 -0.04420924
-0.046505243 0.011546064 -1.067529 -0.060063463 -0.09647223 -1.115898 0.37048632 0.17165355
-1.7606037 0.10905255 -0.33767536 0.3003575 1.377035 -0.3786354 -0.091639616 -1.6715908
-0.27658474 -0.7822923 -0.2732207 -0.19725554 -1.3559574 -0.33103383 -0.14978018 0.03618748
0.015272427 -0.0021772794 -0.87104344 0.8970172 0.15881571 0.033085775 -0.22165571 0.014628538
0.010120012 -0.010834448 -0.031506717 -0.021921534 0.010201938 -0.0064378865 0.2717527 -0.6231966
-0.11128205 -0.0014214925 -0.008267444 -0.008438081 0.0344651 -0.029624779 -0.019784361 0.034577306
0.015000474 0.021875892 0.14306039 -0.5617938 0.011366677 0.0065713935 0.031338725 -0.029029047
0.13432749 -0.46735886 0.0042081145 0.18049581 -2.1087282 -0.44648874 -1.0766426 0.9162025
0.15863223 -0.90807176 1.1995959 0.11361486 0.018389102 0.02300005 -0.049140245 -0.031056035
-0.03931442 -0.034317307 -0.01930523 0.026697222 0.035296295 -0.26026613 -0.12219715 -0.1896557
0.033272076 -0.026194816 -0.04298689 -0.32107428 -0.2863523 -0.105656855 0.040351022 -0.03426482
0.004021276 -2.4710367 0.92751443 -0.91679054 -0.9323033 -0.33208752 -0.26250985 0.098454505
0.54823047 -0.09894886 0.025318006 -0.026676169 -0.024602693 -0.6559828 -1.1438806 -0.7225982
-0.33106962 0.74745274 -0.1274433 -0.040628653 0.03890184 0.022878055 -0.13205612 1.9031477
-0.39534175 -0.20424125 1.8520513 -0.6923673 -1.1071645 0.94200164 0.16476811 -0.042619843
-0.043431878 0.02077775 -0.21540059 -0.4062992 -0.076608635 -0.3975994 1.4669228 0.26321122
0.7929857 -1.9197505 -0.50547224 0.07647157 -0.42768228 0.038610987 -1.1620873 0.15007262
-0.23415926 0.026010413 -0.0075901262 -0.027397407 -0.03741319 0.023740005 0.016609173 -0.37119636
-0.3036364 -0.04462413 0.703059 0.47652692 -0.40664628 0.05601638 0.008797163 -0.03395391
-0.20119224 0.89415604 0.07728836 -0.080279976 1.1977736 0.11328793 -0.603346 -0.25965634
-0.1942994 -1.2341827 -0.5059524 -0.2961822 0.014708642 0.034379836 0.009843916 0.008296788
0.02948976 -0.033331133 -0.114623144 1.2606059 0.2541612 0.0069031715 -0.038764685 -0.020030607
-0.015740253 -0.043558028 -0.040813856 -0.42335176 1.0887645 0.21423885 -0.007914885 0.005916983
0.031332266 0.09266517 0.05681371 0.14774907 0.032893483 0.03715865 -0.0342917 1.4977033
-0.8768892 -0.7276756 0.0008998737 -0.044816144 -0.0040912107 -1.4963626 -0.062881544 -0.31152937
-0.34129128 -0.20762253 -0.14092566 0.06623691 -1.3224514 -0.10912938 0.32918227 -2.7120056
-0.70589054 0.04793256 0.022759255 -0.039121337 -0.040432196 -0.038507987 -0.008083351 0.038139466
0.008459706 0.021327268 -0.5969434 0.58233815 0.09471792 0.01275548 0.03619564 -0.006409634
-0.93455225 0.31305906 0.0048527312 0.1776437 -1.6129805 -0.24233867 0.068218894 -0.009497875
-0.00377955 0.0148689365 -0.027118325 -0.008816015 0.1480377 -1.9990869 -0.596593 0.0427129

fcs1.bias f4 [400]
00000000: e3e3 ebbe 10c0 9f3e 68ec 9c3c dc83 e93e
00000010: eaac 3b3e eaad e8be b02f 7a3e 7363 b6be
00000020: c7f9 153f 15ed 0dbf 9541 33be cf67 f43e
00000030: 9ca7 06bd b66f 5dbe 202d e4be 5a72 a63e
00000040: 2a8c 9dbe 90b6 a4bd b25e 903e c259 a3be
00000050: 38fa ffbe 70d1 00bf fa1d 043f 24d7 84be
00000060: 4271 da3e dad4 93bd 4ff4 0ebf 2e26 75bf
00000070: d12d 02bf aaf3 f8be 6d35 dbbe 186f 4f3f
00000080: 3e6a eebe 2fbe 8e3d a55b c9be 8975 c5be
00000090: 1e9e 4e3f 871d f23d 1e00 c6be 606c 1ebe
000000a0: af22 b53e f292 98be 1912 823e 3c02 5b3e
000000b0: f323 13bf 2eb5 d3be cb72 b3bd 9b84 953b
000000c0: 00cb 1fbf bfcc dd3e 1b7d 583e bc24 62be
000000d0: 31cd e1be 0ea9 cb3d 9efe db3e bfdb 8bbe
000000e0: f8e9 a43e 480b 163e 55cf 2b3f 106e 373f
000000f0: 8c60 e7be 3778 0dbf 24cf 503d 9d45 d3be
00000100: 8675 06bf dccf bb3e 977f 9fbe 7e0f 9e3e
00000110: c639 f2be 6b5d adbf 0c03 d4be 4799 0c3f
00000120: b1ee e93e 79a0 233e c0e9 2bbe e242 0dbf
00000130: d398 a2be 2a2a 46be fe20 6d3e 7683 24be
00000140: 04a3 8dbe 4058 2a3e c1c6 64be 4963 91be
00000150: c9f9 8bbe a41b b4be ee27 913e 1416 f5be
00000160: cbb7 9a3d 0c32 e73e 6d81 cabe 95cb 103f
00000170: 77ee 47be 48e6 573e 3267 0a3f 4827 b6be
00000180: 843f e13d ddb8 a8be a88c 9dbe 79eb 033e
00000190: 1e6b cbbe 7bdc 4fbf 6d92 28bd acbe b5be
000001a0: 63d3 1e3e f0d8 553e bba5 a43e 64f4 f0be
000001b0: 0c1a 123e 7861 7fbf b613 b33e 85bf a4be
000001c0: f6d0 01bf 2efa 87be c968 263f 6913 87be
000001d0: 6aeb 203f 4bcc 0a3f 5cb8 b33e 6440 523e
000001e0: 3b2f 0ebf 6ea6 803e 56a5 93be 2813 f43d
000001f0: ce3c d9be 8e40 04bf 15fc b53d e4e6 433f
00000200: f3ac 0dbf 8800 253e 7e8f f43d ddd1 733e
00000210: 1c19 2a3e 62ed f43e 377d 5f3e de58 cabe
00000220: e89a 963e 344f fcbe 613c 7e3f 5aa3 133e
00000230: e419 6e3e b500 dbbe 1879 20bf 7fcd aabe
00000240: 03f1 733f 82e8 04bf ff92 e23d 3806 0dbf
00000250: 6885 a8be fe17 49be 9ea7 403e df2e ecbe
00000260: 6064 f03d f4aa 4bbe ba52 91be b2ba efbd
00000270: fefa 973e 46c0 eabe 604a 85be cebf 2ebe
00000280: 9765 29be a994 e43e 3857 9d3e 268d 863e
00000290: 6da6 cd3e f5f3 a3be 2063 4dbd 8cb9 a6bf
000002a0: 9ae5 f8bd 3db2 6e3e 319e 88be a3ef 713e
000002b0: 9214 43be 84af 8ebe 355c dabe 4cb6 5ebe
000002c0: 9aa5 9a3e a097 00bf 94e3 71be 66d6 bfbe
000002d0: 2524 9a3e 2bcc 5a3e 5db7 e03e 9923 093f
000002e0: ce92 86be 6d59 763e 4c59 4ebd abd1 04bf
000002f0: f285 e0be 7493 eabe 2f5f 0b3f 4b59 953e
00000300: 280a 5e3f dfa2 e5bd 2f54 e93e 62c7 da3e
00000310: ccbe 9b3d ad85 c0be 5f14 a93d 66b3 e0be
00000320: ae49 f5be 05e6 833e fb9b 0fbf e16b 153f
00000330: e681 173f 2d4d 1ebf f59c a23d 40eb adbe
00000340: acc3 883e 2415 213e 9891 f6be f0fe e7bd
00000350: 4544 aebe e625 2c3f 9fc9 f73d db5f 3cbd
00000360: 5313 d0bf 7cdb a73d c40a db3e 47f8 c1be
00000370: aa79 1fbe 61ff 523d dbf7 073f a11a 9f3e
00000380: fe28 893e cbc3 10bf 98f2 3c3e f741 b53e
00000390: 87e0 3ebe 44df 6bbe 83d2 f93e 2694 babe
000003a0: 9cb1 9abe a7c3 cfbe f4d9 0abf 9f66 d5bf
000003b0: 768d 0fbf cc14 e93e 288e b9bc fa02 783f
000003c0: 6387 00bf ad60 483d 13ce 1ebf 4fdf 923e
000003d0: fa38 15be 8f89 f53e 300a 4d3e c0a7 4fbe
000003e0: ca90 303f 688f 9a3e 6915 10bf 4cf0 493e
000003f0: 9a23 bbbe 2544 353f 2dc3 023e 3983 c1be
-0.460723 0.3120122 0.019155696 0.45608413 0.1832768 -0.45445186 0.24432254 -0.3562275
0.58584255 -0.55439883 -0.17505486 0.4773545 -0.03287469 -0.21624646 -0.44565678 0.32509118
-0.30771 -0.080426335 0.28197247 -0.31904417 -0.4999559 -0.50319576 0.5160824 -0.2594539
0.42664534 -0.072183326 -0.55841535 -0.9576138 -0.5085116 -0.486234 -0.42814198 0.8102889
-0.4656543 0.069698684 -0.39327732 -0.38566235 0.8071002 0.11822038 -0.38671964 -0.1547103
0.35378024 -0.2979961 0.25404432 0.21387571 -0.5747673 -0.41349167 -0.087621294 0.004562927
-0.6241913 0.4332027 0.21141474 -0.22084326 -0.4410186 0.09944354 0.42967695 -0.2731609
0.32209754 0.14652741 0.6711324 0.7165232 -0.45190847 -0.5526156 0.050978795 -0.41264048
-0.52523077 0.36682022 -0.3115203 0.30871195 -0.47309703 -1.3544134 -0.41408575 0.5492138
0.4568992 0.15979184 -0.16788387 -0.5518018 -0.3175722 -0.19352022 0.23157117 -0.16065773
-0.27663434 0.16635227 -0.22341444 -0.2839606 -0.27339008 -0.35177338 0.28350776 -0.47868407
0.07554587 0.4515537 -0.3955187 0.5656064 -0.19524561 0.21083939 0.54063714 -0.35576844
0.10998443 -0.3295354 -0.30771375 0.12882794 -0.3973016 -0.811958 -0.041155268 -0.35497034
0.15510325 0.20883536 0.32157692 -0.47061455 0.14267749 -0.997581 0.34975976 -0.32177368
-0.50709474 -0.2655806 0.6500364 -0.26381996 0.62859213 0.54217976 0.35101593 0.20532376
-0.5554082 0.25126976 -0.2883708 0.11917716 -0.42429203 -0.51661 0.088859715 0.76524186
-0.55342025 0.16113484 0.119414315 0.23810525 0.16611141 0.4783736 0.2182511 -0.39520925
0.2941506 -0.49279177 0.9931088 0.14417782 0.23252064 -0.42773977 -0.62684774 -0.33359906
0.9528963 -0.5191728 0.110631935 -0.55087614 -0.3291428 -0.19638059 0.18813941 -0.4612951
0.11737895 -0.19889432 -0.28383428 -0.11705531 0.2968368 -0.45849818 -0.26033306 -0.17065355
-0.1654266 0.4464467 0.30730605 0.26279563 0.40166035 -0.32022062 -0.05014336 -1.3025374
-0.12153168 0.2331018 -0.2668319 0.2362657 -0.19050816 -0.27868283 -0.42648473 -0.21749228
0.3020447 -0.5023136 -0.2362197 -0.3746826 0.301057 0.21366946 0.43889895 0.5356994
-0.26283878 0.2405755 -0.05037813 -0.5188243 -0.43852192 -0.45815623 0.54442114 0.29169688
0.8673425 -0.11212706 0.4557204 0.42730242 0.07604751 -0.37601987 0.082558386 -0.4388687
-0.47907776 0.25761428 -0.5609738 0.58367735 0.59182584 -0.6183651 0.079400934 -0.33968544
0.26711786 0.15730721 -0.48157954 -0.11327922 -0.3403646 0.6724533 0.12099003 -0.045989852
-1.6255897 0.0819616 0.4278165 -0.37884733 -0.15573755 0.05151308 0.5311257 0.31075004
0.26789087 -0.56548756 0.18451917 0.3540189 -0.18640338 -0.23034388 0.4879342 -0.36441153
-0.3021363 -0.40578958 -0.5423882 -1.6671942 -0.5607523 0.4552368 -0.022650793 0.9687954
-0.50206584 0.048920322 -0.62033194 0.28685996 -0.14572516 0.4795651 0.20023417 -0.20278835
0.6897093 0.30187535 -0.5628267 0.19720572 -0.365506 0.70807105 0.12769766 -0.37795427

fc2.weight f4 [300, 401]
00000000: 6398 133f 5edd cf3d 81e3 71be c997 373e
00000010: b3ff 073e 201f 6b3c 9ef4 e13b 88da 4bbe
00000020: 7b94 663e 15b6 03bf 2090 58be a1aa 9dbd
00000030: c702 0c3f 54c2 0cbc 5d86 193f d065 003e
00000040: 28e5 dd3c 0039 0cbd d705 6d3e 44ac 3cbd
00000050: 79f4 e3bc ac4a 043d f9cb 323e afab 5dbd
00000060: c31b 5a3e df48 09be c37a 843e ef03 413e
00000070: bc4e a43c b643 243d 416a 1dbd 1229 34be
00000080: d0d2 6a3d 9106 a03d 6859 543c 8f5c 90be
00000090: 7fd5 843d f317 bc3d 6a59 533c bedb e33c
000000a0: 48e9 40bd 00cc da39 8224 d83d 3386 5e3e
000000b0: 253f 8d3e 284a 0e3c 1275 c23d 627d 4f3e
000000c0: 70af 053e d629 2a3e 69a4 133c 9c01 61bd
000000d0: a068 c5bb cb02 203e de11 e53c fe1d 8b3d
000000e0: c5b0 32bd 4bf7 6ebe c75f adbe dcae 9b3e
000000f0: 183f 2a3d 4140 6cbd f467 05bc e0f5 92bb
00000100: d01a 3bbb e5a4 4fbd 4c7e 863d 5f55 513d
00000110: 561f 65bd 4244 2240 92d7 473d ead9 923e
00000120: 4ae2 85bd 415b 2b3d ec02 34be 10c9 0dbb
00000130: 8021 b9bc 5cff 423d 4005 713d 1063 7cbb
00000140: 06ea adbe 83ab 603e b4aa 7e3d c692 9ebb
00000150: 186c 343e 0065 d03c 2bbd c23d 8d44 0fbd
00000160: 5b71 fe3d c202 0ebe 8a7d 133d 889f d3be
00000170: 3699 843d 0d69 0dbf 809c 15be 80b8 f13b
00000180: 55d2 a73d 74d9 3cbb 229f 44bf 4bb4 a9be
00000190: d0d0 9d3b 6740 f93e e34c ee3b 0cb7 c73c
000001a0: 0ade e4be ab65 623e e1a1 1f3e c8a4 3cbc
000001b0: a5eb 02bd 3b8c c9be d701 48bd 064a 103d
000001c0: f2de d6bc 70a2 3e3d 734a 47be 0cbc 4f3d
000001d0: e0f9 4bbe 1323 743e 7fb7 173e a6e9 c63d
000001e0: d0c1 563d dcb1 083e 52f5 1d3d 7ab4 363e
000001f0: 0aed 53bd 9814 3a3d 35af e23d f1cb be3e
00000200: d0e0 083d 56ec e13e 09cf 203e f99d 6fbd
00000210: 1be5 353d afa1 a73c 2b1b 453e 5b52 883d
00000220: a0d5 9d3d 12c1 11bd 6b76 5f3e 2e34 2c3e
00000230: bdb3 d93d a8e9 b5be b5ce 94bf 9d10 2e3e
00000240: e569 8c3e 3820 a13c 86ad c4bd 829c 093d
00000250: c7c2 393d 04a7 0abd 062e 21be 28aa 1b3d
00000260: d954 f13d f7bb 40bd 1c8b 0f3d 6808 073e
00000270: 4214 c93d 7aba 5cbd fc02 f93c 78f4 003d
00000280: 5647 ec3b ff5d 413d bbab 5b3f 1a72 043e
00000290: ac99 163e 2cde 38bf bf07 6dbd ae74 8dbf
000002a0: d8c9 0cbe bdd0 3bbe 2022 33bd 4093 0e3e
000002b0: d10a 9d3b 2db3 0d3f 3686 573d 805c 413b
000002c0: e477 773d a29c 1e3d 68be 25bd bcbe debc
000002d0: 0ff4 a83d f899 e13d e622 2b3e ace5 89be
000002e0: 7431 42bd 5ad5 84bc 4b27 e3be 160d 2c3d
000002f0: 38d4 393c ecee 1e3d 1d51 193e 05d7 b23d
00000300: 32e4 7b3e 6ecc 2d3e 93ba 6fbe d785 333e
00000310: e1cf 2c3e 3e97 a8bc 9e48 483d d8b4 69bd
00000320: 30d1 613d 0e67 4f3d 6412 1dbd a618 18be
00000330: a088 1b3e 9f1a 003f 202d 69bd 0881 ea3c
00000340: c240 683e 6a68 68be d65a 433d 2a52 03bc
00000350: e5cd 57bd 695f 96be cb5d f03d ffba de3a
00000360: 31c9 32be 6c3f d13c 100b 18be 4d96 463e
00000370: f2b4 9ebc fde9 4dbd 0076 a43e 12ee d03e
00000380: 12dd 20bd 879a 77bf 2b1d 493e 0e4c 24bd
00000390: f2d9 ebbd aca2 7cbb 10be 22bd 4976 45bd
000003a0: 83f3 f4bc 90ca cd3c a006 b6bb 893e 0c41
000003b0: 002a 79bc cfe1 9cbd 7451 1e3e a132 213e
000003c0: c23f 0abd fc83 073e 8726 7abc f3aa 3e3d
000003d0: 146e fa3c 0878 43be af6c 993d 6914 733d
000003e0: 98e2 c9be 4f0a 1f3e 69d3 153f 4d89 cfbe
000003f0: 9841 7ebe 2f35 86be e299 663d fe41 423d
0.576544 0.10149644 -0.23621942 0.17928995 0.13281135 0.0143506825 0.0068956157 -0.19907582
0.22517578 -0.5144971 -0.2114873 -0.076985605 0.5469174 -0.008591253 0.5997065 0.12538838
0.02708681 -0.034234047 0.23146759 -0.046062723 -0.027826535 0.032297775 0.17460622 -0.05411881
0.21299653 -0.13406704 0.2587491 0.18849157 0.020057075 0.040103637 -0.03843141 -0.17593792
0.057329953 0.078137524 0.012960769 -0.28195617 0.06486034 0.091842555 0.012899736 0.027814742
-0.047097474 0.00041732192 0.10553838 0.2173088 0.27587238 0.008684672 0.09494986 0.20262673
0.13055205 0.16617522 0.009011366 -0.054933175 -0.006024435 0.15626065 0.027962621 0.0679283
-0.04362561 -0.23336522 -0.33862135 0.30406845 0.041564077 -0.057678465 -0.00814246 -0.004484877
-0.0028549917 -0.050694365 0.06567058 0.051106807 -0.055938087 2.5354161 0.04878957 0.2868188
-0.06537302 0.041835073 -0.1757924 -0.0021634735 -0.022598982 0.04760681 0.058842897 -0.0038511194
-0.33967608 0.21940427 0.062174514 -0.004839274 0.1761936 0.025438786 0.09508737 -0.034977484
0.124239646 -0.1386824 0.036008395 -0.4133265 0.06474535 -0.5523842 -0.14610481 0.0073767304
0.081944145 -0.0028816136 -0.7680532 -0.33145365 0.004816152 0.48681948 0.007272349 0.024379276
-0.44700652 0.22109096 0.15589096 -0.011513896 -0.03196301 -0.393648 -0.04882988 0.035226844
-0.026229355 0.04654163 -0.19461994 0.050716445 -0.19919538 0.23841505 0.14816092 0.09712534
0.052430928 0.13349098 0.038564034 0.17842284 -0.05173973 0.045429796 0.11068574 0.3726497
0.033417523 0.44125623 0.15703978 -0.058500264 0.044407945 0.020462839 0.19248645 0.06656333
0.07706761 -0.035584517 0.21822517 0.1681678 0.106299855 -0.35529828 -1.1625582 0.16998525
0.2742454 0.019668683 -0.096034095 0.033596523 0.04535177 -0.033850685 -0.15740213 0.03800407
0.117837615 -0.047054257 0.035044774 0.131868 0.09818317 -0.053888775 0.03039693 0.031483144
0.0072106523 0.047208782 0.85808915 0.12934151 0.14707059 -0.7221401 -0.057868715 -1.1051233
-0.13748872 -0.18341346 -0.043733716 0.13923359 0.004792549 0.55351526 0.052618228 0.0029504597
0.06041707 0.038723595 -0.04046479 -0.027190559 0.082496755 0.11015695 0.16712531 -0.26933038
-0.047410443 -0.016215015 -0.44365916 0.042004667 0.011342101 0.038802072 0.14972349 0.08732418
0.24598768 0.16972515 -0.23411016 0.17531525 0.16876175 -0.02057993 0.04889738 -0.05705723
0.055131137 0.05063539 -0.038347617 -0.14853153 0.15188837 0.5004062 -0.0569278 0.02862598
0.22680953 -0.22696081 0.04769405 -0.008015195 -0.05268659 -0.29369667 0.117366396 0.0016992985
-0.17459561 0.025542937 -0.1484797 0.19393273 -0.01937339 -0.050271977 0.32121277 0.40806633
-0.03927333 -0.96720165 0.19640033 -0.040111594 -0.11516179 -0.0038549108 -0.03973204 -0.04820851
-0.029901272 0.025121003 -0.005554989 8.765267 -0.0152077675 -0.07660257 0.1546076 0.1574197
-0.03375221 0.13233942 -0.015267975 0.04654975 0.030570067 -0.19088757 0.07491433 0.059345637
-0.3943069 0.15531276 0.5852571 -0.4053444 -0.2482971 -0.2621245 0.056299098 0.047426216

fc2.bias f4 [300]
00000000: bb4a a03d f781 45bd 0e74 c43d b4e8 2cbd
00000010: 8e95 21bd c1f8 f23d 2e2d 493e f69b 153e
00000020: bb25 5dba b533 29bd 04bf 2abd 97cd da3d
00000030: 6fd6 7e3d 98ae 85bc af4c 00bd c944 02bd
00000040: 69f3 083e 52c8 99bd fba5 0e3e da4b 8d3c
00000050: c478 6c3d 1709 0a3e 3ac7 c3bd e88f 8f3d
00000060: ee11 0f3d 7046 043e 6564 69bd fc35 85bd
00000070: 61bc e93c 60eb a73d fbbd 963d 09a4 0b3e
00000080: ab15 efbc 91d3 93bd ce1e b63d c628 c63d
00000090: 0750 8ebd 5f4e 3dbd 79cb 30bd 6398 1b3e
000000a0: e2cb 093e bd63 c53d 8b08 b83c 269f be3d
000000b0: e4ba b1bb 5b58 0bbd 4a73 32bd 8807 a43c
000000c0: ff8d 073f 3353 093d e1e6 e83d 9251 ed3d
000000d0: b1cb ce3c 111b 23bb 8d54 61bd 2e9f 9fbd
000000e0: 3ed2 adbd 8a67 57bd e0e6 30bc a0cb 83bc
000000f0: 10e1 ce3d f5ff ab3b 3868 1c3e 0edb a03d
00000100: 0896 de3d c970 21bd 17cc a73e 0be4 2a3d
00000110: f0fa 143e df4c 19bc 1cff 893c 7765 95bd
00000120: 08cf 40bd 1353 df3d 7c8a 2f3c 77c8 9cbd
00000130: 5de4 87bd 014f 8f3d 2e01 3dbd c59f 4c3d
00000140: 91fd 1ebc d69c fbbb 0071 3abd c987 56bd
00000150: 722f ee3d 2e7e a93d 6f36 1a3e 5eab ae3d
00000160: ce38 8fbc c6ef 613c 2ac3 a73e 96b4 a4bc
00000170: 8397 e23d 6a51 c3bd fc88 1d3e 2ff7 a63d
00000180: 34bb 993d 657f c03d 6b02 fe3d b111 bb3d
00000190: 9b86 0c3d dc1d 603d 198f f6bb 91f4 afbd
000001a0: de28 ae3d c77c 9dbd a01d f93d 59b0 133e
000001b0: 4da1 5a3c c101 1f3e 4bb8 353e 6cbd 923e
000001c0: dc3b 2a3e 8039 eebc 74a2 44bd 925e e73d
000001d0: 2fa4 d93d 5365 a33c 2757 863d 0e0f 743d
000001e0: a5b6 e73d da11 31bd 4d0b b43c a6f5 cabc
000001f0: addb 13bd 2fb3 0b3d 9ade f13d ec36 0ebd
00000200: e02a 233e 7091 50bd 6b7b 7a3c 14fa 513f
00000210: 34db 7cbd 9f91 9dbc 16e1 c3bc fd8d 053e
00000220: d698 223e cf99 7fbc 9436 9ebb 591e b8bd
00000230: 7d5a b6bd 5958 d2bd d6d2 0a3f 3b6c 813d
00000240: ced5 2fbc 5001 67bd da19 b0bd 429f d53e
00000250: af98 b73d 44dd d13d 1ae1 1e3d cb40 9e3d
00000260: b338 45bc 3453 34bd 5d08 b7bc a97b beba
00000270: dd2a d63d c4df d93d 96c1 443e 0f37 33bc
00000280: 4752 f8bc 8fc4 20bd 1ea6 c03c 9739 d7bc
00000290: 435b c9bc bfef 123e 1a92 d23d ede3 e3bc
000002a0: 6983 073e 4a89 283e eb79 25bd 75cf 02bd
000002b0: 2cec 8bbc 0720 823d 08cb 5e3e 5449 4b3d
000002c0: 6401 163e 4efc 90bb 4a6b f93d e769 afbc
000002d0: 4837 adbe 17ec 163e 123e 203e 7f28 c73d
000002e0: 02fb 1d3e 6686 223e b403 7cbd 68df ac3e
000002f0: 733a 3839 3662 27bc ea87 9b3d c341 3dbd
00000300: a3c2 19bc 15c9 023e 953d 83bc 7f8e cd3d
00000310: 40c8 0a3e e930 04bd 0714 90bd c7db 7ebc
00000320: dff3 0f3d c371 b2bb c48d 083e e66f 673e
00000330: a464 363e 94ab 4abd 592d 71bd e2a7 23bd
00000340: ae08 113e ddc6 9ebd 80a0 3dbc 621a 0abd
00000350: 8852 94be 2dd1 c73d 18a0 bebc 5230 fc3d
00000360: e324 e03d 86e8 e4bc 7f14 243e c9e3 273d
00000370: a4c5 8bbd 7ca5 113c cb3b 48bd 0d7a b53d
00000380: 0079 a73d bc06 213e e393 163e ec09 423e
00000390: 3b79 b33d 343a 3fbd ed89 db3d 23a2 853d
000003a0: ae4a a63d dbd0 1c3e 9dbb 273e 3034 fd3d
000003b0: 4a61 043e 3874 173e 7ccd c1bc 1e7a 7fbc
000003c0: 6add 8dbc 21ac 8b3d 5336 873d 0052 e1bc
000003d0: f7b2 9e3d 6fa8 6ebd 8ff3 373d 8743 113e
000003e0: ddf0 473e a546 0dbd e52a 813d 3b84 133e
000003f0: fe11 303e 5142 b8bc 8016 053e 3b94 0fbd
0.07826754 -0.048219647 0.09592448 -0.04221411 -0.039449267 0.11863852 0.19646141 0.14610276
-0.0008436103 -0.041309077 -0.041686073 0.106837444 0.06221622 -0.016318604 -0.03132313 -0.03180388
0.13374104 -0.07508911 0.13930504 0.017248083 0.05773236 0.1348003 -0.09559484 0.0700987
0.03492921 0.12917495 -0.05698051 -0.06504437 0.028532209 0.08199191 0.07360455 0.13636793
-0.029185137 -0.072180875 0.08892594 0.09675746 -0.06948858 -0.04621732 -0.043162797 0.1519485
0.13456681 0.09638164 0.022465011 0.09307699 -0.0054238904 -0.03401981 -0.04356698 0.020023122
0.52951044 0.03352661 0.11372162 0.11587824 0.025243612 -0.002488796 -0.055012275 -0.07794033
-0.08487366 -0.052588977 -0.010797232 -0.016088307 0.10101521 0.0052490183 0.15274131 0.07854281
0.1086846 -0.0394142 0.32772896 0.041721385 0.1454885 -0.009356706 0.016845278 -0.072947435
-0.04707244 0.10904517 0.01071417 -0.07655423 -0.06635354 0.06997491 -0.046143703 0.049957056
-0.00970401 -0.0076786084 -0.04551792 -0.05237559 0.11630143 0.0827602 0.15059827 0.085287794
-0.017483141 0.013790077 0.32766086 -0.020105641 0.11064055 -0.09537013 0.15384287 0.08152615
0.07506409 0.093992986 0.12402805 0.09134234 0.034308057 0.054715976 -0.007524383 -0.08591569
0.085038885 -0.07689815 0.12163854 0.1442274 0.013344121 0.15528013 0.17746083 0.28660142
0.16624397 -0.029080153 -0.04800649 0.11297335 0.10627019 0.019945776 0.06559592 0.05958467
0.113141336 -0.043229915 0.021978045 -0.024775337 -0.03609817 0.03410643 0.11810036 -0.034720346
0.15934324 -0.05091995 0.015288214 0.82022214 -0.061732486 -0.019234477 -0.02391104 0.13042445
0.15878615 -0.015600636 -0.0048282836 -0.08990163 -0.08903978 -0.10270757 0.5422796 0.063194714
-0.010732127 -0.056397736 -0.08598681 0.41723067 0.08964669 0.10247281 0.038788892 0.07727202
-0.012037444 -0.04402466 -0.022342855 -0.0014532703 0.10457394 0.10638383 0.19214472 -0.01093842
-0.03031267 -0.039249953 0.02351671 -0.026272578 -0.02457965 0.14349268 0.10281773 -0.027818644
0.13233723 0.16458622 -0.040399473 -0.031936128 -0.017080389 0.06353765 0.21757138 0.049630478
0.14648968 -0.0044246083 0.12178667 -0.021412803 -0.3383124 0.14738499 0.15648678 0.09724521
0.15427783 0.15871581 -0.06152697 0.33764195 0.00017569381 -0.010216286 0.07594283 -0.046205293
-0.009384784 0.12772019 -0.016020576 0.100369446 0.13552952 -0.032273207 -0.0703507 -0.015555329
0.035144683 -0.0054456904 0.1333533 0.2260128 0.17811829 -0.049480036 -0.058881138 -0.039955027
0.14163467 -0.07752774 -0.011573911 -0.033716567 -0.28969216 0.09756694 -0.023269698 0.12313904
0.109445356 -0.027942907 0.16023444 0.040988717 -0.06824806 0.008889552 -0.048885148 0.0886117
0.08177376 0.15725225 0.14704852 0.18949097 0.08763357 -0.046686366 0.10719667 0.06525066
0.08119713 0.15314047 0.16380163 0.123634696 0.12927738 0.14790428 -0.023657553 -0.01559308
-0.017317493 0.0681994 0.066021584 -0.027504921 0.077489786 -0.0582661 0.04491001 0.14185916
0.19525476 -0.0344912 0.063070096 0.1440591 0.17194363 -0.02249256 0.12996864 -0.035053473

fc3.weight f4 [1, 300]
00000000: edb0 67bc 349e c03a 2087 d8bc a5f9 e63c
00000010: b9c4 7ebb 6af3 eabd fc2c 1bc0 7d67 a1bc
00000020: e466 adbb 6aac efbd fe9f d9bb 7c2a 2ebd
00000030: 3e7e b73e 5b7b d9bb 86ba ecbc 8a43 233c
00000040: 929a 20bd a2ac b5bc 7814 0abe 090a e5bc
00000050: ce4c 80bd b201 16be 1a06 bc3c c549 8bbd
00000060: 2e1b 01bc f545 96bf 1d97 ebbb 323b eb3c
00000070: 4bae 763d d6dd 61bb 00de b1bd fa2f 85bc
00000080: 5a3a ddbb 6b47 f73c 7563 e5bc a613 04bf
00000090: 8712 d63c f732 17bc 8e78 dfbb a6e2 99bc
000000a0: c959 93bd 4a11 c7be 7a11 b2bb 2611 6ebe
000000b0: c68c 123d d5ec d03c 812c 11bc a9aa e1bb
000000c0: c971 3b40 bda7 b3be 2021 efbc a1e7 40bd
000000d0: 8d76 0bbd 983d 733c ca44 13bc 71e2 f53c
000000e0: 1c4d 1c3d 39ab 553c 32d9 7dbc 3344 cebc
000000f0: 2eca d9bb 4180 dbbc 262b 22bc 3c2b 18bd
00000100: c73e 19bf 5e31 f2bc fb9d e840 efe1 adbb
00000110: eecd 4abc 920b 9cbe aa0f 8cbb 6250 b9bc
00000120: e42c adbc 68b2 4dbc 07b9 fabb c9a5 da3c
00000130: 0431 e73c 960a b5be daef 923c c2b4 e8bd
00000140: ef4e c8ba fc4c 1ebc 344d 1cbc 43a2 f63b
00000150: e600 22bd 0c10 fe3a 5647 7fbd 2df9 2bbd
00000160: 207b 64bc b742 37bd bfde 0041 8c81 b33c
00000170: ff4f edbc f2d4 283d 3d1d b4bc a003 28bd
00000180: 6a9f e73d 703f b0bc 48f4 8fbe 3e7e 0fbf
00000190: a7c1 babd 221b c5be a19f 973c ed4e df3c
000001a0: 5280 23be b0d3 ebbc f47b ab3f 1688 17be
000001b0: e165 f43c b1db 16bc 15d8 a3bc 6def ab40
000001c0: 16c6 4ebd a196 af3c 9724 f8bb b8c4 54be
000001d0: e912 5bbe ae7d 03be 40c4 d2bb 6616 f13b
000001e0: 83f4 e73b 9651 173c 8cd2 c93b 3c69 f0bb
000001f0: 27e5 433c c7f2 7f3c 131c 34bd 41a9 99ba
00000200: 21c9 79bb 335f f3bc 5bf6 b5bb de3c 1940
00000210: 0165 d23c 3c3d e23c 9685 1abb 7576 153b
00000220: 8080 27be ea05 043d f64a cc3c fcb8 cebb
00000230: 4e50 26bc 3e50 88bb bcc6 c83f e265 54bd
00000240: cb6f c0bb c703 06bc 87bb d13c 3280 02c0
00000250: eba0 e8bb c552 05bb 0e7c f240 8d11 2fbf
00000260: 967c eebc b639 8abb 6b01 f6bc 74ae d33a
00000270: 4a05 c03d 9e1c 92bd a6b1 b5bf 7ca6 0cbc
00000280: 0898 e8bc 7acc 82bb 9745 3abb 81c6 abbc
00000290: 770f b1bb 2d3d 6bbd 767a 31bd 5d42 e13c
000002a0: eaff 8b3a 7a1a 2fbe 8d80 a13c 411c 1c3c
000002b0: be8b b83c 601b e8bb 0576 8140 94b0 d9be
000002c0: c220 59bb c40b 29bc 03ba 92bc 6905 a1bc
000002d0: b728 d8c0 d201 f6bc c1b2 2ebf 4d03 81bc
000002e0: 8981 d0bf 6280 57bc 077b e6bc dd28 0ac0
000002f0: 7f73 2d3c 7870 c53c 695c 943e e595 ccbb
00000300: 8572 963c fad1 3abb 3a70 afbc 8407 d2be
00000310: f2ae d3be ed53 8cbc b27a 093d 4f7e 02bd
00000320: 9abf 133d ad77 36bc c3f5 22be 40d5 ddbe
00000330: 9637 59be 00ee eb36 1094 d2bc 6750 5a3c
00000340: b291 a2bb ebed ffbc 1676 d13c 323c 24bc
00000350: fe21 8ac0 4037 46bd 6cde 78bc bc6a 77be
00000360: d6c6 67bd baf4 2c3c a3cb afbb 7543 8ebb
00000370: 1275 32bd f40e 973c f601 c2bb b546 04bd
00000380: 0db0 b8be 0612 0ebd 1628 08bf d338 a0be
00000390: 9da7 613c 26f6 943c 570e e0bd f1ea 9abd
000003a0: 913f 8ebd 35aa d8bc 514c 2dbe da86 bdbb
000003b0: befd b3bc 5185 61bf d7b2 ecbb f6db a0bb
000003c0: 6f59 3abb bcdc cb3c eb53 76be c77b c93c
000003d0: e511 9f3b c6a9 033d 6ab9 a1bd dfdd 8f3a
000003e0: c9ba 45be 20df f1bc aff7 b7bd 69c1 d7bb
000003f0: eae2 39be baa5 dc3c 85b5 813c 7981 88bc
-0.0141413035 0.0014695586 -0.02643162 0.028195212 -0.003887458 -0.11472209 -2.4246206 -0.019702667
-0.0052918065 -0.11702807 -0.006641387 -0.042520985 0.35838503 -0.0066370196 -0.028897535 0.009964833
-0.03920991 -0.022177044 -0.1348437 -0.027958887 -0.06264649 -0.14649084 0.022952128 -0.0680118
-0.007880015 -1.1740099 -0.007189645 0.02871475 0.060224812 -0.00344645 -0.08684921 -0.016258229
-0.006751341 0.030185422 -0.028001526 -0.5159248 0.026131881 -0.00922846 -0.006819791 -0.018784832
-0.071948595 -0.38880378 -0.0054342123 -0.23248729 0.035778783 0.025503555 -0.008860708 -0.0068867994
2.92882 -0.35088912 -0.0291906 -0.0470959 -0.034048606 0.014846228 -0.008988569 0.030015202
0.038159475 0.013041311 -0.015493678 -0.025179004 -0.006646416 -0.026794555 -0.009897983 -0.037150607
-0.59861416 -0.029564556 7.2692847 -0.0053064744 -0.012378199 -0.30477577 -0.0042743282 -0.022621337
-0.02113957 -0.012554742 -0.0076514515 0.02669038 0.028221615 -0.3535964 0.017936636 -0.11362602
-0.0015282313 -0.009661909 -0.009539891 0.0075266673 -0.039551638 0.0019383444 -0.06232389 -0.04198568
-0.013945371 -0.04474136 8.054381 0.021912359 -0.02896881 0.041218705 -0.021986598 -0.041019082
0.11309703 -0.021514624 -0.2811606 -0.56052005 -0.091189675 -0.38497263 0.018508734 0.027259314
-0.15966919 -0.028787464 1.3397202 -0.14798006 0.029833736 -0.009207652 -0.020000497 5.372977
-0.05048188 0.02143413 -0.007572721 -0.20778167 -0.21393932 -0.12840912 -0.006432086 0.0073574064
0.0070787086 0.00923576 0.0061591323 -0.0073367637 0.01195649 0.0156218475 -0.043972086 -0.0011723415
-0.0038114267 -0.02970848 -0.0055530495 2.39434 0.025682928 0.02761709 -0.0023578159 0.0022806202
-0.16357613 0.032232203 0.024938088 -0.006308673 -0.010150982 -0.0041599562 1.5685649 -0.051854976
-0.0058727018 -0.0081796115 0.025602115 -2.0390744 -0.007099261 -0.0020343524 7.5776434 -0.68386155
-0.029112142 -0.0042183055 -0.030029973 0.0016150014 0.09376009 -0.071343645 -1.4194839 -0.008584615
-0.028392807 -0.0039916607 -0.0028422826 -0.020968677 -0.005403455 -0.05743139 -0.04332968 0.027497465
0.0010681127 -0.17099944 0.019714618 0.009528221 0.022527572 -0.0070833415 4.0456567 -0.4251753
-0.0033131097 -0.010317747 -0.017910963 -0.0196559 -6.75497 -0.030030165 -0.68241507 -0.015748644
-1.6289531 -0.013153167 -0.028134836 -2.158744 0.010586618 0.02410148 0.28976753 -0.0062434548
0.018365154 -0.0028506503 -0.021415818 -0.4102136 -0.4134441 -0.017129863 0.033564277 -0.03185874
0.036071397 -0.011136931 -0.15914063 -0.4332676 -0.2121261 7.0312526e-06 -0.025705367 0.0133248335
-0.004961216 -0.031241378 0.025569003 -0.010024117 -4.3166494 -0.048392534 -0.015189748 -0.2416181
-0.05658611 0.010556394 -0.0053648516 -0.0043415376 -0.04356868 0.018439747 -0.005920644 -0.032293994
-0.36071816 -0.034685157 -0.53186166 -0.31293353 0.013772872 0.018183779 -0.10940235 -0.07564343
-0.06945718 -0.026448349 -0.16923644 -0.005783898 -0.02197158 -0.8809405 -0.007223468 -0.004909034
-0.0028434654 0.024885528 -0.2405545 0.024595154 0.004854428 0.03214433 -0.07896693 0.0010976157
-0.19309534 -0.02952534 -0.08982789 -0.0065843356 -0.18152967 0.026934493 0.015833626 -0.0166633
