ddpg-bipedal/checkpoint_actor.pth (torch, 31135 bytes, 4 tensors)

fc1.weight f4 [256, 24]
00000000: 9022 f0bc 48f9 52bc 5605 603d 5022 08bc
00000010: 9289 133d 186c b1bc f856 d93c 10a6 ef3c
00000020: 4a61 7abd 6cf2 3abd 523c 40bd 1029 fe3c
00000030: b0fb cfbb b690 60bd 407d eb3c 9c2d 16bd
00000040: 86a0 2b3d 5cea e63c 40e3 dd3a 36ac 7a3d
00000050: f2e3 36bd 003b b7bc 801e 8f3a 4016 7f3b
00000060: f07b 683d bc22 c23c e644 0bbd e28e 663d
00000070: 4020 abbc 4c71 28bd 360e 463d 4c2e bf3c
00000080: 18be 5b3c 92e8 533d 082d 5a3c 0828 31bc
00000090: a86c 02bc 2c9e 79bd 62c2 7abd d6da 30bd
000000a0: 849f 29bd 3a75 12bd ecb9 3b3d 60db a03c
000000b0: e0d9 243d a0d1 c8bc 48d2 353d d018 f0bc
000000c0: d146 0ebd 5a92 383e ae98 0a3e d24d 04be
000000d0: 6a21 853d 9b28 b53d 27ca 94bd 339f 023d
000000e0: 5181 6bbb 72df da3d 7982 c5bd a618 78bd
000000f0: 1ab0 763d d2d5 303d 4f20 b63d 1bb6 aa3d
00000100: 9199 423e 632b 2c3e 4649 f63d e3f0 153e
00000110: e98f 3f3e 58b8 eb3d b6d6 283e c0a8 393e
00000120: 3d3f 7bbd 1d71 dcbe e5d2 1b3e b84f 2bbe
00000130: d258 68be 4c7f a1bc d122 b13c 89e3 553d
00000140: 9126 b33e 08da ccbd e6bf d0bc 9659 ebbd
00000150: 3731 a8bc 0f20 b63e dae3 ee3d 9d35 133e
00000160: 864a 333e eaec 053e b561 3c3e b2ea e63d
00000170: edf4 dc3d cdd4 e13d 34c2 863e 1883 253e
00000180: e4cf 21be 5365 ccbe d141 9abb 87f5 9dbe
00000190: 5dfe cfbe 9e34 bbbd 1463 90be 02e5 6dbe
000001a0: ca55 853d 7a83 58be c4ea 093d 671b 983d
000001b0: e36a 2ebe 3a1a 8abe bbc1 b1bc e735 8cbd
000001c0: 4234 ab3c 9d1c 40bd e29b dc3c 8262 853b
000001d0: 6d9a 2e3b fc82 a9bc d8fd 143d f3c6 6c3d
000001e0: a03e 54bb 9025 9cbc 2632 64bd a4a1 743d
000001f0: 886f 1d3d 3894 cabc 3858 4cbc 7a53 76bd
00000200: e07b f2bc 341d fcbc 38d4 a3bc 32f2 2e3d
00000210: 349f 2abd 3093 303d e04a 53bc 7a9b 17bd
00000220: f4dd 46bd 1a06 21bd e461 85bc 189e 6abd
00000230: 7208 6e3d 501a 663d a2ad 2dbd 363f 11bd
00000240: cfa3 b43e 0b8c 10be 4a0a 61be 8e50 2e3e
00000250: 2c84 883c 523e 81bd ad4b 123e 3c65 d23d
00000260: b918 2d3e dd5c 27be c0cf 5c3e 3f0e 5abc
00000270: a3cb 9fbc 9495 5b3e a571 363e f8de e63d
00000280: 2a24 353e 5254 f93d 06d6 a83d 036e f33d
00000290: 2b5b 493e 5583 243e 0bf8 543e 2666 1e3c
000002a0: 9754 b5bc 6a09 df3d 90a7 3b3e e50b 5ebe
000002b0: 6d25 4cbc 1e69 2a3e a0d7 f93c 1a4c 863d
000002c0: 24a6 fc3b c29a 2b3e cd11 5abd 5d0a dfbd
000002d0: 2f0f 923d 95fa e03d 2e3a 113e bf74 663e
000002e0: 5153 4b3e b1b0 1d3e ee34 443e b203 143e
000002f0: 4a2e 3e3e a068 2e3e 5e5f 353e b75a 163e
00000300: f641 bb3d 1597 f7be 56d6 8cbe e2c5 2c3e
00000310: 30c7 223e df27 003f 57b2 d13d 5b53 01be
00000320: a68d 863e 3c36 ea3c e158 6a3e 1a79 833c
00000330: 9ae0 02be 142a c9be 6864 153e bdc5 6f3e
00000340: ea08 003e 37fc 293e e2ed 013e 8a0c fd3d
00000350: c944 303e 3906 723e 2c9f 703e e3d1 c63d
00000360: 637f b3be 5a1d cbbe a1b3 503e f20e f3be
00000370: 00a7 51bd 7cd0 973f aa69 42be 9b11 80be
00000380: 6095 d9bd 7979 e3bd 413e 963f ce8d 2ebf
00000390: 11c5 c8be 7009 a0be ec10 92bd 2eb1 bbbd
000003a0: e736 84bd 51a6 07bc 19e7 12bd 54ba 38bc
000003b0: 5523 8dbd 4d6c 913c a754 58bc 82c5 603e
000003c0: 8928 2dbc d22f d4be ef60 2c3d c97e 49bd
000003d0: dcc0 06be f002 93bd 557e 163d 0479 d63b
000003e0: 93e7 ba3e e318 b1bc 1bd1 ba3c dd57 6bbc
000003f0: 8e9a ba3c 373a a13e a958 d63d 02fd 2e3e
-0.029313356 -0.012876816 0.05469259 -0.008308962 0.03601987 -0.021657988 0.026530728 0.02925399
-0.06112794 -0.045641348 -0.046932526 0.03102544 -0.006347142 -0.054825507 0.028746247 -0.03666459
0.041901134 0.028187923 0.0016928688 0.06119939 -0.04465098 -0.022367 0.0010919124 0.0038923174
0.05675882 0.023698203 -0.034001254 0.056288607 -0.020889401 -0.041123673 0.048353396 0.023337506
0.013412021 0.05173547 0.0133164 -0.010812767 -0.007960476 -0.06094186 -0.061220534 -0.04317745
-0.04141189 -0.035756327 0.045831606 0.019635856 0.040246844 -0.02451402 0.044389993 -0.029308707
-0.034735505 0.18024579 0.13534805 -0.12920311 0.06500514 0.088456355 -0.0726512 0.031890105
-0.0035935233 0.1068715 -0.09644026 -0.06057038 0.060226537 0.043172665 0.08892881 0.08335515
0.19003893 0.16813426 0.120256945 0.14642672 0.18707241 0.1150977 0.16488156 0.1813078
-0.061339606 -0.4305505 0.15217169 -0.16729629 -0.22690132 -0.01971402 0.021623047 0.052218948
0.3499036 -0.10002524 -0.02548213 -0.114916965 -0.02053128 0.35571334 0.11664553 0.1437592
0.17508897 0.13078657 0.18396647 0.11275233 0.107889034 0.11026917 0.2632004 0.1616329
-0.1580196 -0.39921054 -0.004707553 -0.30851385 -0.4062375 -0.09140895 -0.2820059 -0.23231891
0.065105036 -0.21143904 0.033671156 0.074271016 -0.17032962 -0.26973134 -0.021698823 -0.068462186
0.020898942 -0.046902288 0.0269298 0.004070581 0.0026642338 -0.020692341 0.036374897 0.05780692
-0.003238596 -0.01906088 -0.055711888 0.059724465 0.038436443 -0.02472888 -0.012472205 -0.060138203
-0.029600084 -0.030775644 -0.019998655 0.042711444 -0.041655734 0.04310912 -0.01289627 -0.03701351
-0.048551515 -0.03931246 -0.01628203 -0.057279676 0.058113523 0.056177437 -0.042401917 -0.035460673
0.35281226 -0.14115922 -0.21976581 0.17022917 0.016664587 -0.06310715 0.1428668 0.10273215
0.16903962 -0.16344018 0.21563625 -0.013309061 -0.019506281 0.21443778 0.1781679 0.11272997
0.17689577 0.12174286 0.08243947 0.118862174 0.19663684 0.16065724 0.20797746 0.009667909
-0.022135062 0.108904675 0.18325639 -0.21684225 -0.012460095 0.16641662 0.030498326 0.06557484
0.007710235 0.16758254 -0.053239632 -0.108906485 0.07131802 0.10985295 0.1418235 0.22505473
0.19856001 0.15399434 0.19160816 0.14454535 0.18572345 0.17032099 0.17712161 0.14683042
0.091434404 -0.48357454 -0.27507275 0.16872361 0.15896297 0.5006084 0.10239094 -0.12629454
0.26279944 0.028590314 0.22885467 0.016048957 -0.12780991 -0.39289916 0.14589083 0.23415275
0.125034 0.16600119 0.12688401 0.12355907 0.1721374 0.23635186 0.23498219 0.097080015
-0.35058126 -0.3967083 0.20381023 -0.4747234 -0.051184654 1.1860499 -0.1898562 -0.25013432
-0.10624194 -0.111071534 1.1737748 -0.68185127 -0.3921285 -0.312572 -0.07132134 -0.09164654
-0.06455784 -0.008279399 -0.035864923 -0.011274893 -0.06891505 0.017751837 -0.013203776 0.21950343
-0.010568746 -0.41442734 0.04208463 -0.049193177 -0.13159508 -0.07178295 0.036741573 0.006545188
0.36504802 -0.021618312 0.022804787 -0.01436421 0.022778776 0.31489727 0.10466129 0.17088702

fc1.bias f4 [256]
00000000: 0d48 43be 8934 eebd bcb0 b13e 8a10 003d
00000010: 118a f63d 4289 2cbe 40fc 3cbe a42f 223e
00000020: e771 613d 9620 373e d520 94bd 5a0f 5abd
00000030: 0c3d f3bc c7c1 a1bd 1a57 893e 771a 29be
00000040: b340 01be ad18 0e3d c37c 4cbe 231a d23d
00000050: 3cf1 8c3e cb8c 6abe e67e a13e f682 c93e
00000060: b661 5abe 1878 7d3e 3716 9e3e 64d3 5c3e
00000070: 1905 5e3c 96c3 06be 233c 5ebd be56 b33e
00000080: f477 cd3e a3a6 723c 695b ad3e 6230 363e
00000090: 77ab e5bd 4020 613e e78f c73d e026 47be
000000a0: faee aabd 0229 42be 4157 d23e a231 f6bd
000000b0: 17eb 813b c858 a8bd f891 0f3e 08d6 3a3e
000000c0: 1167 44be c0c6 2b3e 4bf6 bb3d d92d 68be
000000d0: d18e 4c3c beb2 7dbd c966 e3bc 84c9 12be
000000e0: 4761 b0bd a277 58bd 81c7 ddbd f9d9 c23e
000000f0: 343a d33d 99a8 bf3d 5fae a13e aa9d 00be
00000100: 5aa5 673b 1aae e4bd 8dcd 893e 83a4 ffbb
00000110: 750c 51be ba8d 5d3d 4529 29be 4458 353e
00000120: cdaa 503e dcc9 b63e e173 febb 103b 243e
00000130: a995 4a3d 3c28 71be f99e 3ebe e0bb c13e
00000140: 12ac 5f3e c6fa fcbd d916 963d dfa5 3dbe
00000150: 523c 06bd ba0b 8f3d 7091 a3bd a7c6 0b3d
00000160: 5813 5a3d 44f0 883e b666 b5bd f1f9 5ebe
00000170: 1353 0b3d 1e5f 29bc 9078 c3bd bbcd 023e
00000180: 0acc 623e e0f8 4cbe 38dd 17be 56a5 88bd
00000190: 68ea 0dbd c50a 823e 05a0 413e b28f 373e
000001a0: 6667 44be 369e 363e 7b02 9a3e fba8 303e
000001b0: c444 9f3e 0073 fc3d fb15 fe3d 5a02 1cbe
000001c0: 94cc 4abe a5ea c83d 627d 50be 08fc 4f3e
000001d0: d107 48be b436 cb3e 59c1 a63d a90d 663d
000001e0: 4886 e0bd 4c1f f23d d57a 8d3e 89a1 b33c
000001f0: bf69 81bb 4ef0 9f3c ebf8 9fbd eaba c63e
00000200: 1671 bc3e b941 cb3e 9721 3f3e 55b1 973e
00000210: 2de7 43be 76d6 21be 1162 03be a044 25bd
00000220: bbb0 c13e f549 8fbd d210 5fbe a0fd 0cbd
00000230: afb3 413d 48da 863e 5625 68bc 6b49 3b3d
00000240: b22d 653e e28f 343e e7f2 f03d 6848 be3c
00000250: 7bd0 7a3e 987f cf3e a1e1 fd3d b41a b83d
00000260: 7e39 1fbe 9663 27be a854 8e3e 4133 8fbb
00000270: 2d21 8bbe 4271 99bd bb86 c0bd ae37 7bbe
00000280: 708a 3fbe 7116 4a3e 2130 9b3e 9b00 693d
00000290: c137 d13d 4527 673d c1ea cd3d 94e6 c53e
000002a0: a160 023e 8a77 1f3d c9b2 05be cede d3bd
000002b0: ac8d 7b3e ab06 a3bd f96e 563d a19f 1abe
000002c0: 2356 af3e c3a9 85bd f589 b73e a447 0d3e
000002d0: e48a 253e 8f96 8b3e 4e27 bb3e 53a0 e73d
000002e0: ee15 22be 9574 e93c b307 7b3e 98e5 5fbd
000002f0: fe7e af3e 455f 933d cba3 1e3e 6c46 62bc
00000300: cbd9 82be c18f 5a3e f4fe ad3e 3a5f 72be
00000310: 2fb1 923e 9140 6ebe 9ad1 c83c 93b0 e03d
00000320: 4080 dabd d76a f83d 6e88 203e d034 4abe
00000330: 234e dcbd 02ea 513e 58d1 3f3e e826 07be
00000340: 7189 ea3b 0d33 e1bd b805 10bd 5926 e93d
00000350: 0f34 9a3e 0501 913d 18a6 23be 17de 04be
00000360: e482 393d 9945 c93d 6129 e83d 040b 963d
00000370: e81d 0fbe 2c4f b1bd 05e0 3dbe 9ffe 26be
00000380: 5951 33bd d0bf c1bd dcdc c4bd 0415 f3bd
00000390: 31f8 05be c741 6cbd 02c5 ba3e 27bf 4abe
000003a0: 4239 eabc e5f7 bd3d 00df 41be 4d78 3dbe
000003b0: f24d 8c3e 3a17 77bd 3f96 a53e fe51 683e
000003c0: 7096 3b3e 5b59 16be e4a1 b33d aac2 83bc
000003d0: 66c7 513e 5877 40be c960 f73c 0c49 b33d
000003e0: fb2a 8bbd 7f53 673d 2696 95bd 9b4c cabd
000003f0: 297d 04be 7616 1d3d c5dd 7b3e f27a 043e
-0.19070454 -0.11631114 0.3470515 0.031265773 0.12038053 -0.16849235 -0.184556 0.15838486
0.055040266 0.17883524 -0.07232825 -0.053237297 -0.029692195 -0.07898288 0.26824266 -0.16514002
-0.12622337 0.0346915 -0.19969468 0.102588914 0.27527797 -0.22905271 0.31542128 0.39357728
-0.21326336 0.24752843 0.30876324 0.21565014 0.01355102 -0.13160548 -0.05425657 0.35027117
0.4013058 0.014810237 0.33858803 0.17791894 -0.11214345 0.21984959 0.09744244 -0.19448423
-0.083463624 -0.18960956 0.41082194 -0.120211855 0.0039647925 -0.08220059 0.14020526 0.18245709
-0.19179942 0.16775036 0.09177836 -0.2267374 0.012485222 -0.06193804 -0.027758973 -0.14334685
-0.08612304 -0.052848466 -0.10829068 0.38056925 0.10313836 0.09358329 0.31578347 -0.12560144
0.003534636 -0.1116602 0.26914635 -0.0078015937 -0.20414908 0.05409024 -0.1651965 0.17709452
0.20377655 0.3570088 -0.0077652787 0.16038156 0.049459133 -0.23550504 -0.18615331 0.3783865
0.21842983 -0.12352519 0.073285766 -0.18520306 -0.03277237 0.069846585 -0.079867244 0.034124997
0.053241104 0.26745808 -0.08857481 -0.21775033 0.034014773 -0.010337619 -0.0954448 0.12773792
0.22148147 -0.20016813 -0.14830482 -0.0667216 -0.034647375 0.25398842 0.18908699 0.17925909
-0.19180068 0.1783379 0.30080017 0.17251961 0.31107152 0.12326622 0.12406536 -0.15235272
-0.19804603 0.0981038 -0.2036033 0.20310986 -0.19534232 0.39690173 0.08142347 0.05616537
-0.10963112 0.11822376 0.27632776 0.021927612 -0.0039493735 0.019523766 -0.07811149 0.3881448
0.36805028 0.3969858 0.18665157 0.2962748 -0.19131155 -0.15804467 -0.12830378 -0.04034865
0.37830147 -0.06996528 -0.2178376 -0.034421563 0.0472905 0.2633841 -0.014169058 0.045724314
0.22380713 0.17633012 0.1176508 0.023227885 0.24493591 0.40527034 0.12396551 0.08989468
-0.15549275 -0.16346583 0.27798963 -0.0043701236 -0.2717375 -0.07492305 -0.09400698 -0.24532959
-0.18705153 0.19735123 0.30310157 0.056885343 0.10215712 0.056433935 0.100545414 0.3865248
0.12732174 0.03893236 -0.13056482 -0.10345231 0.24565762 -0.07960256 0.052351926 -0.15099956
0.34245405 -0.0652652 0.3584744 0.1379686 0.16166264 0.27263305 0.36553425 0.11309876
-0.15828678 0.028497973 0.24514656 -0.054662317 0.34276575 0.071959056 0.1549217 -0.013810735
-0.25556788 0.213439 0.33983576 -0.23669139 0.28650805 -0.23266818 0.024514008 0.10971179
-0.10668993 0.12129753 0.15677044 -0.19746709 -0.10757091 0.20499423 0.18732202 -0.13198435
0.0071574976 -0.10996065 -0.035161704 0.11384267 0.30117843 0.070802726 -0.15981328 -0.12975346
0.045290843 0.09827728 0.113360174 0.0732632 -0.13976252 -0.08657679 -0.18542488 -0.16308068
-0.04377875 -0.094604135 -0.09612438 -0.11869243 -0.13082959 -0.057679918 0.3647843 -0.19799481
-0.028591756 0.09275798 -0.18932724 -0.18502922 0.27403218 -0.060324885 0.3234119 0.22687528
0.18319106 -0.14682524 0.087711126 -0.016084034 0.2048622 -0.18795526 0.030197518 0.08754167
-0.06795307 0.056476112 -0.07304029 -0.098778926 -0.1293837 0.0383515 0.24596317 0.12937525

fc2.weight f4 [4, 256]
00000000: 72ab 9cba f474 b13a da74 adbd d57b 0fbf
00000010: 9202 afbd 3a18 1d3b 65c3 82bd 4e6c a2bd
00000020: 2f22 ccbd 82cc 08bd 3520 f3be 9a97 8cbd
00000030: 575c c73c 4d98 c3bc 376f b4bd 762a c1bd
00000040: 92cf b7bc 6c16 9abd 723e 33bb 23a9 62bb
00000050: c327 b2bd abd8 87be 246f bdbd 672f 91bd
00000060: 2bb9 bd3d 21e4 8ebd db69 96bd 8e82 14be
00000070: 09ef fabd 74ad b7bd 28c2 9ebd 26cb 74bd
00000080: 0932 90bd 63ea ddbd fa55 96bd 613a 3ebe
00000090: fb7d 3dbd b642 51bc a1c1 b2bd 8a24 ddbd
000000a0: ab2f 93bd f9b5 edbd 31f2 d1bd 0cbc e4bc
000000b0: 8dc9 b3bd f0eb d6bd 709c 8bbe d2e0 2ebc
000000c0: f734 b7bd 3560 c7bd 41fb b3bd 5be9 d7bd
000000d0: 5d08 23be 7978 cbbd 8c6f bebd 84a9 55ba
000000e0: 3078 afbd b971 ffbe f17d d8bd 7995 91bd
000000f0: cc5f dabd a2ca cabd 7a24 9bbd 3220 91bd
00000100: 75d4 80bd 419c a8bc 7517 06be c13f b4bd
00000110: 22df a43b 6576 8bbd 2ebe feba 1bd1 acbd
00000120: 58f8 8fbd 1aaa b8bd 7211 06be 185c b6bd
00000130: 8bc8 babd 3b1f b0bd bb88 b3bd 987a b4bd
00000140: 2380 9cbd 1447 b13d f45f fcbd acf7 913a
00000150: 2077 89bd 6bde bdbd 4c0e f63a 623c bfbd
00000160: 45c7 a6bd 55b2 adbd 7f7a 5abd 7158 74bd
00000170: 39f2 bebd 1212 8bbd 4b77 55be e7df d7bd
00000180: 0d90 b3bd 90c8 033b 024b a8bd b465 9bbd
00000190: 995e 91bd 95b9 ccbd cf38 61be d5bf c4bd
000001a0: f084 c8bd d8c5 10bd be1e 91bd b439 94bd
000001b0: 9841 1ebf 9b40 14be cf49 96be f895 3a3a
000001c0: fe06 bbba 1c91 13be 0148 d9bd be3d c4bd
000001d0: f9b8 c2ba ecab a4bd bb8d 82bd 07a6 0ebc
000001e0: 675b a4bd 9f73 abbd cc01 cabd 9013 b9bd
000001f0: 5bce f3bd 7d43 94bd 66c7 debd 5f81 9cbd
00000200: 6e8e 87bd 3633 acbd 8688 c7bd 152f abbd
00000210: 06b0 9dbd 0967 a9bd 8997 ebbd 3b1e 51bd
00000220: 2b04 a8bd 8e94 96bd fa2a 413d 9372 ddbd
00000230: f7e6 2fbd 423d babd 1ac6 aebd 27ca cfbd
00000240: bc3b adbd 156d 9fbd ac05 b6bd 2c56 90bd
00000250: b0d2 67be d049 b9bd a616 87bd cf7e f5bd
00000260: ba33 9dbd 069b 3d3b bbe0 8ebd 68d8 a2bd
00000270: bcf0 b03a 9134 e6bd d1d0 0bbe ae7c ba3c
00000280: b87c bfb9 b4db 98be 4698 8cbd 2084 bcbd
00000290: d71c bcbd 9af7 a7bb e7e1 42bd dafa c5bd
000002a0: e93c acbd a078 85bd a80d acbd 023d 8cbd
000002b0: 2519 10be 4497 7abd 43db d2bd 123d 01be
000002c0: 703c c5bd 6fc3 e8bd 6434 a5bd f9ef 86bd
000002d0: 84a8 46be d94f 18bd 221f 90bd d667 adbd
000002e0: 8028 5638 59eb acbd 6345 48be 543e bfbd
000002f0: 8f60 97bd a2df a2bc c30e afbd e8b6 d9bb
00000300: 8f60 a4bd d342 89bd 75d2 82bd 51ef bdbe
00000310: 79cd 8ebe ace6 9ebd aad2 98bd c116 dfbd
00000320: 4148 56bd f7ea c1bd 2696 8ebd e86a 383a
00000330: 348e 9ebd de51 97bd 93fe 96be 619d b0bd
00000340: a3ed 98bd 303e c8bd 9ec5 d9bd f56f d6bd
00000350: 58e0 92bd 1760 bfbd 4e0d babd f270 84bd
00000360: a3e2 9bbd cdd3 98bd f2dd e3bd d398 79bd
00000370: c1ca 4fbd 4fd3 9fbd 80d1 50b8 e819 7eba
00000380: d522 b8bd 0af3 2cbe ca69 e13a 5caa 95bd
00000390: c540 b7bd edfc 55bd 3f16 bfbd 9d30 acbd
000003a0: f217 b2bd 2b0f 82bd 32b9 2c3b a813 2cbb
000003b0: ff14 d1bd fa89 a5bd 3531 8cbd 913d 9abd
000003c0: 3b0d 82bd f5a9 8bbc faf6 04bc 7e76 99bd
000003d0: 8a90 11be e0ed a2bc 9a9a 4fbd 5c2a 9bbd
000003e0: 53f2 79bd 0a84 d5bd 0966 b4bd 7b6c d0bd
000003f0: ed75 2d3c 279b 9dbd b48b 06be 1889 bdbd
-0.001195295 0.0013538883 -0.08469553 -0.5604833 -0.08545412 0.002397074 -0.06384925 -0.07930814
-0.099674575 -0.03339816 -0.4748551 -0.06864853 0.024336023 -0.023876334 -0.08810275 -0.09431927
-0.022437844 -0.07523808 -0.0027350453 -0.0034585677 -0.0869899 -0.26532492 -0.09249714 -0.070891194
0.092638336 -0.06977106 -0.07344409 -0.14502928 -0.122526236 -0.089686304 -0.07751876 -0.05976405
-0.070407934 -0.10835721 -0.073406175 -0.18576957 -0.046262722 -0.012772253 -0.08728338 -0.10797985
-0.07186826 -0.11606974 -0.102512725 -0.027921699 -0.08778677 -0.1049422 -0.2726779 -0.0106737185
-0.08945649 -0.09735147 -0.08788157 -0.10542556 -0.15921159 -0.09935088 -0.0929862 -0.0008150565
-0.08567846 -0.4989145 -0.105708964 -0.07108588 -0.10662803 -0.099019304 -0.07575317 -0.07086219
-0.06290523 -0.02058232 -0.13094886 -0.088012226 0.0050314823 -0.06809691 -0.001943534 -0.08438321
-0.0702979 -0.09016819 -0.13092592 -0.08904284 -0.09120282 -0.08599707 -0.08766314 -0.088124454
-0.07641628 0.08656135 -0.12322989 0.0011136434 -0.067121744 -0.092709385 0.0018772571 -0.09337689
-0.081434764 -0.0848128 -0.053339478 -0.059654657 -0.09323544 -0.06790556 -0.20846288 -0.10540753
-0.0876771 0.0020108558 -0.082174316 -0.07587758 -0.07098121 -0.099963345 -0.21994327 -0.096069016
-0.09790981 -0.03534493 -0.07085942 -0.072375685 -0.6181884 -0.1447777 -0.29353186 0.0007117684
-0.0014269052 -0.14410824 -0.10609437 -0.09582089 -0.0014856152 -0.08040604 -0.06374689 -0.008706576
-0.08025246 -0.08371662 -0.09863624 -0.090369344 -0.119045936 -0.07239435 -0.10877876 -0.07641863
-0.06618963 -0.08408205 -0.09742837 -0.083585896 -0.076995894 -0.082716055 -0.115035124 -0.05105422
-0.0820392 -0.07352553 0.047160126 -0.10812869 -0.042944875 -0.09093715 -0.085338786 -0.101459794
-0.08458659 -0.077844776 -0.088878006 -0.07047686 -0.22638965 -0.09047282 -0.06596117 -0.119870774
-0.07675882 0.0028931512 -0.06976458 -0.079514325 0.0013499479 -0.11240495 -0.13653876 0.02276453
-0.00036523282 -0.2985512 -0.06864981 -0.09204888 -0.09185188 -0.005125952 -0.04757872 -0.09666987
-0.08410055 -0.06517148 -0.08401042 -0.06847574 -0.14072092 -0.061179414 -0.10295727 -0.12620953
-0.09630668 -0.11365401 -0.08066633 -0.0658874 -0.19400221 -0.037185524 -0.07037188 -0.08467071
5.1059294e-05 -0.084433265 -0.19557719 -0.0933806 -0.07391464 -0.019882027 -0.085477374 -0.0066441186
-0.080262296 -0.06702199 -0.06387798 -0.37096646 -0.27891138 -0.07758841 -0.07462056 -0.10893012
-0.052315 -0.09468644 -0.06962232 0.0007034973 -0.07741967 -0.07388662 -0.294911 -0.08623768
-0.074672006 -0.09777486 -0.106333956 -0.10470573 -0.071716964 -0.093444996 -0.09084569 -0.06466855
-0.07611587 -0.07462273 -0.11126317 -0.06093676 -0.05073047 -0.07803976 -4.9786177e-05 -0.00096931914
-0.08991019 -0.16889587 0.0017197665 -0.07307884 -0.08947901 -0.052243162 -0.09330415 -0.0840771
-0.086959735 -0.06350549 0.0026355502 -0.0026256833 -0.10209083 -0.080829576 -0.06845323 -0.07531274
-0.0635018 -0.017048815 -0.008115524 -0.07493304 -0.14215294 -0.019888818 -0.05068455 -0.07576439
-0.061022114 -0.10425575 -0.08808524 -0.10176941 0.010587198 -0.076956086 -0.1313923 -0.09254664

fc2.bias f4 [4]
00000000: 0712 5abd 85a7 2abd 777e 9c3e bab6 163e
-0.05323985 -0.041663665 0.30565235 0.14718142
