ddpg-bipedal/checkpoint_critic.pth (torch, 427215 bytes, 7 tensors)

fcs1.weight f4 [256, 24]
0.15651329 0.120500535 0.5118471 0.8641401 -0.027004471 0.4117491 0.12928107 -0.034036174
0.112372674 -0.102466635 0.03868833 0.28326672 -0.034338035 -0.0024689508 -0.0394085 -0.030888405
-0.056945935 0.020706793 -0.051291354 -0.015077388 -0.045954995 -0.034044515 -0.03906957 -0.038213786
-0.27570733 -0.28929743 0.65088284 -0.47508213 0.063355766 -0.32216114 -0.049377695 -0.15536442
-0.047423217 -0.27637234 0.37456822 0.057744134 0.044695523 -0.037113376 -0.096120104 -0.045857977
-0.05953857 -0.051694192 -0.05674368 -0.10699273 -0.04484373 -0.028782332 -0.09434351 0.015598209
0.023335448 0.2286411 0.24198031 0.023023743 0.12615949 -0.044791285 -0.06423468 0.09493758
0.056021757 0.10515369 -0.010800774 -0.21528338 0.21863502 0.0030347854 -0.05851872 -0.036643922
0.01890577 0.023591746 -0.0053369263 -0.03519915 -0.044885527 -0.035151992 0.01627716 -0.06888146
-0.23320572 -0.5673108 0.27664652 -0.15318416 -0.13441779 0.46310726 0.009016801 0.3341722
-0.19890948 -0.044799283 0.016535902 -0.09633874 -0.43110445 0.04618423 -0.079731725 -0.036995176
-0.051802624 -0.0052571916 -0.06772751 -0.09431041 -0.022772523 -0.11095009 -0.075424396 -0.038108952
-0.5379488 -1.5704219 -0.37908065 0.18781893 -0.16279751 -0.030297795 -0.06148742 0.022980258
-0.0105215395 -0.11159383 -0.07095083 -0.06992386 -0.02190344 0.0066837105 -0.07972115 -0.08101172
-0.07398074 0.0019089107 -0.003734466 0.022617802 -0.0025253822 -0.0038381994 0.015144305 0.025074327
0.32203913 0.13356216 -1.9136369 0.57639664 0.017874317 -0.13086726 0.13932583 -0.13132627
-0.067736104 -0.0032508594 0.2833447 0.017707651 0.120392114 0.12806289 0.031882826 0.00807104
0.006047857 0.076646894 0.01897788 0.025224058 -0.029175287 -0.0043927715 0.021807997 -0.025041973
-0.0962623 -0.7733367 -0.7984662 0.68162954 -0.100700475 -0.045157026 0.14888135 -0.1023589
-0.011174906 0.08537175 -0.040608816 0.020136984 -0.24479617 -0.13917965 0.052577827 0.046739433
0.049209382 0.04324222 0.044883322 0.05327349 0.03380856 0.035329785 -0.008484617 -0.031758416
-0.17362437 0.050399337 0.102191225 -0.009598441 0.01436138 -0.18801484 0.057547886 0.062148064
0.38052347 0.22751194 0.22041182 0.16614906 -0.25201192 -0.36947504 -0.1293046 -0.162636
-0.13571608 -0.13739385 -0.110490575 -0.12312257 -0.13199203 -0.19462371 -0.21296568 -0.12271496
-0.294905 0.05271033 0.5136228 -0.11397561 -0.07296245 -0.23099694 -0.16206671 -0.18554917
-0.19480208 -0.037229728 -0.17743851 -0.15647706 -0.07703995 0.09933783 -0.1344848 -0.16631418
-0.1580608 -0.13713115 -0.14894296 -0.16441716 -0.12532802 -0.1494176 -0.085903615 -0.055605978
0.07181185 -0.04492282 0.0601203 -0.20420508 0.059659656 0.2032353 -0.066529095 0.06449602
0.08367397 -0.02503656 0.11368959 0.043278757 -0.04689259 -0.029842159 -0.0104941465 0.012597569
-0.04564332 0.021693379 -0.017775327 0.037780117 -0.034769487 -0.0018409218 -0.0051919743 -0.003614957
-0.0122945225 -0.3493834 -0.5667362 0.11985502 0.19736984 0.060325693 -0.04848684 0.02814934
0.16182357 -0.010241918 -0.013137237 -0.002174052 -0.05824064 -0.018350951 0.020235064 0.051225826
00000000: 0545 203e fcc8 f63d 6908 033f 4938 5d3f
00000010: 7b38 ddbc c7d0 d23e 4262 043e 8469 0bbd
00000020: a523 e63d 07da d1bd a877 1e3d 5608 913e
00000030: 0aa6 0cbd 1fce 21bb cf6a 21bd ae09 fdbc
00000040: 2440 69bd 4ba1 a93c e216 52bd 2607 77bc
00000050: 4e3b 3cbd 4372 0bbd 6a07 20bd 0f86 1cbd
00000060: 8329 8dbe cb1e 94be 42a0 263f f73d f3be
00000070: abc0 813d 4ef2 a4be 4440 4abd da17 1fbe
00000080: d93e 42bd ad80 8dbe 68c7 bf3e 1d85 6c3d
00000090: a712 373d 3204 18bd 9eda c4bd 93d5 3bbd
000000a0: b7de 73bd 4abd 53bd 106c 68bd 011f dbbd
000000b0: 0fae 37bd edc8 ebbc 2c37 c1bd a18f 7f3c
000000c0: fb29 bf3c e420 6a3e b0c9 773e 4a9c bc3c
000000d0: f42f 013e 1177 37bd 798d 83bd a26e c23d
000000e0: 1277 653d d15a d73d bbf5 30bc 3f73 5cbe
000000f0: dce1 5f3e 40e3 463b 53b1 6fbd f017 16bd
00000100: 46e0 9a3c 7a43 c13c 62e1 aebb fc2c 10bd
00000110: e3d9 37bd 89fb 0fbd ae57 853c b911 8dbd
00000120: 7bcd 6ebe 483b 11bf 9da4 8d3e 4fdc 1cbe
00000130: d1a4 09be 651c ed3e 34bb 133c 9e18 ab3e
00000140: edae 4bbe 747f 37bd 4d76 873c 3f4d c5bd
00000150: b9b9 dcbe ad2b 3d3d 634a a3bd 4188 17bd
00000160: fd2e 54bd 8544 acbb b9b4 8abd d125 c1bd
00000170: 718d babc cd39 e3bd 1b78 9abd 2218 1cbd
00000180: 03b7 09bf 9603 c9bf dc16 c2be 9b53 403e
00000190: 64b4 26be 1533 f8bc 3cda 7bbd 1841 bc3c
000001a0: 8962 2cbc 4e8b e4bd ab4e 91bd 3e34 8fbd
000001b0: d86e b3bc 0703 db3b d844 a3bd 79e9 a5bd
000001c0: 3783 97bd 6a34 fa3a f1bd 74bb f848 b93c
000001d0: e280 25bb 4d8a 7bbb d21f 783c ad68 cd3c
000001e0: 50e2 a43e 85c4 083e 0ef2 f4bf bb8e 133f
000001f0: 296d 923c 1102 06be 6eab 0e3e 657a 06be
00000200: 3ab9 8abd 5f0c 55bb 8e12 913e a30f 913c
00000210: 2490 f63d eb22 033e 9197 023d 653c 043c
00000220: 1a2d c63b 0cf9 9c3d 8077 9b3c afa2 ce3c
00000230: 0301 efbc 3df1 8fbb afa6 b23c d324 cdbc
00000240: 2b25 c5bd 65f9 45bf 4868 4cbf 467f 2e3f
00000250: 0d3c cebd 93f6 38bd 5a74 183e 8ba1 d1bd
00000260: f416 37bc 62d7 ae3d 6e55 26bd 51f6 a43c
00000270: d9ab 7abe 1c85 0ebe d95b 573d d971 3f3d
00000280: c78f 493d c11e 313d 93d7 373d 4e35 5a3d
00000290: d87a 0a3d f7b5 103d 1003 0bbc 1d15 02bd
000002a0: 96ca 31be 896f 4e3d a249 d13d c842 1dbc
000002b0: fe4b 6b3c f686 40be 55b7 6b3d f88e 7e3d
000002c0: f9d3 c23e e4f8 683e a3b3 613e fb22 2a3e
000002d0: b507 81be d52b bdbe 6d68 04be 0d8a 26be
000002e0: 28f9 0abe f9b0 0cbe e248 e2bd b027 fcbd
000002f0: eb28 07be 704b 47be ad13 5abe fb51 fbbd
00000300: cafd 96be c9e6 573d c97c 033f 0b6c e9bd
00000310: 566d 95bd 768a 6cbe d1f4 25be 9a00 3ebe
00000320: 327a 47be 337e 18bd 71b2 35be 863b 20be
00000330: 1fc7 9dbd a271 cb3d 62b6 09be 444e 2abe
00000340: b1da 21be 1c6c 0cbe 8184 18be f95c 28be
00000350: fd55 00be ed00 19be 3cee afbd 18c3 63bd
00000360: 1712 933d fe00 38bd b440 763d 231b 51be
00000370: af5d 743d ea1c 503e 6840 88bd 7d16 843d
00000380: 425d ab3d 7919 cdbc 16d6 e83d 1145 313d
00000390: 7212 40bd 8b77 f4bc a4ef 2bbc 0966 4e3c
000003a0: 7df4 3abd 50b6 b13c 909d 91bc 53bf 1a3d
000003b0: 736a 0ebd 164b f1ba 7021 aabb eae8 6cbb
000003c0: f76e 49bc 62e2 b2be a015 11bf 8c76 f53d
000003d0: 521b 4a3e 1318 773d 239a 46bd 7299 e63c
000003e0: 14b5 253e b8cd 27bc 913d 57bc 8a7a 0ebb
000003f0: bd8d 6ebd bc54 96bc 01c4 a53c 2cd2 513d

fcs1.bias f4 [256]
-0.3062266 -0.1376841 0.17036664 -0.06434564 0.16709985 -0.25222716 -0.19271772 -0.0709844
0.044563085 0.030454407 -0.115736574 0.029342724 0.07368146 -0.20422064 0.10324399 -0.16073895
-0.06976762 0.097313195 -0.05466837 -0.12840734 0.07052408 -0.1357755 0.13609838 0.17057241
-0.16680357 0.034749277 0.20228048 -0.09358119 -0.16715339 0.16198641 0.11659706 0.33629015
0.15930478 0.1913336 0.14060855 -0.1597344 -0.02034058 -0.06531399 0.22494158 -0.06066703
0.13871738 -0.04206643 0.24161454 0.114321396 -0.0023321211 -0.06873707 -0.10813425 -0.08063897
-0.08561123 0.0025896956 0.21052022 -0.17466214 -0.13394433 0.17186244 -0.024155585 -0.24193363
-0.0114869885 -0.06296595 0.014393505 0.2057242 -0.11772493 0.15596114 0.20072998 -0.012603194
0.25139952 0.15569197 0.055309046 -0.05667532 0.018879792 0.12786867 -0.19841148 0.13112123
0.037013832 0.2641992 -0.13958465 0.22260655 -0.22272329 -0.025933836 -0.14208165 0.22986068
0.12609683 -0.21499467 -0.113981366 -0.04795717 0.10985004 0.1726922 -0.10355827 -0.18403238
-0.06716913 0.1494656 -0.050994013 -0.18270035 0.08211602 0.12915577 -0.15777797 0.26271147
0.1101235 -0.20937422 -0.007743407 -0.19472536 -0.033444554 0.20601632 0.04131891 0.1713788
-0.15140544 0.023600103 0.1785745 0.020190332 -0.069328524 -0.10292738 -0.23737673 -0.24938765
-0.09242162 -0.082999095 -0.046282202 0.18515047 -0.22753532 0.22074533 -0.14874807 -0.028435864
-0.0892872 0.07655639 0.09248448 0.14884666 -0.07065892 0.18238762 0.020003185 0.16882111
0.28533295 0.24970518 0.2437147 0.13484369 -0.09673833 -0.036758993 -0.19230448 -0.053102423
0.2597981 -0.047470156 -0.21540083 0.14306173 0.086366974 0.06769174 0.09625966 0.19586751
0.14419168 0.25924593 0.20860936 0.2221781 -0.040989064 0.3071225 0.29305848 -0.13999605
0.044158205 -0.13524188 0.15466833 0.10779919 -0.0022735624 0.034035582 -0.13583107 -0.09047121
-0.08991601 -0.21604073 0.15531915 0.09532803 0.23619382 0.11805473 -0.06850608 0.21543585
-0.04831624 0.15147667 -0.049699534 -0.0076648863 -0.03795025 0.01696075 0.15547149 -0.099523894
0.18234044 0.027758518 0.2116436 0.2071275 -0.089193664 0.14105971 0.24361567 -0.04359997
-0.22093965 -0.05627331 -0.097067185 -0.10694367 0.1844206 0.119300105 0.15358579 -0.21390466
-0.07725762 -0.038173754 0.17646664 -0.15507853 -0.17137249 -0.19050555 0.1339308 -0.018473715
0.07551415 -0.034223765 -0.10949153 -0.19190204 -0.19967562 0.060363032 0.009366447 0.13333204
0.03354873 -0.036432587 0.013446073 0.050473988 0.15708919 -0.19687012 -0.11504153 0.012388136
0.12022915 0.09386317 -0.18769705 0.24591805 0.0016570898 0.09492881 -0.17859295 -0.21486719
0.029947411 -0.08997092 -0.1693397 -0.12023972 -0.017354608 -0.028474236 0.22135234 -0.20848116
0.051607423 0.34362516 -0.16678728 -0.103388965 0.041252743 -0.06422612 0.11941383 0.24063668
-0.050344 -0.17879076 0.083495915 0.028783007 -0.028168863 -0.11879174 0.20630638 0.30357504
0.19349715 0.10828961 0.15111865 -0.20566455 0.026913764 0.1306767 0.058546003 0.2174415
00000000: bcc9 9cbe 10fd 0cbe 9874 2e3e a6c7 83bd
00000010: 391c 2b3e eb23 81be cb57 45be 4560 91bd
00000020: c887 363d 857b f93c 4c07 edbd 2760 f03c
00000030: 4ee6 963d 371f 51be 9671 d33d c098 24be
00000040: 53e2 8ebd 244c c73d f1eb 5fbd 377d 03be
00000050: ee6e 903d bc08 0bbe 605d 0b3e 89aa 2e3e
00000060: 8ece 2abe 4255 0e3d 9d22 4f3e 7fa7 bfbd
00000070: 422a 2bbe c4df 253e 70ca ee3d 392e ac3e
00000080: cb20 233e f5ec 433e b0fb 0f3e 6a91 23be
00000090: 4aa1 a6bc 57c3 85bd 1657 663e fe7d 78bd
000000a0: ee0b 0e3e d94d 2cbd cd69 773e 5621 ea3d
000000b0: 80d6 18bb 05c6 8cbd 7d75 ddbd 0b26 a5bd
000000c0: f154 afbd e2b7 293b 9d92 573e a2da 32be
000000d0: b428 09be b5fc 2f3e efe1 c5bc 73bd 77be
000000e0: ec33 3cbc 4bf4 80bd bcd2 6b3c 5da9 523e
000000f0: c519 f1bd 47b4 1f3e 298c 4d3e a17d 4ebc
00000100: 70b7 803e b76d 1f3e bd8b 623d 6124 68bd
00000110: cba9 9a3c 01f0 023e 612c 4bbe a544 063e
00000120: d19b 173d 1e45 873e 47ef 0ebe f9f2 633e
00000130: 9311 64be 3273 d4bc da7d 11be 9960 6b3e
00000140: 871f 013e 9027 5cbe 106f e9bd bd6e 44bd
00000150: 0ff9 e03d 39d6 303e 5c16 d4bd fc72 3cbe
00000160: f88f 89bd 830d 193e 19df 50bd cd15 3bbe
00000170: 722c a83d 6941 043e 8c90 21be 1e82 863e
00000180: 6e88 e13d 3266 56be 68bc fdbb 1666 47be
00000190: 28fd 08bd f1f5 523e 043e 293d ed7d 2f3e
000001a0: 070a 1bbe 0155 c13c 3cdc 363e 3266 a53c
000001b0: 1dfc 8dbd 97cb d2bd e312 73be 7a5f 7fbe
000001c0: 8c47 bdbd 6efb a9bd 6892 3dbd 1698 3d3e
000001d0: 05ff 68be 100b 623e 6a51 18be 54f2 e8bc
000001e0: 35dc b6bd 99c9 9c3d 8168 bd3d 426b 183e
000001f0: a0b5 90bd d2c3 3a3e b8dd a33c 71df 2c3e
00000200: 2917 923e b7b2 7f3e 5990 793e 7714 0a3e
00000210: bf1e c6bd 9990 16bd 77eb 44be ed81 59bd
00000220: 4204 853e 1170 42bd 0992 5cbe c67e 123e
00000230: 2be1 b03d f8a1 8a3d c923 c53d 7e91 483e
00000240: fca6 133e e2bb 843e b19d 553e a882 633e
00000250: 26e4 27bd 293f 9d3e c30b 963e 205b 0fbe
00000260: 3cdf 343d d97c 0abe 6061 1e3e d2c5 dc3d
00000270: 0c00 15bb e568 0b3d 4d17 0bbe f848 b9bd
00000280: e325 b8bd c839 5dbe fc0b 1f3e 583b c33d
00000290: cbdc 713e aec6 f13d ea4c 8cbd 379b 5c3e
000002a0: 40e7 45bd b31c 1b3e bd91 4bbd ba29 fbbb
000002b0: b971 1bbd 45f1 8a3c eb33 1f3e 2fd3 cbbd
000002c0: 74b7 3a3e d565 e33c 1ab9 583e 3b19 543e
000002d0: 2bab b6bd f571 103e 6376 793e e295 32bd
000002e0: 013e 62be d87e 66bd 29cb c6bd 4805 dbbd
000002f0: c1d8 3c3e 9d53 f43d 9845 1d3e d309 5bbe
00000300: 3e39 9ebd 155c 1cbd acb3 343e e8cc 1ebe
00000310: 457c 2fbe e313 43be 2825 093e 3056 97bc
00000320: 2aa7 9a3d 382e 0cbd 183d e0bd f881 44be
00000330: c477 4cbe 3a3f 773d ba75 193c 3288 083e
00000340: 656a 093d 563a 15bd eb4c 5c3c d0bd 4e3d
00000350: fddb 203e 5298 49be e59a ebbd 9cf7 4a3c
00000360: b33a f63d 553b c03d a833 40be f1d1 7b3e
00000370: b532 d93a 096a c23d 12e1 36be 2506 5cbe
00000380: 4654 f53c ac42 b8bd 6367 2dbe 3e40 f6bd
00000390: 402b 8ebc cd42 e9bc 30aa 623e 167c 55be
000003a0: 4e62 533d a3ef af3e 49ca 2abe 98bd d3bd
000003b0: a3f8 283d fc88 83bd 3d8f f43d 7669 763e
000003c0: 8335 4ebd ed14 37be e8ff aa3d 57ca eb3c
000003d0: 63c2 e6bc 1549 f3bd fb41 533e 306e 9b3e
000003e0: 1e24 463e f1c6 dd3d d9be 1a3e ba99 52be
000003f0: 417a dc3c 1dd0 053e efcd 6f3d fca8 5e3e

fc2.weight f4 [256, 260]
-0.028841881 -0.2173116 -0.0030738097 -0.06720495 0.20132755 0.21200642 0.16756725 -0.17706843
0.014619854 0.10014258 0.1440066 -0.18970664 -0.16295584 0.018436693 0.09058291 -0.16431807
0.010978566 -0.042538594 0.29117498 0.038436092 -0.032923114 0.02896513 0.116683565 0.07224772
-0.0044170576 -0.19426218 0.101252735 0.03342627 -0.14953443 0.10382506 0.1727385 0.111614816
0.06514865 0.13175304 0.01493565 -0.05158392 0.14588146 0.10966284 0.12321669 -0.266878
0.06527957 -0.10882919 -0.033367455 -0.098482996 0.10658901 0.094637655 0.103592284 0.12865576
-0.01201287 0.14504714 0.118941255 -0.37576565 -0.030069485 0.021519305 0.058990914 0.19290128
0.08427952 -0.011856741 0.09578468 0.0411676 0.42398283 0.22317949 0.084866 -0.17570965
0.013117939 0.11242561 0.037128005 0.074778765 0.014223385 0.025748879 0.034941416 0.010585955
-0.024203317 0.10664726 -0.09177847 0.048484668 -0.18375963 0.071756706 0.1064995 0.13636278
0.098545596 0.094791666 -0.026167203 -0.04917029 0.11021917 0.07259029 0.038579624 -0.56950605
0.027350504 0.13498415 -0.16911471 0.01940404 -0.13458009 0.037997283 0.07296301 0.16313799
0.05075259 -0.1243889 0.08675988 0.08526886 0.13465188 0.13762288 0.13010027 0.13757408
-0.15769145 0.11288991 0.12624109 0.0060385144 0.037492808 0.04321667 -0.019706832 0.22036363
0.12509339 0.044111054 -0.009685512 0.15843768 -0.012141479 0.10644704 0.010356034 0.020678641
0.02588847 0.042209875 0.040607274 0.1085227 0.019280113 0.18643871 0.040423065 0.10154172
0.11428001 0.057318315 0.06334841 0.055429045 0.07099853 0.01639359 -0.12290497 -0.14376518
0.11978584 -0.051672064 0.03308156 -0.02865766 0.09191284 0.08009664 -0.05743794 -0.057419498
0.08933823 0.081104115 -0.040681157 0.057706825 0.036412228 0.04114848 -0.04960638 -0.045399148
0.07755595 -0.110693745 0.17576788 0.027890261 0.1254739 -0.079992674 0.28002322 0.16901797
-0.19643645 0.080986075 0.0764672 0.11891265 0.055712447 0.022341372 0.11359339 0.029503515
-0.017665297 0.057714526 0.20990962 -0.06113958 -0.1421805 -0.089086965 -0.08363621 0.07166998
-0.0071595726 0.046963166 0.084536456 0.15875112 -0.19248793 0.11468317 0.049947772 0.12612586
0.029066397 0.03793332 -0.107206486 -0.15622361 -0.03016261 -0.08161382 0.1095497 -0.027903276
0.080589786 0.11071133 0.12097219 -0.0985902 0.068368874 0.0010856433 -0.0018125578 0.103174664
-0.10522534 0.059591256 -0.06322547 -0.06534059 0.05349212 0.114807986 0.060109038 0.047863144
0.12279731 0.05066256 -0.063982666 0.04031484 0.065250106 -0.008333913 0.034771323 0.09718381
-0.02506569 -0.12758344 -0.003213682 0.190911 0.04604958 -0.0017490145 0.03734687 -0.0050031384
-0.07195592 0.08150276 -0.045005243 0.07374914 -0.046197366 0.004160178 0.06691381 -0.043267265
-0.19684449 0.054134984 0.07538015 0.08044282 -0.016237793 0.0918155 0.11400237 0.08665758
0.15417969 0.068756536 -0.114377685 0.23098256 -0.16164795 0.019301144 0.04624281 0.14870715
0.10445065 -0.014526866 0.013376619 0.08972973 0.07165395 -0.060518768 0.014838455 0.12135466
00000000: cf45 ecbc ef86 5ebe f871 49bb c0a2 89bd
00000010: cf28 4e3e 3618 593e c096 2b3e 6d51 35be
00000020: 1d88 6f3c 8e17 cd3d 7776 133e 7542 42be
00000030: e5dd 26be 8c08 973c 8883 b93d ff42 28be
00000040: 71df 333c f33c 2ebd e314 953e 2a6f 1d3d
00000050: 63da 06bd 4848 ed3c cbf7 ee3d 9df6 933d
00000060: f7bc 90bb aaec 46be 985d cf3d fce9 083d
00000070: 8e1f 19be 3ca2 d43d 5de2 303e 4f96 e43d
00000080: a86c 853d 45ea 063e a8b4 743c a949 53bd
00000090: f361 153e e996 e03d 0859 fc3d 3ca4 88be
000000a0: 4cb1 853d d7e1 debd 50ac 08bd 74b1 c9bd
000000b0: 574b da3d 63d1 c13d 3128 d43d 56be 033e
000000c0: a1d1 44bc 3d87 143e 7997 f33d 5b64 c0be
000000d0: 4854 f6bc 4149 b03c 75a0 713d ea87 453e
000000e0: be9a ac3d c742 42bc c22a c43d 5b9f 283d
000000f0: 4714 d93e 2a89 643e 3ace ad3d 3bed 33be
00000100: a0ec 563c 663f e63d 8913 183d 9c25 993d
00000110: 3309 693c 50ef d23c bb1e 0f3d b770 2d3c
00000120: 0946 c6bc e169 da3d 5af6 bbbd dc97 463d
00000130: 7c2b 3cbe 2ef5 923d 691c da3d afa2 0b3e
00000140: 46d2 c93d 2222 c23d 9a5c d6bc c966 49bd
00000150: 97ba e13d 38aa 943d ab05 1e3d 26cb 11bf
00000160: 2a0e e03c 4939 0a3e 682c 2dbe 39f5 9e3c
00000170: 5dcf 09be 0aa3 1b3d a16d 953d a50d 273e
00000180: f3e1 4f3d 9cbf febd 2aaf b13d 71a1 ae3d
00000190: 2fe2 093e 03ed 0c3e 0139 053e 38e0 0c3e
000001a0: de79 21be d332 e73d 5845 013e bbde c53b
000001b0: 0f92 193d f703 313d 3970 a1bc 01a7 613e
000001c0: 7b18 003e cbad 343d fbaf 1ebc 7d3d 223e
000001d0: 0eed 46bc e800 da3d 5bac 293c 4166 a93c
000001e0: 0e14 d43c 43e4 2c3d d053 263d 2641 de3d
000001f0: 54f1 9d3c cae9 3e3e a892 253d 1bf5 cf3d
00000200: a30b ea3d 9cc6 6a3d d0bc 813d 9109 633d
00000210: ad67 913d da4b 863c 9ab5 fbbd 2e37 13be
00000220: 4752 f53d 16a6 53bd 8880 073d 78c3 eabc
00000230: cd3c bc3d b509 a43d 0c44 6bbd b530 6bbd
00000240: f6f6 b63d ea19 a63d 49a1 26bd fe5d 6c3d
00000250: fd24 153d 4f8b 283d 0f30 4bbd 75f4 39bd
00000260: a7d5 9e3d 67b3 e2bd 7ffc 333e 1e7a e43c
00000270: 3b7c 003e 33d3 a3bd 345f 8f3e 0c13 2d3e
00000280: a326 49be 07dc a53d d69a 9c3d 7a88 f33d
00000290: bc32 643d 4105 b73c a7a3 e83d 5bb1 f13c
000002a0: d0b6 90bc 1166 6c3d 8cf2 563e 7f6d 7abd
000002b0: c497 11be 3a73 b6bd 7649 abbd b6c7 923d
000002c0: d99a eabb 735c 403d 7321 ad3d a78f 223e
000002d0: 8e1b 45be 03df ea3d 0996 4c3d 2327 013e
000002e0: a71c ee3c f85f 1b3d 138f dbbd 15f9 1fbe
000002f0: 9417 f7bc 2525 a7bd 985b e03d 6995 e4bc
00000300: 420c a53d 9fbc e23d 44c0 f73d a9e9 c9bd
00000310: fb04 8c3d 254c 8e3a 5993 edba 3d4d d33d
00000320: 6280 d7bd f615 743d 5b7c 81bd 4ad1 85bd
00000330: 8e1a 5b3d 7320 eb3d e534 763d 250c 443d
00000340: 287d fb3d 8b83 4f3d 5809 83bd 2c21 253d
00000350: d9a1 853d f78a 08bc 606c 0e3d 4e08 c73d
00000360: 9056 cdbc 3ca5 02be a39c 52bb 2c7e 433e
00000370: 7c9e 3c3d 303f e5ba 08f9 183d 5ef1 a3bb
00000380: a05d 93bd ebea a63d 6b57 38bd ca09 973d
00000390: 7339 3dbd 1a52 883b 1c0a 893d 0439 31bd
000003a0: 9a91 49be a5bc 5d3d e860 9a3d 35bf a43d
000003b0: 1f05 85bc c409 bc3d 137a e93d 8879 b13d
000003c0: 48e1 1d3e 3ad0 8c3d d93e eabd b186 6c3e
000003d0: 0a87 25be 6f1d 9e3c 1a69 3d3d b046 183e
000003e0: 39ea d53d 1802 6ebc 9b29 5b3c 38c4 b73d
000003f0: 4ebf 923d 87e2 77bd fe1c 733c cb88 f83d

fc2.bias f4 [256]
0.06488075 0.010609984 0.14640988 0.08694996 0.113307625 -0.0842883 0.0067300224 0.014821779
0.009989776 -0.12981395 0.06260304 -0.0758619 0.042131208 0.083917946 0.22132728 -0.0037072594
-0.12556049 -0.07275947 0.23386052 -0.10599033 -0.017283203 0.19664888 -0.005510955 0.09722202
-0.026608994 -0.022831315 -0.09365575 -0.04657717 0.06250058 0.021362338 0.1015976 0.25227803
-0.08125757 0.10850997 0.046047222 0.035019483 0.041921925 0.13838688 -0.011672445 -0.024302777
0.10416983 -0.39985886 -0.012655484 -0.015499255 0.060945243 -0.13540988 0.015460701 0.002619806
-0.003934251 -0.030453106 -0.035529464 0.14896272 -0.024425616 -0.011372044 -0.006753394 -0.011774347
-0.1653947 0.01681637 0.022193544 0.14616741 0.08264406 -0.022477414 0.19650018 -0.053537816
-0.01987655 0.030963106 0.068901904 -0.0034395182 -0.11747047 -0.0042284173 -0.08313805 0.091653205
-0.103874125 -0.015612165 -0.12250241 0.019129222 -0.016453104 -0.00377107 -0.0054050023 0.15253657
0.1608295 0.011861569 0.09792842 0.17885229 -0.08821863 0.13494283 0.08831413 -0.04822695
-0.016622271 -0.008424277 0.09392721 0.05976757 0.020806914 0.08622155 0.017457712 0.07740989
0.09567313 -0.0037844589 0.00801324 -0.011029194 -0.004866505 0.112375915 -0.14996085 -0.015542427
0.0026786758 0.0796795 -0.13399442 0.08614658 -0.014963328 0.087467805 -0.011087005 0.043718312
0.027851684 -0.07927025 0.050103962 0.01790983 0.06631923 -0.0030485918 -0.1271754 -0.035439026
0.08959958 -0.0069375355 -0.036734655 -0.041759845 -0.0039003456 0.16981934 0.086574405 0.06491796
0.024464468 -0.096566744 0.062511615 -0.010278202 0.09165692 0.102137 -0.0026956585 0.004211291
0.044532146 -0.014792183 -0.013899272 0.08319186 0.094860904 0.09002539 0.061877143 0.038307436
-0.076823995 -0.008064142 -0.022418037 -0.049263127 0.17223078 -0.0008474847 -0.040163506 -0.018193766
0.29205957 0.20139 0.013959279 0.14645292 0.05491402 -0.02209163 0.055358063 -0.03390107
0.11653903 -0.012622217 0.050965004 0.1628619 0.14113267 0.07610452 -0.0668465 -0.04941192
0.14867471 0.033838745 0.11630709 0.150168 0.17374454 0.12342029 0.22958416 -0.16361375
0.012458766 0.008166618 0.10231925 0.11570903 0.051902052 -0.0032197812 0.17392209 0.27679703
-0.006576202 0.030113613 -0.026342344 0.15374097 -0.004952845 0.089866675 0.07606825 -0.050703634
-0.021774651 0.04850117 0.0862254 0.10187797 -0.01709594 0.059274364 0.10650432 -0.0021511803
0.023429034 0.09707216 0.12261627 -0.0052723293 0.11507374 -0.03329531 0.0987284 -0.013075155
-0.032286476 -0.07023102 -0.014022099 -0.054686733 -0.035814762 0.043027706 0.13387117 -0.04927267
0.11759568 -0.02761562 -0.038747948 0.10373935 0.13420054 0.018998116 -0.063448265 0.020594861
-0.0032694738 0.05725506 0.045565926 0.1115443 -0.09541514 -0.06407931 0.022607319 -0.0032699276
-0.033061057 0.16585124 -0.02139638 0.22570899 0.013371288 0.10211153 -0.007078556 -0.08331972
0.00056696124 -0.007495438 0.034546282 0.08335479 -0.062496565 -0.053924862 -0.10643859 0.27792475
0.022600228 0.13645251 0.0070685344 -0.022399412 0.33185706 0.12759458 -0.113074295 0.013141862
00000000: 33e0 843d 80d5 2d3c 79ec 153e d212 b23d
00000010: d40d e83d 589f acbd 8587 dc3b 0cd7 723c
00000020: 28ac 233c f3ed 04be 0636 803d 7c5d 9bbd
00000030: c691 2c3d 2cdd ab3d 9ea3 623e 7ef5 72bb
00000040: ee92 00be eb02 95bd 2279 6f3e 7511 d9bd
00000050: 8195 8dbc 535e 493e 3e95 b4bb 571c c73d
00000060: 1bfb d9bc bd08 bbbc 96ce bfbd b4c7 3ebd
00000070: 4e00 803d 1200 af3c 6712 d03d 962a 813e
00000080: 5e6a a6bd 7a3a de3d 039c 3c3d 9770 0f3d
00000090: 53b6 2b3d 4ab5 0d3e c83d 3fbc 9e16 c7bc
000000a0: fe56 d53d 4dba ccbe f258 4fbc 96f0 7dbc
000000b0: b8a1 793d e3a8 0abe e14e 7d3c 0db1 2b3b
000000c0: e4ea 80bb cb78 f9bc 5887 11bd af89 183e
000000d0: 3b18 c8bc cf51 3abc 934b ddbb 31e9 40bc
000000e0: 3a5d 29be 7cc2 893c 3ccf b53c e9ac 153e
000000f0: 4a41 a93d 8e22 b8bc 5837 493e 784a 5bbd
00000100: 26d4 a2bc 57a6 fd3c 711c 8d3d 8a69 61bb
00000110: 5c94 f0bd 898e 8abb 4844 aabd adb4 bb3d
00000120: f5bb d4bd 2bca 7fbc 8be2 fabd e3b4 9c3c
00000130: a9c8 86bc 0e24 77bb 721c b1bb 8c32 1c3e
00000140: 7db0 243e 0757 423c b28e c83d 0e25 373e
00000150: f8ab b4bd 742e 0a3e 0ade b43d 9f89 45bd
00000160: 6e2b 88bc fb05 0abc e95c c03d d7ce 743d
00000170: 4373 aa3c ed94 b03d 7a03 8f3c 1489 9e3d
00000180: 46f0 c33d af04 78bb f749 033c cbb3 34bc
00000190: 3477 9fbb 5825 e63d 568f 19be aaa5 7ebc
000001a0: b98c 2f3b 012f a33d d535 09be 9e6d b03d
000001b0: bf28 75bc 5222 b33d 45a6 35bc f911 333d
000001c0: 3729 e43c 7158 a2bd d039 4d3d a3b7 923c
000001d0: 60d2 873d e2ca 47bb 453a 02be 8328 11bd
000001e0: fc7f b73d 4454 e3bb 1477 16bd 5f0c 2bbd
000001f0: f19c 7fbb 1fe5 2d3e ec4d b13d b5f3 843d
00000200: b569 c83c c9c4 c5bd 1706 803d e765 28bc
00000210: a0b6 bb3d 342d d13d a5a9 30bb dffe 893b
00000220: 5767 363d ea5a 72bc c6b9 63bc 7e60 aa3d
00000230: 6f46 c23d 3b5f b83d e372 7d3d 42e8 1c3d
00000240: e655 9dbd 771f 04bc 08a6 b7bc 22c8 49bd
00000250: 445d 303e bc29 5eba 7d82 24bd 180b 95bc
00000260: d588 953e 2e39 4e3e 76b5 643c c1f7 153e
00000270: 86ed 603d 82f9 b4bc 23bf 623d d9db 0abd
00000280: 04ac ee3d 6acd 4ebc aec0 503d 45c5 263e
00000290: 1585 103e b0dc 9b3d d1e6 88bd 2764 4abd
000002a0: 2f3e 183e 7f9a 0a3d 6932 ee3d a4c5 193e
000002b0: 17ea 313e c7c3 fc3d 1c18 6b3e 5d8a 27be
000002c0: da1f 4c3c 47cd 053c c18c d13d dbf8 ec3d
000002d0: 3f97 543d f702 53bb a218 323e 57b8 8d3e
000002e0: 2e7d d7bb d3b0 f63c e6cb d7bc 466e 1d3e
000002f0: 7a4b a2bb 050c b83d acc9 9b3d 9dae 4fbd
00000300: c160 b2bc 2aa9 463d f196 b03d 66a5 d03d
00000310: c90c 8cbc adc9 723d f01e da3d d1fa 0cbb
00000320: 3fee bf3c c5cd c63d 3d1e fb3d 81c3 acbb
00000330: c8ab eb3d aa60 08bd 1e32 ca3d 2d39 56bc
00000340: d33e 04bd 48d5 8fbd f2bc 65bc 32ff 5fbd
00000350: 80b2 12bd d23d 303d 8615 093e 24d2 49bd
00000360: 01d6 f03d 273a e2bc 2bb6 1ebd 4c75 d43d
00000370: de6b 093e f0a1 9b3c 2af1 81bd 8eb6 a83c
00000380: ab44 56bb 4884 6a3d 56a3 3a3d 5771 e43d
00000390: 0369 c3bd 033c 83bd fc32 b93c 484c 56bb
000003a0: 086b 07bd e8d4 293e 7647 afbc 4220 673e
000003b0: 3f13 5b3c da1f d13d 3bf3 e7bb 88a3 aabd
000003c0: 20a0 143a 4b9c f5bb 6780 0d3d ebb5 aa3d
000003d0: 66fc 7fbd 51e0 5cbd 7afc d9bd 274c 8e3e
000003e0: 1d24 b93c 35ba 0b3e 2a9f e73b f97e b7bc
000003f0: 2be9 a93e 27a8 023e 7f93 e7bd f750 573c

fc3.weight f4 [128, 256]
-0.01471653 0.022352746 -0.03912678 0.07429062 0.07452744 -0.05327165 0.0019882529 0.008700684
0.043105256 0.0058814846 -0.0030092038 0.07808033 -0.0005549677 0.002539979 -0.031934332 -0.00010444275
-0.029511943 -0.07317334 0.025637975 0.10518395 -0.0026635672 0.05514861 -6.050743e-05 -0.12530406
-0.0021260234 -7.575236e-06 -0.1725718 0.014675124 -0.035009876 0.16736683 0.04824167 -0.14878695
0.03694785 -0.034693416 -0.008984091 -0.020022787 -0.09950055 0.120203644 -0.00744878 -0.1592673
-0.0018096609 0.22104076 -0.00066827977 -0.004137152 0.030269332 0.060285073 0.06510019 -0.06317843
4.33071e-05 -0.043559637 0.023666931 0.047790922 0.10957836 0.009038548 0.00043669628 -0.18890144
0.13301758 -0.051967215 0.031324387 -0.02800972 -0.045034677 0.08907236 -0.027287688 -0.06793004
0.04242717 -0.011033235 -0.055952303 0.078535564 -0.012003847 0.008034927 -0.03910436 -0.005644474
0.20436479 -0.0018414274 0.005524826 0.0150741935 0.11850742 0.0003009885 -0.002599329 -0.005901863
-0.10572138 0.07869647 -0.019252283 -0.021701517 0.055630855 -0.03624188 -0.02515158 -0.0260319
-0.00066554174 -0.0003792739 0.045262553 -0.1374732 -0.05899731 0.0017285229 -0.11032849 -0.06387871
-0.08321859 -8.918876e-05 -0.02522156 -0.0029221487 -8.858446e-05 -0.07871286 0.0009068735 0.0047708987
0.08065015 -0.065003626 -0.050163724 -0.08709549 0.00021322464 0.0057255076 -0.0011739274 0.005651819
-0.018660324 0.04417156 -0.07369544 -0.039014906 0.07820271 -0.015172068 0.18761061 -0.0068775197
-0.09312304 0.0007071583 0.039047785 -0.06715242 0.020914385 0.2927502 0.15674189 -0.012678543
0.058565643 0.1415569 -0.016896844 0.0024140433 -0.034380388 0.03205351 0.00043175652 0.03763412
-0.033536457 0.00040904726 0.036210924 0.053267572 -0.04768667 0.010732736 -0.25200662 0.013280571
0.035342276 0.0012596719 -0.12574708 0.00041039728 -0.0918263 0.040045615 -0.02884695 -0.00022619516
-0.032960385 -0.15198381 0.05538996 -0.10658222 0.0028267303 -0.015966224 0.011805299 -0.020039419
-0.027002756 -0.0022666976 -0.13439935 -0.0701736 0.0029057865 2.5958272e-05 0.0013705653 -0.056965582
0.09386094 0.0018566571 -0.010213793 0.013721566 0.11980195 -0.0049511 0.009790539 -0.02806906
0.080845065 0.0071069766 -0.05402877 0.008929551 0.05337248 0.00044977947 -0.12866786 -0.04266673
0.0025493298 0.013552289 -0.11771815 -0.014441088 0.17585902 -0.034591638 0.016965846 0.018834537
0.029146321 -0.053778622 0.0030717338 -0.026439281 -0.003122781 -0.015612601 -0.05530615 -3.42617e-05
-0.007565473 0.2017941 0.16296524 0.16763116 -0.012991085 0.018070942 -0.10091556 -0.0008470821
-0.008056217 0.19234794 0.050160337 -0.0028448321 0.005336285 0.04135348 -0.043439135 -0.05055354
-0.047742885 -0.0040663285 -0.044027552 -0.0100686 -0.03677515 -0.036667768 0.059528403 0.023502365
-3.759837e-05 -0.033089343 -0.050182045 -0.20293772 0.007934421 -0.031607084 0.012454563 0.00085961056
-0.026014479 0.08104186 0.17491646 0.17544147 -0.008591146 -0.016140817 -0.000285347 -0.04338754
0.028549016 -0.0002534963 -0.013580308 -0.008261117 0.007127999 0.056297764 -0.056833453 -0.058935445
-0.003107733 -0.042965084 0.06022596 -0.0095095225 -0.116665475 -0.060403757 0.043747354 -0.007354408
00000000: 9a1d 71bc 1b1d b73c 6743 20bd ae25 983d
00000010: d8a1 983d 6033 5abd 594d 023b 508d 0e3c
00000020: 238f 303d 78b9 c03b 1036 45bb 94e8 9f3d
00000030: 407b 11ba c775 263b 93cd 02bd 4608 dbb8
00000040: 08c3 f1bc e7db 95bd bb06 d23c af6a d73d
00000050: 3e8f 2ebb 82e3 613d 5cc9 7db8 b54f 00be
00000060: c154 0bbb c82e feb6 a9b6 30be ee6f 703c
00000070: 8466 0fbd 3662 2b3e 0f99 453d 9b5b 18be
00000080: a156 173d af1a 0ebd 0232 13bc d406 a4bc
00000090: f2c6 cbbd 542d f63d e514 f4bb f816 23be
000000a0: 2532 edba 8258 623e 7f2f 2fba f290 87bb
000000b0: 64f7 f73c 7bed 763d 4053 853d b163 81bd
000000c0: a5a4 3538 976b 32bd 27e1 c13c 6ac0 433d
000000d0: 9f6a e03d 6b16 143c 62f4 e439 616f 41be
000000e0: c335 083e 93db 54bd 004e 003d a474 e5bc
000000f0: 4876 38bd 926b b63d 6e8a dfbc e81e 8bbd
00000100: 1dc8 2d3d bec4 34bc 3e2e 65bd 41d7 a03d
00000110: c9ab 44bc eda4 033c e52b 20bd 48f5 b8bb
00000120: 0145 513e 0d5c f1ba 9909 b53b c0f9 763c
00000130: 05b4 f23d fecd 9d39 8159 2abb 6a64 c1bb
00000140: 7384 d8bd 9d2b a13d f7b6 9dbc 61c7 b1bc
00000150: 2edd 633d 5e72 14bd b00a cebc da40 d5bc
00000160: c077 2eba 48d9 c6b9 3a65 393d c6c5 0cbe
00000170: 2aa7 71bd 9b8f e23a e7f3 e1bd d7d2 82bd
00000180: 826e aabd da0a bbb8 729d cebc 8581 3fbb
00000190: 6bc6 b9b8 3534 a1bd 40bb 6d3a 3355 9c3b
000001a0: e82b a53d 9f20 85bd 7a78 4dbd 1f5f b2bd
000001b0: 0e95 5f39 0a9d bb3b 78de 99ba e532 b93b
000001c0: 89dd 98bc 3ded 343d a3ed 96bd 18ce 1fbd
000001d0: be28 a03d 4494 78bc ff1c 403e d15c e1bb
000001e0: 4bb7 bebd 9760 393a 92f0 1f3d 3587 89bd
000001f0: a554 ab3c 5be3 953e f280 203e aab9 4fbc
00000200: 87e2 6f3d 4bf4 103e 406b 8abc ed34 1e3b
00000210: 73d2 0cbd 8b4a 033d 615d e239 3c26 1a3d
00000220: 865d 09bd 6575 d639 e851 143d 192f 5a3d
00000230: 1953 43bd 5cd8 2f3c 0307 81be c196 593c
00000240: 10c3 103d 931b a53a d8c3 00be 972a d739
00000250: 6d0f bcbd df06 243d 7050 ecbc cd2e 6db9
00000260: 7801 07bd a5a1 1bbe 95e0 623d c747 dabd
00000270: aa40 393b 99cb 82bc 036b 413c b529 a4bc
00000280: e234 ddbc e08c 14bb fc9f 09be 2db7 8fbd
00000290: 026f 3e3b f7c0 d937 8aa4 b33a be54 69bd
000002a0: 2a3a c03d 135b f33a c157 27bc 6bd0 603c
000002b0: ba5a f53d d63c a2bb 7f68 203c 16f1 e5bc
000002c0: 1992 a53d a4e1 e83b 464d 5dbd 404d 123c
000002d0: 1a9d 5a3d 61d0 eb39 82c1 03be 4fc3 2ebd
000002e0: a812 273b 6c0a 5e3c 3716 f1bd 509a 6cbc
000002f0: 6314 343e f6af 0dbd f5fb 8a3c e34a 9a3c
00000300: 44c4 ee3c f946 5cbd 244f 493b 3197 d8bc
00000310: 92a7 4cbb ffcb 7fbc b488 62bd 38b4 0fb8
00000320: cae7 f7bb 1da3 4e3e 5ce0 263e 81a7 2b3e
00000330: 8fd8 54bc 8309 943c d1ac cebd b80e 5eba
00000340: 39fe 03bc dcf6 443e ed74 4d3d 5d70 3abb
00000350: 01dc ae3b 4462 293d 3ced 31bd 3b11 4fbd
00000360: 0b8e 43bd d63e 85bb 3c56 34bd c5f6 24bc
00000370: 8aa1 16bd f130 16bd 0ed4 733d 0888 c03c
00000380: f1b2 1db8 b188 07bd b08b 4dbd e8ce 4fbe
00000390: 60ff 013c 6e76 01bd 390e 4c3c 7d57 613a
000003a0: 511c d5bc 46f9 a53d 4d1d 333e eea6 333e
000003b0: e1c1 0cbc bf39 84bc a09a 95b9 22b7 31bd
000003c0: a0df e93c b3e7 84b9 f17f 5ebc a359 07bc
000003d0: fd91 e93b 7c98 663d 32ca 68bd 4b66 71bd
000003e0: 1cab 4bbb 28fc 2fbd 7faf 763d d4cd 1bbc
000003f0: 4fee eebd ee69 77bd 6d30 333d 3ffd f0bb

fc3.bias f4 [128]
-0.049547084 0.007871707 -0.0052758465 0.026070926 -0.042862765 0.040596332 -4.9634167e-05 -0.026879884
3.0802427e-09 -0.015528446 -0.004726856 -0.00016487845 0.07475267 0.024082974 -0.000857287 0.0014226869
-0.0017268086 -4.2796266e-05 0.017284464 0.03290128 0.051409807 0.030134024 2.7595817e-08 0.008281292
-0.020930044 -0.0009630327 -0.038656443 0.0146727245 0.17898044 -0.06289607 -0.036646057 0.15883663
0.13445365 4.111176e-05 -0.0005777723 0.061912753 0.030742543 0.01968314 2.4298912e-09 -0.0016974368
-7.190429e-05 -9.9486315e-06 0.05864692 -0.0033366927 -0.044254765 0.17620464 -0.0029891755 0.02013347
-0.01079368 -2.5439712e-07 0.014506376 0.034401312 0.15125409 -0.03334024 -0.014366499 5.5274726e-05
-0.00085342606 0.015378717 -0.0023644378 -2.4961857e-06 -0.020686893 -5.577324e-06 -0.00039708184 0.07548368
0.07286937 0.020702071 -0.016707757 -0.022240272 -0.0094126575 -0.0020375745 -0.00012383869 -0.00012486413
5.1478196e-07 0.035994004 0.022713877 -0.03471813 0.023606963 -0.008708782 0.11737266 0.017423358
-0.0048685754 -0.033987977 -0.0010075188 -4.3610577e-05 -0.015970774 0.04246946 -0.032924183 -0.004200079
5.4649227e-09 0.02768669 0.1779962 -1.2214922e-07 -0.056979798 0.028076274 -0.00057854643 -0.004943811
-0.02104996 -0.021136155 -6.676289e-09 -0.005549882 -4.9461585e-05 0.021300577 -0.005371859 0.006209444
0.012687291 0.034829546 0.18538931 0.0129163945 -0.021955624 -0.00033463223 3.603658e-06 0.026224103
-0.022189999 -0.00069924205 0.019258833 -0.010010522 -9.471346e-05 0.5099027 0.010426283 0.0048738704
0.048380375 0.06412037 -0.010289967 0.109249935 0.041997906 0.032901652 0.1410062 -0.04472726
00000000: e2f1 4abd 55f8 003c 02e1 acbb b292 d53c
00000010: de90 2fbd 5748 263d 482e 50b8 3433 dcbc
00000020: 34ac 5331 066b 7ebc bee3 9abb 39e3 2cb9
00000030: ee17 993d a849 c53c 8fbb 60ba 7379 ba3a
00000040: 1556 e2ba 2480 33b8 2698 8d3c 7ec3 063d
00000050: 1793 523d a1db f63c d80b ed32 42ae 073c
00000060: 7c75 abbc 0874 7cba 3856 1ebd de65 703c
00000070: a646 373e a8cf 80bd 2d1a 16bd 12a6 223e
00000080: 38ae 093e 6b6f 2c38 a575 17ba 3a98 7d3d
00000090: c9d7 fb3c 893e a13c 19fb 2631 877c deba
000000a0: 52cb 96b8 0ce9 26b7 c137 703d 6aac 5abb
000000b0: 7c44 35bd fd6e 343e 0be6 43bb f2ee a43c
000000c0: fad7 30bc 1394 88b4 27ac 6d3c 64e8 0c3d
000000d0: 5ae2 1a3e c78f 08bd 7761 6bbc c9d6 6738
000000e0: 74b8 5fba 04f7 7b3c aff4 1abb 2584 27b6
000000f0: 8f77 a9bc d924 bbb6 6c2f d0b9 3097 9a3d
00000100: 893c 953d 6497 a93c b5de 88bc 3b31 b6bc
00000110: 8c37 1abc d488 05bb b2da 01b9 f6ed 02b9
00000120: 8c2f 0a35 736e 133d 7412 ba3c 9934 0ebd
00000130: 6463 c13c 47af 0ebc 1461 f03d 6ebb 8e3c
00000140: 9288 9fbb fa36 0bbd b90e 84ba 80ea 36b8
00000150: 24d5 82bc 75f4 2d3d 82db 06bd d1a0 89bb
00000160: f8c5 bb31 33cf e23c a344 363e 1f28 03b4
00000170: a663 69bd 3700 e63c 98a9 17ba b1ff a1bb
00000180: f770 acbc bb25 adbc 4265 e5b1 c9db b5bb
00000190: f974 4fb8 8c7e ae3c 6b06 b0bb 9778 cb3b
000001a0: 5bde 4f3c 6da9 0e3d b2d6 3d3e 499f 533c
000001b0: 48dc b3bc 9471 afb9 5fd6 7136 eed3 d63c
000001c0: cdc7 b5bc 574d 37ba b3c4 9d3c 2c03 24bc
000001d0: e7a0 c6b8 fc88 023f 00d3 2a3c fdb4 9f3b
000001e0: 802a 463d 8a51 833d 4097 28bc 6ebe df3d
000001f0: ff05 2c3d e2c3 063d ee63 103e ee33 37bd

fc4.weight f4 [1, 128]
0.15276562 -0.30468643 0.12189383 -0.33104995 -0.18117312 0.2596265 8.631751e-05 -0.2459617
-3.6744235e-10 -0.23221397 -0.0008145754 0.00017518766 0.52725804 0.27629167 0.117934756 0.13984694
-0.00040678354 2.658849e-05 0.2103425 0.23060869 0.2931843 -0.21872804 8.06328e-08 -0.2136302
0.10249468 0.48778433 -0.2705741 -0.39664036 -0.53029144 -0.19264351 0.1278499 -0.37925237
0.41114286 6.0944138e-05 0.0020217798 0.5854197 0.43502647 0.25645864 -9.889143e-11 -0.0011643175
-2.6802976e-05 -1.8173001e-05 -0.38941616 -0.0011301496 -0.23992229 0.4697609 -0.00028686985 -0.3165108
-0.22880937 -1.6494461e-08 -0.29102919 0.26225322 0.5334709 -0.19652791 -0.23316117 4.043665e-05
-0.0012029719 -0.35919997 -0.14756453 5.700779e-06 -0.2513001 1.3068031e-06 -0.00032101676 0.5254256
0.51447064 -0.3407661 -0.08343302 -0.2419076 0.11449789 0.003080139 0.4672311 -0.0005190374
2.7261538e-07 0.20559685 0.1650107 -0.21315317 0.23619366 -0.2303777 0.45926106 0.3013804
1.5306594e-05 0.063019834 0.00026498007 5.2202813e-05 -0.0016599164 -0.047077846 -0.24946827 0.00032827028
6.2098495e-09 0.1815312 0.49896288 -1.6581838e-08 0.15004995 0.2145493 -0.003141543 0.29011375
0.084147744 -0.16339988 1.3854168e-08 -0.0006919865 9.107861e-05 0.1763621 0.39179027 -0.31546226
-0.26895362 0.23779121 -0.5668672 0.15901694 0.07517699 0.0008389841 1.0025389e-06 0.1969257
0.09117184 -0.0012665966 0.20677853 0.010730206 -0.000355373 -1.3292986 -0.28483513 0.23173109
0.5729297 0.4155326 -0.2817516 0.31666264 0.39330086 0.53891766 0.455965 0.10484471
00000000: 976e 1c3e dcff 9bbe 79a3 f93d 617f a9be
00000010: 7285 39be c4ed 843e 5c05 b538 62dd 7bbe
00000020: ea00 caaf 80c9 6dbe 3b89 55ba 94b2 3739
00000030: 62fa 063f 1a76 8d3e c787 f13d 0934 0f3e
00000040: 9045 d5b9 590a df37 0664 573e af24 6c3e
00000050: 411c 963e 3efa 5fbe 5a28 ad33 e0c1 5abe
00000060: bbe8 d13d debe f93e b088 8abe 7214 cbbe
00000070: 2ec1 07bf 5744 45be 16eb 023e 5e2d c2be
00000080: 5181 d23e 459e 7f38 d67f 043b 11de 153f
00000090: cabb de3e 8c4e 833e ed76 d9ae 039c 98ba
000000a0: f4d6 e0b7 3972 98b7 8e61 c7be 8721 94ba
000000b0: 30ae 75be 8084 f03e 0567 96b9 b40d a2be
000000c0: 014d 6abe b4af 8db2 c701 95be 0e46 863e
000000d0: 8d91 083f 9d3e 49be cdc1 6ebe 869a 2938
000000e0: 0aad 9dba 0fe9 b7be 281b 17be 5249 bf36
000000f0: 68aa 80be 6a65 af35 244e a8b9 4b82 063f
00000100: 59b4 033f e578 aebe eede aabd a0b6 77be
00000110: df7d ea3d 28dc 493b ea38 ef3e 0310 08ba
00000120: f95b 9234 fb87 523e 91f8 283e d344 5abe
00000130: c0dc 713e 22e8 6bbe 4424 eb3e 884e 9a3e
00000140: a966 8037 8b10 813d 06ed 8a39 58f4 5a38
00000150: 8d91 d9ba b3d4 40bd 9c74 7fbe b11b ac39
00000160: 6a5e d531 51e3 393e 1078 ff3e d96f 8eb2
00000170: b2a6 193e d0b2 5b3e 58e2 4dbb ca89 943e
00000180: a755 ac3d 4c52 27be 4603 6e32 6e66 35ba
00000190: 7501 bf38 4498 343e bc98 c83e 4584 a1be
000001a0: 4ab4 89be 8a7f 733e 351e 11bf 56d5 223e
000001b0: 65f6 993d 45ef 5b3a f98e 8635 e4a6 493e
000001c0: 4db8 ba3d ee03 a6ba c0bd 533e bfcd 2f3c
000001d0: 5b51 bab9 7526 aabf e9d5 91be ea4a 6d3e
000001e0: 85ab 123f b0c0 d43e bf41 90be 9b21 a23e
000001f0: bb5e c93e 82f6 093f 3f74 e93e d3b8 d63d
