ddpg-bipedal/checkpoint_critic.pth (torch, 427215 bytes, 7 tensors)

fcs1.weight f4 [256, 24]
0	0x3e9603de	0.29299825
1	0x3dc5952e	0.096475944
2	0x3e15dceb	0.14635055
3	0x3db45fa4	0.088073045
4	0xbd20932e	-0.03920286
5	0x3ebb0815	0.36529604
6	0x3e00e7ca	0.1258842
7	0xbcaf1706	-0.021373283
8	0xbe326819	-0.17422523
9	0x3ea9b5fc	0.33146656
10	0x3d52101f	0.051284906
11	0x3f2cc86a	0.6749331
12	0xbe053d7b	-0.13011734
13	0x3eb9e4a7	0.3630726
14	0xbdc1895c	-0.09450027
15	0xbdb925b9	-0.09040398
16	0xbdd85bc0	-0.10564375
17	0xbd843768	-0.064558804
18	0xbddd94f8	-0.10819429
19	0xbdb812ac	-0.089879364
20	0xbdea0a1c	-0.114277095
21	0xbde29064	-0.110626966
22	0xbd7274d2	-0.05919344
23	0x3d9e081a	0.07716389
24	0xbee26da2	-0.44224268
25	0xbf524988	-0.8214345
26	0x3f22abc4	0.63543344
27	0xbf56e725	-0.8394645
28	0xbd1eb048	-0.038742334
29	0x3d900ac0	0.070333004
30	0xbd873ba7	-0.06603175
31	0xbe5533cf	-0.20820545
32	0xbe5ae053	-0.21374635
33	0xbee5c7f2	-0.4487911
34	0x3e3bd73c	0.18343824
35	0xbea72b77	-0.3265035
36	0x3d946bcc	0.07247123
37	0x3c4883d7	0.012238464
38	0xbdeecc3b	-0.116600476
39	0xbda0455e	-0.07825731
40	0xbdb69917	-0.08915918
41	0xbdab5c0b	-0.08367165
42	0xbdb54e72	-0.08852853
43	0xbe061ac1	-0.13096143
44	0xbda5c1a9	-0.08093578
45	0xbd8d1678	-0.06889051
46	0xbdee6224	-0.116398126
47	0x3dacde73	0.08440866
48	0x3bbe7fb0	0.0058135614
49	0x3a817b31	0.0009878633
50	0xbe92dbed	-0.28683415
51	0xbef2c229	-0.47413757
52	0x3e9075a3	0.2821475
53	0x3db9ce06	0.09072499
54	0xbea8993c	-0.3292941
55	0xbc155b88	-0.009116061
56	0xbcc37dcd	-0.023863697
57	0x3d55df5c	0.052214965
58	0x3e108a3e	0.14115235
59	0xbed59d1c	-0.41721427
60	0xbdbdb225	-0.09262494
61	0xbe210ff2	-0.15728739
62	0xbde59e0e	-0.11211787
63	0xbdddb4ab	-0.10825475
64	0xbdc8c835	-0.098038115
65	0xbdcd4aac	-0.10024008
66	0xbde7c8ca	-0.11317594
67	0xbe05c256	-0.13062415
68	0xbe15c901	-0.14627458
69	0xbe21b0d1	-0.15790106
70	0xbe0a9922	-0.13534978
71	0xbbbb2341	-0.0057109897
72	0xbef0ee8b	-0.47056994
73	0xbdf06a17	-0.11738985
74	0x3e548ff4	0.20758039
75	0xbd7a35e7	-0.06108656
76	0xbe77f659	-0.24215068
77	0x3d8e572e	0.06950222
78	0xbb879797	-0.004137944
79	0x3c3084e5	0.010773872
80	0xbd83b03d	-0.06430099
81	0xbe7acae7	-0.24491464
82	0x3c95b9d7	0.018277092
83	0xbd1244e3	-0.035710227
84	0xbebdc9b8	-0.37067962
85	0xbc990c35	-0.018682579
86	0xbd1a7361	-0.03770769
87	0xbcd17008	-0.025566116
88	0xbcfc07ee	-0.0307655
89	0xbc8b54e9	-0.017008262
90	0xbd2462ba	-0.040133215
91	0xbd5f5dea	-0.054532923
92	0xbce4479b	-0.027866175
93	0xbda07644	-0.078350574
94	0xbd4f2079	-0.050568078
95	0x3c968f0d	0.018378759
96	0xbf860665	-1.0470701
97	0xc0334dec	-2.801631
98	0x3e9426a8	0.28935742
99	0x3d4657ad	0.048423458
100	0xbe78cb83	-0.24296384
101	0xbd2e11e8	-0.042497545
102	0xbe036a43	-0.12833504
103	0x3b1b74d9	0.002372077
104	0x3bf0c871	0.007348113
105	0xbdc6cdd6	-0.09707229
106	0xbd3da780	-0.04630232
107	0x3d57d396	0.05269202
108	0xbcde7ea1	-0.02715999
109	0xbcb78969	-0.02240439
110	0xbd9b6d8e	-0.07589255
111	0xbd9e0b39	-0.07716984
112	0xbd90c688	-0.07069117
113	0x3a8ee0c9	0.0010900731
114	0xbb8e42a8	-0.004341442
115	0x3caa9caa	0.020826656
116	0xbb5d6b46	-0.0033785864
117	0xbbd05393	-0.006357619
118	0x3c3e4765	0.0116137015
119	0x3e05a799	0.13052215
120	0x3ef8685b	0.48517117
121	0x3e8ef798	0.27923274
122	0xbfe3a1f0	-1.7783794
123	0xbe958e1b	-0.2920998
124	0x3e00ea08	0.12589276
125	0xbe835165	-0.25648037
126	0x3e4890fe	0.1958656
127	0xbce47aa7	-0.027890516
128	0xbcaf5dd5	-0.021407047
129	0xbc9ae057	-0.018905802
130	0x3ed277e1	0.41107085
131	0x3e41af80	0.18914604
132	0x3e81a42b	0.25320563
133	0x3e44bcf2	0.19212702
134	0x3cc30338	0.023805246
135	0x3b9a1cf0	0.0047031567
136	0x3b4eb40d	0.0031540424
137	0x3d7aeb33	0.06125946
138	0x3c69b3ea	0.014264086
139	0x3ca4356e	0.020045009
140	0xbcdb2d48	-0.02675499
141	0xbba60de1	-0.0050675725
142	0xbcb8a366	-0.022538852
143	0xbe42c52e	-0.1902053
144	0xbc32c63d	-0.0109115215
145	0xbadcc537	-0.0016843443
146	0x3c72916a	0.014805177
147	0x3c2760f6	0.010215988
148	0x3b4d6d27	0.0031345577
149	0xba056f8b	-0.00050901686
150	0x3be4a7de	0.006978019
151	0x3ba69c3c	0.0050845426
152	0xba73433e	-0.0009279734
153	0xbb8406de	-0.004029139
154	0x3b8b0fa6	0.004243809
155	0x3c20de8e	0.009818686
156	0x3c4e32f0	0.012585387
157	0x3b21f90b	0.0024715092
158	0xbb676bb9	-0.003531201
159	0xbb694a75	-0.0035597358
160	0xbb6f0bd6	-0.003647556
161	0xbb7925f7	-0.0038017014
162	0xbb843d6e	-0.0040356433
163	0xbb8f4f3d	-0.0043734596
164	0xbb9f4e16	-0.0048616035
165	0xbbb79d5b	-0.005603475
166	0xbbd2011f	-0.006408825
167	0xbc11efc4	-0.008907262
168	0x3dbccebc	0.09219119
169	0x3d970f5b	0.07375976
170	0xbd8d5520	-0.06901002
171	0xbe17fb56	-0.14841971
172	0xbd91b5ba	-0.0711474
173	0x3d676e48	0.056501657
174	0xbd03643f	-0.032078024
175	0x3d78ba8d	0.060724784
176	0x3e542b79	0.20719709
177	0x3ca55c21	0.020185532
178	0x3db4b69b	0.08823892
179	0xbb9ad026	-0.0047245203
180	0x3e07e064	0.13269192
181	0x3defc344	0.11707166
182	0xbdaef933	-0.08543625
183	0xbdafc733	-0.08582916
184	0xbdb240a2	-0.08703734
185	0xbdb69db7	-0.089168005
186	0xbdbd45c2	-0.09241821
187	0xbdc6f6bc	-0.097150296
188	0xbdd50db1	-0.10403002
189	0xbdeb306b	-0.11483844
190	0xbe0bd244	-0.13654429
191	0xbe12bfc9	-0.14330973
192	0xbc2e65d4	-0.010644395
193	0xbbead35c	-0.0071663093
194	0x3a0e4808	0.00054276036
195	0x3c98c5ff	0.0186491
196	0xbb16d1bb	-0.0023013193
197	0x3a518452	0.00079924345
198	0xbb0190ac	-0.001977007
199	0x3ba368bd	0.004986851
200	0xbca2c409	-0.019868867
201	0x38e8b191	0.000110956964
202	0x3c7bceee	0.01536916
203	0x3c5877b2	0.013212131
204	0x3b379ef5	0.002801833
205	0xbb0e4249	-0.002170699
206	0xbb45f939	-0.0030208363
207	0xbb46ea67	-0.0030352117
208	0xbb49e53c	-0.00308068
209	0xbb4f6879	-0.0031647964
210	0xbb586b06	-0.0033022775
211	0xbb66a5f6	-0.0035194135
212	0xbb7d5de8	-0.0038660709
213	0xbb916477	-0.004437025
214	0xbbb320c6	-0.0054665534
215	0xbc2d39ca	-0.01057286
216	0xbc0b5c9c	-0.0085059665
217	0x3b0a6733	0.002111864
218	0x3be8e1b4	0.007106984
219	0xbc021a0d	-0.007940781
220	0x3b821e7c	0.003970919
221	0xbc445a30	-0.011984393
222	0x3bb5a967	0.005543876
223	0x3bac347a	0.005255279
224	0x3b5eb1a4	0.0033980394
225	0x389d0490	7.487193e-05
226	0xbb295b3e	-0.0025841738
227	0xb9aa8f56	-0.0003253172
228	0xbc6ec9e7	-0.014574504
229	0xbc131790	-0.008977786
230	0xbbfb6f72	-0.0076731974
231	0xbbfccc3d	-0.007714777
232	0xbc0080ec	-0.007843237
233	0xbc043c1a	-0.00807097
234	0xbc09fbc7	-0.008421845
235	0xbc127538	-0.00893908
236	0xbc1ef6d2	-0.009702401
237	0xbc322a24	-0.010874305
238	0xbc56014a	-0.013061831
239	0xbc8390a2	-0.016060177
240	0x3ca5c920	0.020237505
241	0xbdf8a2c2	-0.121404186
242	0xbdd96a48	-0.10615975
243	0xbbe06a66	-0.006848621
244	0x3f2203f6	0.63287294
245	0xbee7a89f	-0.45245835
246	0xbe57aeb0	-0.21062732
247	0xbd196a7c	-0.037455067
248	0x3d4251ca	0.04744128
249	0xbf1c87f8	-0.6114497
250	0x3ed1aea2	0.40953547
251	0xbc235ba8	-0.009970583
252	0xbc858473	-0.016298508
253	0xbe50c9f4	-0.20389539
254	0x39aca0fe	0.00032926345
255	0x3bdfb994	0.0068275426

fcs1.bias f4 [256]
0	0xbe4ea5bd	-0.20180412
1	0xbe7e58cb	-0.2483856
2	0x3e997c60	0.29977703
3	0xbe70aed4	-0.23504192
4	0x3e9e9edf	0.30980584
5	0xbecb6131	-0.3972259
6	0xbc3f56f4	-0.011678446
7	0xbd57518b	-0.052568
8	0xbc7964e5	-0.015221809
9	0xbc8ae51d	-0.016954953
10	0xbe474b33	-0.1946228
11	0xbd4e13c1	-0.050311808
12	0x3d9c16a4	0.07621506
13	0xbc8995e5	-0.016795108
14	0x3db3c792	0.087782994
15	0xbc62042e	-0.013794942
16	0xbdda9bc5	-0.10674242
17	0xbc78d86f	-0.015188321
18	0xbdab043a	-0.083504155
19	0xbe31f3ab	-0.17378108
20	0xbcfe9dc9	-0.031081097
21	0xbd8635c4	-0.06553224
22	0x3cd1bc7b	0.02560257
23	0xbda38bb6	-0.07985632
24	0xbeef8fca	-0.4678939
25	0xbe1a9f29	-0.15099777
26	0xbc3c6a2b	-0.011499922
27	0xbbd10dbe	-0.006379812
28	0xbe950462	-0.29104906
29	0xbc81069f	-0.015750227
30	0x3e4319fa	0.19052878
31	0x3ef6775e	0.48137945
32	0xbdbabddb	-0.09118243
33	0x3e9a9686	0.30192965
34	0xbc88b637	-0.01668845
35	0xbc0e8127	-0.0086977845
36	0xbe831640	-0.25602913
37	0xbe959bef	-0.2922053
38	0x3ea61273	0.3243595
39	0x3d8942de	0.06702207
40	0xbdd1b131	-0.10238875
41	0xbe1ddd8d	-0.15416546
42	0x3e50fa67	0.20408021
43	0x3df0b041	0.11752368
44	0xbc00069f	-0.007814079
45	0xbda33641	-0.079693325
46	0xbd42a35f	-0.047519084
47	0xbc6116f1	-0.01373838
48	0xbcb61b69	-0.022229867
49	0xbca71b7c	-0.020398848
50	0x3e75e735	0.2401398
51	0xbe5820a4	-0.21106201
52	0xbcac0c79	-0.021002041
53	0xbc5fa723	-0.013650688
54	0xbe255eac	-0.16149396
55	0xbeb6090b	-0.35553774
56	0xbd17e624	-0.037084714
57	0xbcaed1dd	-0.021340305
58	0xbc63a6ef	-0.013894781
59	0x3dfce112	0.12347616
60	0xbea5d637	-0.32389995
61	0x3ddd48ed	0.10804925
62	0x3ec5b46f	0.38614222
63	0xbdaf9c97	-0.08574789
64	0x3e149e28	0.14513457
65	0x3e7764e3	0.24159579
66	0xbdc2a17e	-0.095034584
67	0xbc552f52	-0.01301177
68	0xbd8d61a2	-0.069033876
69	0x3e022fb2	0.12713507
70	0xbc399312	-0.011326568
71	0xbc9fd014	-0.0195084
72	0xbd9f5b7e	-0.077811226
73	0x3eee321d	0.46522608
74	0xbe8bb2f6	-0.27284974
75	0xbc58e045	-0.013237064
76	0xbe9d922c	-0.30775583
77	0xbad06c57	-0.0015901428
78	0xbdeb1ea7	-0.11480456
79	0xbb997013	-0.0046825497
80	0x3e72f663	0.23726802
81	0xbe90becf	-0.28270575
82	0xbe33ec33	-0.17570572
83	0xbca6f279	-0.020379292
84	0x3e6a4b49	0.22880282
85	0x3e48ffd1	0.19628836
86	0xbc4dde8c	-0.012565266
87	0xbd8aa517	-0.0676977
88	0xbd6a3569	-0.057179842
89	0xbbef13bc	-0.0072960537
90	0xbe5e4fa9	-0.21710075
91	0xbc92309f	-0.01784545
92	0xbe1382d5	-0.14405377
93	0xbc618e1b	-0.013766791
94	0xbc1513ec	-0.009098988
95	0x3e54a257	0.20765053
96	0x3db895fd	0.09012983
97	0xbe985344	-0.29751027
98	0xbc28b2cd	-0.010296536
99	0xbc773bc9	-0.0150899375
100	0xbc2b9942	-0.010473551
101	0x3e9c8da6	0.3057682
102	0x3db89033	0.09011879
103	0x3eae10c7	0.33997175
104	0xbe83c957	-0.25739548
105	0xbe080ed0	-0.132869
106	0x3e1856e8	0.14876902
107	0xbe16145a	-0.14656201
108	0xbdc3a602	-0.09553148
109	0xbc52a687	-0.012857086
110	0xbe0b1910	-0.1358378
111	0xbedb3154	-0.42811072
112	0xbd5162e2	-0.051119693
113	0x3cc6fc8d	0.024290347
114	0xbe1843d9	-0.14869632
115	0x3e96f4b2	0.29483563
116	0xbdec5ffc	-0.11541745
117	0x3dab7077	0.0837106
118	0xbe9461cd	-0.28980866
119	0xbe0db0bb	-0.13836949
120	0xbc773fd1	-0.015090899
121	0x37d19aea	2.4986879e-05
122	0xbc881dbe	-0.016615745
123	0x3ecbd94a	0.39814216
124	0xbc3b48cd	-0.011430931
125	0x3e57a102	0.21057513
126	0x3d8b25b3	0.067943
127	0x3e2ba196	0.16760859
128	0xbc8afcaa	-0.016966183
129	0x3ed1d9e9	0.40986565
130	0x3ec2d3f6	0.38052338
131	0x3d517af4	0.051142648
132	0xbd7c3018	-0.061569303
133	0xbd3914d8	-0.045185894
134	0xbe2525ba	-0.16127673
135	0xbd67e70e	-0.056616835
136	0x3eb7312f	0.35779712
137	0xbc3ff8a4	-0.011716995
138	0xbe355c36	-0.17710957
139	0x3e528e2f	0.20562051
140	0x3ce7414f	0.028229384
141	0xbd87ec9c	-0.066369265
142	0xbd46e76f	-0.048560556
143	0xbe227ff2	-0.1586912
144	0x3dfa5cd0	0.12224734
145	0x3eb77a8e	0.3583569
146	0x3cb70b44	0.022344239
147	0x3e5ef44e	0.21772882
148	0xbcbacd00	-0.02280283
149	0x3ef4b69f	0.4779558
150	0x3ec040b9	0.3754938
151	0xbc8d7459	-0.017267393
152	0xbcf8b5f5	-0.030360201
153	0xbc3274a2	-0.010892065
154	0x3e58d41b	0.21174662
155	0x3d8b9f03	0.068174385
156	0xbdd1f8aa	-0.10252507
157	0xbc617b9c	-0.013762381
158	0xbc7006ef	-0.014650091
159	0xbe6ff6ae	-0.23433945
160	0xbd6b04b1	-0.05737752
161	0xbbfbed98	-0.0076882355
162	0xbc387e9d	-0.011260656
163	0xbca3182e	-0.01990899
164	0x3e53f0ba	0.20697299
165	0xbccb4e73	-0.024817681
166	0xbe46bcd2	-0.19407967
167	0x3e9a0bbe	0.30087084
168	0xbcf0d5e6	-0.02939887
169	0x3e4ee803	0.20205693
170	0xbe53e682	-0.206934
171	0x3cd4c0e0	0.025970876
172	0xbdb5307b	-0.088471375
173	0xbdd11ef4	-0.10210982
174	0xbde3803b	-0.111084424
175	0xbc5e99e8	-0.013586499
176	0x3e151448	0.14558518
177	0xbc269780	-0.010167956
178	0xbc3e3b95	-0.011610885
179	0x3e6e8c1c	0.23295635
180	0xbe248d3d	-0.16069503
181	0x3e2e727d	0.17035861
182	0x3eaceddd	0.33775225
183	0xbe20dd08	-0.15709317
184	0xbe87c696	-0.26518697
185	0xbc3f98fa	-0.011694187
186	0xbcc9beef	-0.024627177
187	0xbe63921d	-0.22223707
188	0x3dfb69fa	0.12276073
189	0xbdabbc17	-0.08385485
190	0x3ea10ef3	0.31456718
191	0xbe86a65b	-0.26298794
192	0xbc4520ff	-0.012031793
193	0xbc1d05a1	-0.009583862
194	0x3e6e3544	0.23262507
195	0xbe79c6ab	-0.24392192
196	0xbebc38d3	-0.36762103
197	0xbe9282e5	-0.2861549
198	0xbcbd7602	-0.02312756
199	0xbc85dccf	-0.016340641
200	0x3d3cafbb	0.046066027
201	0xbc30e11b	-0.010795857
202	0xbe9c9e5e	-0.30589575
203	0xbe6c6a8d	-0.23087521
204	0xbca4783b	-0.020076862
205	0xbc3d9a78	-0.011572473
206	0x3c87cb93	0.016576564
207	0x3e02bc33	0.12767105
208	0x3e31a36e	0.173475
209	0xbc4f1b6d	-0.012640816
210	0x3d18ffdd	0.037353385
211	0xbd4a4171	-0.049378816
212	0xbc64b6ea	-0.013959626
213	0xbc50b13c	-0.0127375685
214	0xbc49424d	-0.012283874
215	0x3d33230f	0.043734606
216	0xbc5eed8e	-0.013606442
217	0xbe599fc9	-0.2125236
218	0xbe1f738d	-0.15571423
219	0x3ec221f3	0.37916526
220	0xbc59c5e5	-0.013291811
221	0xbdc1db97	-0.094657116
222	0xbbfd198f	-0.007723994
223	0xbed3bd02	-0.4135514
224	0xbc82241a	-0.015886355
225	0xbc9e6add	-0.019338066
226	0xbc84fc2d	-0.016233528
227	0xbe1e3b2f	-0.15452264
228	0xbd8fe218	-0.07025546
229	0x3cecd834	0.028911687
230	0x3ea7d7ae	0.32781738
231	0xbe9b776c	-0.3036455
232	0x3dee7a2d	0.11644397
233	0x3eeb239b	0.45925602
234	0xbdb94b1f	-0.09047531
235	0xbe05bab4	-0.13059503
236	0x3d834a0f	0.0641061
237	0xbd997363	-0.074927114
238	0xbca21075	-0.019783238
239	0x3ebd666d	0.36992207
240	0xbc1da7b0	-0.009622499
241	0xbe14939d	-0.14509435
242	0x3e1bec45	0.15226848
243	0xbda54392	-0.08069529
244	0xbe4db639	-0.20089044
245	0xbc3586cc	-0.011079501
246	0xbdd5a442	-0.1043172
247	0x3e9c2a7a	0.30501157
248	0xbdbdbc3b	-0.09264418
249	0xbc73311a	-0.01484325
250	0xbcfe3dbc	-0.031035297
251	0xbc3c8f3f	-0.011508762
252	0x3e0eaa00	0.13932037
253	0x3dee0ece	0.116239175
254	0x3da8ed11	0.08248342
255	0x3e6cfefc	0.23144144

fc2.weight f4 [256, 260]
0	0xbacc2241	-0.0015574173
1	0x3887ec55	6.481322e-05
2	0x39cbd555	0.00038878122
3	0xb7945491	-1.7682354e-05
4	0xba9a013a	-0.0011749633
5	0xb94c3d77	-0.00019477853
6	0xb6fb8011	-7.495292e-06
7	0xba7710dc	-0.00094248145
8	0xb7c6413f	-2.3633822e-05
9	0x3601250b	1.924406e-06
10	0x3950292c	0.00019851763
11	0x37cf82ab	2.473717e-05
12	0xb9b68816	-0.00034815137
13	0x372b5738	1.0212701e-05
14	0xb9e12137	-0.0004294009
15	0xb6aa324a	-5.072249e-06
16	0xb761b592	-1.345332e-05
17	0x378358d8	1.5657788e-05
18	0x39a07322	0.0003060336
19	0xb8ca04fc	-9.633039e-05
20	0x384bc661	4.8583726e-05
21	0x39b5dee1	0.00034689068
22	0xb956a8b7	-0.00020471482
23	0x3796b3d1	1.7965127e-05
24	0xbb0ff1be	-0.0021964158
25	0x39e8a068	0.0004437
26	0x36b2139c	5.307096e-06
27	0xb8611ec3	-5.367283e-05
28	0xba4289a2	-0.00074210216
29	0xb2b33840	-2.0863922e-08
30	0xb97569f9	-0.00023404499
31	0xb9a5f5c2	-0.00031654356
32	0x38dd4dae	0.0001055257
33	0xb9f088e2	-0.00045878353
34	0x363326f6	2.6695757e-06
35	0x362d503e	2.5825716e-06
36	0x39d9ed98	0.00041566486
37	0xba891250	-0.0010457728
38	0x3987b700	0.00025885552
39	0xbb0283b7	-0.0019914934
40	0x3862b18f	5.4047963e-05
41	0x38827240	6.220164e-05
42	0xba793d1f	-0.0009507704
43	0x39d94507	0.00041440895
44	0x3693a2da	4.3999e-06
45	0xb6a28f48	-4.8446564e-06
46	0xb7ff92f4	-3.04668e-05
47	0xb58b54ec	-1.0381023e-06
48	0xb7c9b1ee	-2.4043922e-05
49	0x3737fa62	1.0965947e-05
50	0xb99a4c69	-0.000294301
51	0xba89b634	-0.0010506571
52	0x3786dee8	1.6077844e-05
53	0x373587b7	1.0820039e-05
54	0x35273c94	6.23005e-07
55	0x37f10630	2.873232e-05
56	0xb6cb4a04	-6.058488e-06
57	0xb84814d6	-4.770312e-05
58	0x374b728f	1.2126416e-05
59	0x3a0ff26a	0.00054911396
60	0xb9a8674d	-0.00032120422
61	0xb987c328	-0.0002589461
62	0x397ba2e9	0.00023997914
63	0xb649ba00	-3.00596e-06
64	0xb78d6626	-1.6856076e-05
65	0xba3c0524	-0.0007172397
66	0xb9aff816	-0.0003356344
67	0xb598774c	-1.1359602e-06
68	0x38b203d6	8.488416e-05
69	0xb9184550	-0.0001452167
70	0x36c8b81c	5.9818976e-06
71	0x378f067c	1.7049948e-05
72	0x39aaa52a	0.00032547984
73	0x3920401a	0.00015282669
74	0x388f0358	6.819394e-05
75	0xb7165c07	-8.9621235e-06
76	0xb90971a6	-0.00013107675
77	0xb93734b1	-0.00017471869
78	0xb9894b06	-0.00026186573
79	0xb9c61de3	-0.0003778777
80	0xb8a6f840	-7.961737e-05
81	0xbaf08c00	-0.001835227
82	0xba1dd7e6	-0.0006021246
83	0x371da917	9.3972985e-06
84	0xb9cc50cf	-0.0003897012
85	0xb65c34a9	-3.2813207e-06
86	0x37879985	1.6164742e-05
87	0xb9945d09	-0.00028298076
88	0x3a8ffd0c	0.0010985448
89	0x357efed0	9.4993175e-07
90	0xb8d2f052	-0.000100583435
91	0x375548ba	1.2712722e-05
92	0x388719eb	6.442129e-05
93	0x36512c68	3.1169275e-06
94	0x361d2ec4	2.3422044e-06
95	0x373c6f4d	1.1231587e-05
96	0x39e696e3	0.00043981438
97	0xba9f853d	-0.0012170445
98	0xb5a86593	-1.2546537e-06
99	0xb7ba367c	-2.21983e-05
100	0xb72d087e	-1.0313581e-05
101	0xb9d6565c	-0.00040881603
102	0xbc0f24c9	-0.008736798
103	0x39899bf6	0.00026246876
104	0x3a62ba3a	0.0008648966
105	0x3a85318e	0.0010161863
106	0x3982c088	0.0002493898
107	0x39e7f582	0.0004424267
108	0xb7cd6326	-2.4484074e-05
109	0xbad0ff0f	-0.0015945154
110	0xba19343f	-0.0005844272
111	0xbb39ce8c	-0.0028351871
112	0x39aa4e54	0.00032483286
113	0x3aac2336	0.0013133052
114	0xb962ef3f	-0.00021642166
115	0x39dc1984	0.0004198068
116	0xb99a6047	-0.000294449
117	0x38168fcd	3.589671e-05
118	0xba0416af	-0.00050387805
119	0x39b46b09	0.00034412023
120	0xb6c54e58	-5.880178e-06
121	0x385524ca	5.081742e-05
122	0xb6d8869c	-6.4529722e-06
123	0x397f775b	0.00024363158
124	0xb7057d33	-7.956568e-06
125	0x3a1b43cf	0.0005922885
126	0x3a0014e8	0.0004885928
127	0x3a27f27a	0.0006406676
128	0x370bf5b1	8.34225e-06
129	0xba4ab876	-0.00077331753
130	0xbaf9af01	-0.0019049348
131	0xb86a5132	-5.5865567e-05
132	0xba1be1b5	-0.0005946414
133	0xb9f73022	-0.00047147373
134	0x3a5e989e	0.00084913697
135	0x398193c4	0.0002471489
136	0x399327b3	0.00028067603
137	0x35db07fa	1.6319093e-06
138	0x384b7b33	4.851371e-05
139	0xba9ea2d1	-0.0012102966
140	0x38a8919a	8.037985e-05
141	0xb88be029	-6.6697896e-05
142	0x36e4d134	6.819284e-06
143	0x38b36690	8.554489e-05
144	0x389f2c9f	7.590022e-05
145	0xb8ed8c48	-0.0001132717
146	0x3946d0e1	0.00018960565
147	0x39b0a431	0.00033691668
148	0x3757c805	1.2861569e-05
149	0xba12c319	-0.000559853
150	0xb706b32e	-8.028741e-06
151	0x371ec191	9.462602e-06
152	0x38d09acd	9.947047e-05
153	0x36440d59	2.9214045e-06
154	0x3870707a	5.732521e-05
155	0xba215b8a	-0.0006155303
156	0x392b9f12	0.00016367089
157	0x380b2ee8	3.3183867e-05
158	0x36dc9956	6.5743616e-06
159	0xb58b2130	-1.0365966e-06
160	0x398b8fce	0.0002661929
161	0xb63ebe88	-2.842311e-06
162	0xb72f6aeb	-1.0455707e-05
163	0x36d7bf32	6.4297574e-06
164	0x398af7a0	0.00026505906
165	0x36df5797	6.6561147e-06
166	0x390be140	0.00013339985
167	0xb90bc71f	-0.00013330251
168	0xb5af0035	-1.3038576e-06
169	0x3a97ae12	0.0011572263
170	0xb782012c	-1.5497753e-05
171	0xb89f1ec8	-7.587444e-05
172	0x38e46833	0.00010891296
173	0x3829eb43	4.0511844e-05
174	0x38aee7e1	8.3401574e-05
175	0xb769aba8	-1.3927849e-05
176	0x3940455b	0.00018336384
177	0x3738f309	1.1023841e-05
178	0x36e0bcc9	6.6976977e-06
179	0x3a3666eb	0.0006958085
180	0x3980f030	0.00024593016
181	0x39a037d5	0.00030559176
182	0x380590cf	3.1844535e-05
183	0xb9f7352a	-0.00047151122
184	0x3b0097db	0.0019621763
185	0x36f338e4	7.2485873e-06
186	0xb9523a6b	-0.00020048923
187	0xb9b2a11e	-0.00034070847
188	0x39dbdf20	0.00041937176
189	0x37db3170	2.6129856e-05
190	0xbaa0d558	-0.0012270613
191	0xb891ae3d	-6.946593e-05
192	0x39089f54	0.00013029325
193	0xb6eb5361	-7.0132523e-06
194	0xb8212a1c	-3.842461e-05
195	0x39a96d14	0.0003231546
196	0xb98f70e7	-0.00027359204
197	0xb9d52617	-0.00040654905
198	0xb7832537	-1.5633746e-05
199	0xb74300e6	-1.1623115e-05
200	0x3ac86164	0.0015287814
201	0x371db62b	9.4003435e-06
202	0xb9683ffa	-0.00022149077
203	0x3a35d2c1	0.0006936007
204	0x36bc0564	5.603464e-06
205	0x36d1c404	6.2515046e-06
206	0x39fa7514	0.00047770946
207	0xb708ded5	-8.158114e-06
208	0xbabf89fd	-0.0014613267
209	0x394ec229	0.00019718021
210	0x39b0616b	0.00033641918
211	0xb84dca74	-4.9064358e-05
212	0x378ca9bc	1.676834e-05
213	0x35ae7030	1.2996661e-06
214	0x3602ef73	1.9510887e-06
215	0xbbdfcd95	-0.006829927
216	0xb6227eac	-2.4213614e-06
217	0x37b7006a	2.1815493e-05
218	0xb9d1be18	-0.00040005217
219	0x3987838a	0.0002584721
220	0xb6ada875	-5.1754128e-06
221	0x39fdab12	0.00048383378
222	0x362d6dd4	2.5842937e-06
223	0xbacd1805	-0.0015647417
224	0xb65e864b	-3.3158747e-06
225	0x32ad3980	2.0165999e-08
226	0xb68de8aa	-4.229213e-06
227	0x37fc8852	3.010422e-05
228	0x3a3d6f0a	0.0007226324
229	0xb9823b3e	-0.0002483967
230	0x3a05598c	0.0005086891
231	0xba1951a7	-0.0005848654
232	0xb938174f	-0.0001755629
233	0xb985e453	-0.00025537852
234	0xb80d9e8e	-3.3764685e-05
235	0x3883ed8b	6.2908126e-05
236	0x3a4dc243	0.00078490766
237	0x39899d70	0.00026247976
238	0x350c8e5b	5.236122e-07
239	0xb93fc570	-0.0001828873
240	0xb5e252d2	-1.6862416e-06
241	0x3a8d3186	0.0010772205
242	0xbad3b604	-0.0016152267
243	0xb6ec2b50	-7.0383903e-06
244	0x38e22fe5	0.00010785441
245	0xb725e7a3	-9.8886985e-06
246	0xb6266292	-2.4793303e-06
247	0xb7c4a838	-2.3443354e-05
248	0xb7ddca0a	-2.6439335e-05
249	0xb732ce25	-1.06576235e-05
250	0x39a9d9f0	0.00032396568
251	0xb6db24db	-6.530999e-06
252	0x3a8fb1dc	0.001096304
253	0x3ad56250	0.001627991
254	0x3a19b6ef	0.0005863746
255	0xba6fd6ba	-0.0009149123

fc2.bias f4 [256]
0	0xbc2692b0	-0.010166809
1	0x3e1ce443	0.1532145
2	0x3e250b0e	0.16117498
3	0x3cd5a5a6	0.026079964
4	0x3d07cef9	0.03315637
5	0xbba36027	-0.0049858275
6	0xbd9c2e06	-0.07625966
7	0xbb93bfef	-0.0045089643
8	0x3e6f2128	0.23352492
9	0xbcf2d34d	-0.029641772
10	0xbbe3e610	-0.006954916
11	0xbd97d62b	-0.07413896
12	0x3d359ac4	0.04433705
13	0x3cfbe982	0.030750994
14	0x3f079628	0.52963495
15	0xbbb61cdf	-0.005557641
16	0xbc44aa84	-0.012003545
17	0xbdb25c85	-0.08709053
18	0x3f0cea8e	0.550454
19	0xbf019449	-0.5061689
20	0xbc5ebe44	-0.013595168
21	0x3e8da480	0.27664566
22	0xbc0b6146	-0.0085070785
23	0xbc1a5026	-0.009418523
24	0xbb29a482	-0.0025885408
25	0x3e09c19e	0.13452765
26	0xbde11870	-0.10990989
27	0x3e4320fe	0.19055554
28	0xbc3eaeb1	-0.011638329
29	0xbec5d9b9	-0.38642672
30	0xbcc75000	-0.02433014
31	0xbc32b1b5	-0.0109066265
32	0xbec80aba	-0.39070684
33	0xbc8110a8	-0.015755013
34	0xbc909dbc	-0.017653339
35	0xbc0b526c	-0.008503538
36	0xbc5f585d	-0.013631907
37	0x3e8cd883	0.27508935
38	0xbb8d013f	-0.004303127
39	0xbb8123a7	-0.0039410177
40	0xbbf07cc6	-0.007339093
41	0xbf5566bd	-0.8335989
42	0xbd0d38d2	-0.034478016
43	0xbc62cfd6	-0.013843497
44	0xbc98c6fa	-0.018649567
45	0xbbdea019	-0.0067939875
46	0x3e48bfed	0.19604464
47	0xbc18040b	-0.009278308
48	0xbc110011	-0.0088501135
49	0xbc4feff9	-0.012691491
50	0x3c79624f	0.0152211925
51	0x3e72f78c	0.23727244
52	0xbe81be6e	-0.253406
53	0xbc26921c	-0.010166671
54	0xbbdf35eb	-0.0068118474
55	0xbc49a9de	-0.012308566
56	0xbd0e5c09	-0.03475574
57	0xbb959d43	-0.004565866
58	0xbc38af8a	-0.0112723205
59	0x3ec59c27	0.38595697
60	0xbe126483	-0.14296155
61	0xbdd07228	-0.101780236
62	0x3dae3c95	0.08507649
63	0xbd92ab8e	-0.07161628
64	0xbb6bd341	-0.0035984071
65	0xbc03b9b6	-0.008039882
66	0xbcae081a	-0.021244098
67	0x3e5bbccb	0.21458738
68	0xbc8a67ce	-0.016895201
69	0xbd034a52	-0.0320533
70	0xbc3d8285	-0.011566763
71	0xbc25c910	-0.010118738
72	0xbe60d5be	-0.21956536
73	0xbbb5533a	-0.005533603
74	0x3dc7878d	0.09742651
75	0xbe1530aa	-0.14569345
76	0xbe7b11a8	-0.24518454
77	0xbcbb8793	-0.022891795
78	0xbc3aef17	-0.0114095425
79	0x3e9cdf98	0.30639338
80	0x3e5cf8a6	0.21579227
81	0x3e36aa72	0.17838457
82	0x3e82aa6e	0.25520653
83	0x3e5e232d	0.21693106
84	0xbba09de4	-0.0049016345
85	0xbb4246f8	-0.0029644351
86	0xbc28a1f0	-0.010292515
87	0xbaf33282	-0.0018554481
88	0xbc65101d	-0.0139808925
89	0xbdbae971	-0.09126557
90	0xbb9a24ef	-0.00470411
91	0xbbe106b7	-0.0068672555
92	0x3debbd09	0.11510665
93	0xbb36d0cc	-0.0027895449
94	0xbd3c2236	-0.045931064
95	0x3e17e41e	0.14833114
96	0x3e2ace49	0.16680254
97	0xbcb30e99	-0.021857547
98	0x3e39b65d	0.18135972
99	0xbc1cee32	-0.009578275
100	0xbcd42077	-0.025894387
101	0x3ed96a50	0.42463923
102	0x3d784624	0.060613766
103	0xbc9b1eb1	-0.018935533
104	0xbcc2a737	-0.023761375
105	0x3bd291ec	0.0064260866
106	0x3cf528db	0.029926708
107	0x3e9b9ed3	0.3039461
108	0xbc80d08c	-0.015724443
109	0xbd080a80	-0.03321314
110	0xbc562ecf	-0.0130726835
111	0xbc5211bc	-0.012821611
112	0x3d13dda5	0.03610005
113	0xbdc73616	-0.09727113
114	0x3d8c6a27	0.068561845
115	0xbd5a1a70	-0.05324787
116	0x3e07ceec	0.13262528
117	0xbdc548c5	-0.0963302
118	0xbea10134	-0.3144623
119	0xbcc883a3	-0.024476832
120	0x3eb240ea	0.3481515
121	0xbbecbd11	-0.007224687
122	0xbc45843d	-0.012055454
123	0x3e600210	0.21875787
124	0xbba4874e	-0.0050210124
125	0x3e5d2d8a	0.21599403
126	0xbd33aa86	-0.043863796
127	0x3e7ad760	0.24496222
128	0xbe13a239	-0.14417352
129	0xbe578005	-0.2104493
130	0x3e378fa4	0.17925888
131	0xbb0c6fc3	-0.002142892
132	0x3e985793	0.29754314
133	0x3e5d0b7f	0.21586417
134	0xbc08f116	-0.008358261
135	0xbdee58ea	-0.11638053
136	0xbc85dcd7	-0.016340656
137	0xbcf50405	-0.029909143
138	0xbd7b2ee3	-0.06132401
139	0x3d6a8bab	0.057262104
140	0x3e9ce311	0.30641988
141	0xbbd69efe	-0.006549715
142	0x3e11e9e9	0.14249386
143	0xbc5b2f78	-0.013378017
144	0xbcda2627	-0.02662952
145	0xbca13e30	-0.019682974
146	0xbe13c879	-0.14431943
147	0xbe4596f3	-0.19295864
148	0x3dfcb1cf	0.12338602
149	0x3d5d6fa4	0.054061547
150	0xbe145a32	-0.14487532
151	0xbc1de1bf	-0.009636342
152	0x3f18720a	0.5954901
153	0xbbd16352	-0.0063900137
154	0x3e449926	0.19199046
155	0x3e84a8c1	0.2591
156	0x3d82f339	0.06394047
157	0xbcacfcc8	-0.02111663
158	0x3de877c9	0.11350972
159	0xbd6151ea	-0.05500976
160	0xbd02fb74	-0.031978086
161	0xbca3da77	-0.020001633
162	0x3d20fc07	0.039302852
163	0x3ed5e213	0.41774043
164	0xbc8b6531	-0.017016025
165	0xbbdbcae6	-0.006707537
166	0xbbbe8b50	-0.005814947
167	0xbca1808a	-0.019714613
168	0x3e81c0b5	0.25342336
169	0xbc8970c8	-0.016777411
170	0xbc0d2ef4	-0.0086171515
171	0x3dc66ac4	0.09688333
172	0x3df3bbc9	0.119010516
173	0xbc998fed	-0.018745387
174	0x3e950ef2	0.29112965
175	0xbe2db128	-0.16962111
176	0xbcdc34c7	-0.026880635
177	0xbc5f80ca	-0.013641546
178	0x3e8a08eb	0.2695993
179	0xbc6137f9	-0.013746255
180	0x3ea90e8a	0.33018905
181	0xbbc99a88	-0.0061524548
182	0xbc148b03	-0.009066346
183	0x3f335f96	0.7006773
184	0xbca59e85	-0.02021719
185	0x3e129ca9	0.14317574
186	0xbda7e990	-0.081988454
187	0x3da48b16	0.08034341
188	0xbe2292c6	-0.15876302
189	0xbb3bdf95	-0.00286672
190	0xbc480d92	-0.012210267
191	0xbe155917	-0.14584766
192	0xbc8388bb	-0.01605641
193	0xbc23f1dc	-0.010006394
194	0xbcb11494	-0.021616258
195	0x3e489ad0	0.19590306
196	0xbc49b72e	-0.01231174
197	0xbc08a29c	-0.00833955
198	0x3ec10a5f	0.37703225
199	0xbbe4571e	-0.006968393
200	0x3db18832	0.08668555
201	0x3d78ebcd	0.060771752
202	0xbb02dfe3	-0.0019969873
203	0xbec14809	-0.3775027
204	0xbc4bcfdd	-0.012439695
205	0x3d0cdc04	0.03438951
206	0xbcdc6671	-0.026904317
207	0xbc155c51	-0.009116248
208	0x3da951ee	0.0826758
209	0xbb786bca	-0.0037906044
210	0x3d84ade6	0.06478481
211	0xbc69e8aa	-0.014276663
212	0x3d953421	0.072853334
213	0xbc08bb61	-0.008345456
214	0x3d7015a2	0.05861438
215	0xbd84675e	-0.06465028
216	0x3ea9a598	0.3313415
217	0xbb93a070	-0.0045052096
218	0xbcd44f00	-0.025916576
219	0xbd53129f	-0.05153143
220	0x3e97eb8d	0.29671898
221	0x3cca8501	0.024721624
222	0xbc381987	-0.011236555
223	0xbce43451	-0.027856978
224	0xbc49794c	-0.012296986
225	0xbd540d43	-0.05177046
226	0xbbc67743	-0.0060566976
227	0x3dbda2b8	0.09259552
228	0xbe3519da	-0.17685643
229	0xbc4c8190	-0.012482062
230	0x3df5a852	0.11994995
231	0xbc1cd4f7	-0.009572259
232	0xbc2987dd	-0.010347334
233	0xbc07556f	-0.008260115
234	0xbd59709c	-0.05308591
235	0x3ebd3692	0.36955696
236	0xbe35472a	-0.17702928
237	0x3e950ed2	0.2911287
238	0xbc5e9270	-0.013584718
239	0xbd84b5f3	-0.064800166
240	0xbe0b8cca	-0.13627926
241	0xbc17411d	-0.009231833
242	0xbc80e117	-0.015732331
243	0x3e92a885	0.28644195
244	0xbe39b7d0	-0.18136525
245	0xbc95d587	-0.018290294
246	0xbce6f3de	-0.028192457
247	0x3f144cb2	0.5792953
248	0xbbc01f96	-0.0058631403
249	0xbb2e5bd4	-0.0026605027
250	0x3e77f352	0.24213913
251	0xbb9f2d37	-0.004857685
252	0x3ef8513e	0.48499483
253	0x3ee47079	0.4461706
254	0xbeae3350	-0.34023523
255	0xbc93a716	-0.018024009

fc3.weight f4 [128, 256]
0	0x35e19562	1.6807282e-06
1	0x390ade6a	0.00013243561
2	0xb88449aa	-6.3079715e-05
3	0xb607c8f8	-2.0233547e-06
4	0x37dea5e1	2.6541706e-05
5	0x34c8650c	3.7326424e-07
6	0xb6dc60de	-6.5677878e-06
7	0x354dca95	7.6663247e-07
8	0x3793aa93	1.7603195e-05
9	0xb5dc6b87	-1.6422572e-06
10	0x3535cd0c	6.7726137e-07
11	0x37599a6c	1.2970162e-05
12	0xba9d3220	-0.0011993088
13	0xb82f3aa1	-4.1777854e-05
14	0xb822221a	-3.865557e-05
15	0x35c4ceda	1.466334e-06
16	0x36555c46	3.1793184e-06
17	0xb9757289	-0.00023407688
18	0x38a18a20	7.702806e-05
19	0xb6acb64a	-5.1472207e-06
20	0xb58ae043	-1.034707e-06
21	0x394d26b5	0.00019564743
22	0x34ab5d0a	3.1918927e-07
23	0xb493567a	-2.7443804e-07
24	0x34e98218	4.3494288e-07
25	0x389f0444	7.582505e-05
26	0x39138507	0.00014068569
27	0xb96453ae	-0.00021774948
28	0x3682d6fc	3.8993294e-06
29	0x374de0d7	1.2271302e-05
30	0x36b1d71f	5.3000545e-06
31	0x3651dbd8	3.1271393e-06
32	0xb6530c91	-3.1448765e-06
33	0x36348c4c	2.6903754e-06
34	0x3719686c	9.143823e-06
35	0x36c22586	5.786019e-06
36	0x370f003d	8.52352e-06
37	0x3824bcd5	3.927651e-05
38	0x3588d37e	1.0194342e-06
39	0x357010f9	8.9431666e-07
40	0x36314730	2.6416492e-06
41	0x35078530	5.048523e-07
42	0x36f49b10	7.2898183e-06
43	0x3731b808	1.059287e-05
44	0x36790360	3.7105856e-06
45	0x36173943	2.2534084e-06
46	0x3827a57b	3.997002e-05
47	0x35bf84d0	1.4269262e-06
48	0x3640e379	2.8742636e-06
49	0x36705c1a	3.5816397e-06
50	0xb70809da	-8.108525e-06
51	0x38049000	3.1605363e-05
52	0x38d5e874	0.00010199929
53	0x384ae816	4.83767e-05
54	0x35d88204	1.6131094e-06
55	0x3694e2de	4.4371545e-06
56	0xb3488d20	-4.669448e-08
57	0x36056346	1.987633e-06
58	0x35bf111e	1.4235591e-06
59	0xba28ceae	-0.0006439489
60	0x36d4e110	6.344293e-06
61	0xba18604c	-0.0005812689
62	0x36c61cad	5.904198e-06
63	0x3579c87c	9.305147e-07
64	0x34a4c65e	3.0691712e-07
65	0x35ff3970	1.9015697e-06
66	0x3695770d	4.4544054e-06
67	0x392359bc	0.0001557832
68	0x37c5e4d7	2.3590792e-05
69	0x3593b046	1.1003656e-06
70	0x360d29ba	2.1034925e-06
71	0x3646e8e8	2.9639868e-06
72	0x38f3c0d0	0.00011623057
73	0x35946ef5	1.1059152e-06
74	0x3809d110	3.285805e-05
75	0xb66fe462	-3.5746712e-06
76	0x37050e4c	7.9307465e-06
77	0x3777b64b	1.4764791e-05
78	0x36d29dd8	6.276863e-06
79	0x379b67c5	1.8525761e-05
80	0x37d01513	2.4805346e-05
81	0x382221c7	3.8655267e-05
82	0x38e44256	0.00010884243
83	0xb77e658a	-1.5163221e-05
84	0x3557a6f0	8.033667e-07
85	0x356803e2	8.6432385e-07
86	0x35e3c063	1.696881e-06
87	0x34089ca4	1.2722973e-07
88	0x3504595f	4.9303884e-07
89	0xb7922000	-1.7419457e-05
90	0x356a7616	8.734363e-07
91	0x35eae55b	1.750111e-06
92	0x374e0665	1.2280046e-05
93	0x359af920	1.1546399e-06
94	0xb5dc2752	-1.6402721e-06
95	0xb7cc9def	-2.4392239e-05
96	0xb97b4b1f	-0.0002396521
97	0x376ed67a	1.4235842e-05
98	0x38ddd948	0.00010578573
99	0x3620bd40	2.3952016e-06
100	0x36ee85ee	7.108544e-06
101	0xbaa44ae9	-0.0012534532
102	0x3921a7d8	0.00015416683
103	0x3699c2d7	4.5824377e-06
104	0x37837add	1.567363e-05
105	0x39494700	0.00019195303
106	0x37eff56c	2.8605304e-05
107	0x39302ef6	0.00016802162
108	0xb4c32048	-3.6345068e-07
109	0x361ce2dd	2.3377863e-06
110	0x365ace7c	3.260472e-06
111	0x369c2b25	4.654185e-06
112	0x388c7ca6	6.698938e-05
113	0xba6babe6	-0.00089901534
114	0x37ea7cf7	2.7953165e-05
115	0x38d297b2	0.00010041836
116	0x35b2dbe9	1.3326036e-06
117	0x370e6a3a	8.488592e-06
118	0x37695546	1.39077365e-05
119	0x3834ea1b	4.3133372e-05
120	0xb9c90353	-0.00038340184
121	0x35cd0f2d	1.5278107e-06
122	0x3683acfd	3.9242427e-06
123	0x380624f3	3.19825e-05
124	0x35a19a8b	1.2040413e-06
125	0x386bcf36	5.6221346e-05
126	0xb7f8aca3	-2.9644294e-05
127	0x3922ce52	0.00015526384
128	0xb6635fbf	-3.3881367e-06
129	0x389ea637	7.564987e-05
130	0xb69947f3	-4.5681313e-06
131	0xb8e03e4f	-0.00010692758
132	0x3957130d	0.00020511095
133	0x381d8988	3.7559803e-05
134	0x3543a61f	7.28849e-07
135	0xbada26ee	-0.0016643682
136	0x3695dd4e	4.4663093e-06
137	0xb530d8f6	-6.588083e-07
138	0xb7e53756	-2.7324695e-05
139	0x3746299c	1.1811408e-05
140	0x395d5917	0.00021109391
141	0x3632a074	2.6617463e-06
142	0x383e2007	4.5329358e-05
143	0x36e3e5d3	6.7918822e-06
144	0x3651f454	3.1285645e-06
145	0x368041d3	3.82236e-06
146	0xbabb46e7	-0.0014288098
147	0xb6bc8bf2	-5.6191284e-06
148	0x37fc848c	3.0102463e-05
149	0x365084b6	3.1071663e-06
150	0xb5d8a755	-1.6141954e-06
151	0xb3905d94	-6.722544e-08
152	0xba2c0236	-0.0006561609
153	0x36307092	2.6291568e-06
154	0x371c0895	9.300323e-06
155	0x378417ca	1.5746704e-05
156	0x38533c68	5.0362578e-05
157	0xb4560020	-1.9930349e-07
158	0xb829bcaa	-4.0468447e-05
159	0x37ab3b01	2.0412264e-05
160	0x36f2bf50	7.2344337e-06
161	0x372b1f42	1.0199672e-05
162	0xb971f151	-0.00023073448
163	0xba4511f6	-0.000751763
164	0x36d79da8	6.425853e-06
165	0x3583abf8	9.81031e-07
166	0x365e7574	3.3148945e-06
167	0x374ed90d	1.2329093e-05
168	0x38c0b521	9.189011e-05
169	0xb368fe00	-5.424772e-08
170	0x363b017d	2.7866038e-06
171	0x370c581d	8.365166e-06
172	0xb86df825	-5.6736306e-05
173	0x36bee112	5.688643e-06
174	0x3934e976	0.00017253109
175	0xb7a7cbf5	-2.0002926e-05
176	0x372268c2	9.680343e-06
177	0x3609b922	2.0522352e-06
178	0x38d526d1	0.000101638616
179	0x365908ea	3.2340708e-06
180	0x3814d910	3.5488105e-05
181	0x363902d4	2.7568794e-06
182	0x368b870c	4.1582443e-06
183	0xb869f2fe	-5.5777833e-05
184	0x36cd0d91	6.1110554e-06
185	0xb8204832	-3.821421e-05
186	0x368ed134	4.2562842e-06
187	0xb691fe53	-4.350944e-06
188	0xb7b6ba4c	-2.1782842e-05
189	0x35ea5c2d	1.7461185e-06
190	0x36a176d4	4.8120073e-06
191	0x376a1bb6	1.3953939e-05
192	0x365c0e7a	3.279098e-06
193	0x36888fc1	4.069851e-06
194	0x366a6dd4	3.4932646e-06
195	0x37aedc92	2.0845127e-05
196	0x3681a769	3.8639887e-06
197	0xb4194184	-1.427307e-07
198	0xba859f2f	-0.0010194535
199	0x3604873a	1.9748245e-06
200	0x37cbb478	2.4283523e-05
201	0x387adad4	5.9808444e-05
202	0x3490a2a0	2.6940415e-07
203	0x3751446f	1.2473304e-05
204	0xaf989200	-2.7752378e-10
205	0x384cd3f9	4.8834805e-05
206	0x3601a0bf	1.9316064e-06
207	0x3659c69a	3.245112e-06
208	0xb839fcac	-4.4342756e-05
209	0x368b01bc	4.1427247e-06
210	0x38c525ce	9.400734e-05
211	0x38667b05	5.4950844e-05
212	0x3817b252	3.616728e-05
213	0x36d00731	6.1997202e-06
214	0xb524e73c	-6.143125e-07
215	0xb6f6a0f2	-7.350108e-06
216	0x39317ab6	0.00016925749
217	0x358c6a89	1.0461819e-06
218	0x3615720b	2.2269112e-06
219	0x36bb7e2a	5.5877217e-06
220	0x390e5a40	0.00013575796
221	0x38241fa5	3.913012e-05
222	0x368baacc	4.162406e-06
223	0x37798b2b	1.4873959e-05
224	0x36261ba6	2.475202e-06
225	0xb6d7e26b	-6.433858e-06
226	0xb814f137	-3.55106e-05
227	0x38ab8982	8.179528e-05
228	0xbb410572	-0.0029452709
229	0x385d1353	5.2708503e-05
230	0xb9b73f42	-0.0003495161
231	0x361dc2de	2.350825e-06
232	0x366b368a	3.5049475e-06
233	0x36ef03ef	7.123213e-06
234	0xb811d946	-3.4773046e-05
235	0x39150ae7	0.00014213809
236	0x371daa83	9.39763e-06
237	0x3691c9c2	4.3448244e-06
238	0x365f86ba	3.330801e-06
239	0xb70e6052	-8.486286e-06
240	0xb789ed2d	-1.6442116e-05
241	0x3696baa3	4.4920757e-06
242	0x35903537	1.0744324e-06
243	0x380ee0aa	3.4064673e-05
244	0xb9b63dd8	-0.00034759822
245	0x36579b79	3.2127994e-06
246	0x36fc6b18	7.5226526e-06
247	0xba81eb67	-0.0009912074
248	0x371c748a	9.325458e-06
249	0x34a6f398	3.1097147e-07
250	0x3734d159	1.0777579e-05
251	0xb3ac978c	-8.0369404e-08
252	0xb9179c9b	-0.00014458822
253	0xbae0ba3e	-0.0017145348
254	0x36b56ae9	5.4066663e-06
255	0xb52641f4	-6.1935793e-07

fc3.bias f4 [128]
0	0xba4abe6b	-0.0007734063
1	0x3de16e3b	0.11007353
2	0xbb5bb214	-0.003352289
3	0x3e1d3750	0.15353131
4	0x3e467dc2	0.1938391
5	0xbacabb6b	-0.0015467232
6	0xb8669ef6	-5.4984317e-05
7	0x3e2b5bc5	0.16734226
8	0xbbfe7769	-0.0077656996
9	0x3e64b7d5	0.22335751
10	0x34f8fea6	4.637888e-07
11	0xb9474d09	-0.00019006817
12	0xb833efd6	-4.290029e-05
13	0xba0f4641	-0.0005465486
14	0xbaa4dad0	-0.0012577418
15	0xb5d38109	-1.5758279e-06
16	0xba5c8927	-0.0008412771
17	0xba8c1b77	-0.0010689338
18	0xb54ba6f6	-7.5866353e-07
19	0xbb474d28	-0.003041098
20	0xb9c0239f	-0.00036647634
21	0x3f0d5f39	0.55223423
22	0xbae7e0d8	-0.001769091
23	0x3e9a3116	0.30115575
24	0xb8b4cc3c	-8.6211105e-05
25	0xbe71231c	-0.2354855
26	0x3ae9ea69	0.0017846349
27	0x3ea2e15d	0.31812564
28	0x3f2b7b67	0.6698517
29	0xbc9f875b	-0.019473722
30	0xb2a118f9	-1.8754223e-08
31	0x3f0e4fc3	0.55590457
32	0xb987a5b8	-0.00025872677
33	0xba80473c	-0.0009786854
34	0xbaa2eafd	-0.0012429651
35	0x326c81a9	1.3766489e-08
36	0xbbc4631a	-0.005993259
37	0xba85d1ed	-0.0010209657
38	0x37b44ad1	2.1492511e-05
39	0xba71d5b1	-0.0009225263
40	0xbc022512	-0.007943409
41	0xb98403de	-0.00025179883
42	0x3f166e0f	0.58761686
43	0xb8929ed3	-6.991406e-05
44	0x3c7971da	0.015224898
45	0x3df59849	0.11991937
46	0xb211a4d3	-8.4775875e-09
47	0x3e9b3fc1	0.30322078
48	0x3f0161c4	0.50539804
49	0x31c5007c	5.7335097e-09
50	0x3e096192	0.13416126
51	0xbb0768c0	-0.00206618
52	0x3c56487a	0.013078803
53	0x3e23cbd2	0.1599572
54	0x3e8cebe7	0.2752373
55	0xba5792b3	-0.0008223459
56	0xbb63408f	-0.003467593
57	0x3e0220d0	0.1270783
58	0x3e97acaf	0.29623935
59	0xbbfad0b7	-0.0076542753
60	0x3bf56634	0.00748899
61	0xbbaf4afc	-0.005349515
62	0xbc254717	-0.01008775
63	0x3630d841	2.635192e-06
64	0xb64a5ecc	-3.0155525e-06
65	0x3de86e9a	0.113492206
66	0xb716d7fb	-8.990984e-06
67	0x3e8a55b5	0.27018514
68	0xbb7b7761	-0.0038370716
69	0xb7950eaf	-1.7769022e-05
70	0xbe66393f	-0.22482775
71	0xb712afb7	-8.74319e-06
72	0xba0fb169	-0.0005481453
73	0x2f616219	2.0498482e-10
74	0xb87b5e94	-5.9931146e-05
75	0xbcc91548	-0.02454628
76	0x3b0955a2	0.0020955582
77	0x3ea03093	0.3128706
78	0x3dc10e27	0.094265275
79	0xbb39f0ec	-0.002837236
80	0xbaa3a275	-0.0012484329
81	0xbbb527d4	-0.0055284295
82	0xb8b10cc5	-8.442396e-05
83	0xbbc49258	-0.005998891
84	0xba5f89b1	-0.00085272925
85	0x3eb05955	0.34443155
86	0xbbbacf2b	-0.005700966
87	0xbb75ddbf	-0.0037516204
88	0xb7ecc845	-2.822665e-05
89	0xbb099deb	-0.0020998667
90	0x3e0875e9	0.13326229
91	0xba94ceff	-0.0011353194
92	0xbb851f6a	-0.0040625827
93	0xba5ec4cc	-0.0008497953
94	0xbae9fa26	-0.0017851039
95	0xbaae48a0	-0.001329679
96	0xbc293498	-0.010327481
97	0xbc502a82	-0.012705447
98	0xbc04324b	-0.008068631
99	0xb872f96a	-5.792958e-05
100	0xb91877ad	-0.00014540432
101	0xbc1c8a3a	-0.00955444
102	0x3d200053	0.03906281
103	0x3eb5b8ee	0.35492653
104	0x3e8f47a6	0.2798435
105	0xbb08cae7	-0.0020872892
106	0x3f2c660c	0.6734321
107	0xba53fed7	-0.00080869853
108	0x29c16c12	8.589669e-14
109	0xbb0ed378	-0.0021793526
110	0xbb4b559e	-0.0031026374
111	0xbba5d79c	-0.005061103
112	0x354b446f	7.5722977e-07
113	0xbb097f53	-0.0020980432
114	0x354da63d	7.661036e-07
115	0xba410f47	-0.0007364642
116	0x371433ce	8.833549e-06
117	0x3f68feab	0.9101359
118	0x3d8f8acd	0.07008896
119	0xbc080f73	-0.008304465
120	0x38ab4e4b	8.1684986e-05
121	0xbbfec82c	-0.007775327
122	0x3e2a9aa5	0.16660555
123	0xbbcea23c	-0.006305961
124	0xbbff2f71	-0.007787638
125	0x35fe599a	1.8950552e-06
126	0x3dc54493	0.0963222
127	0xb91fb354	-0.00015230227

fc4.weight f4 [1, 128]
0	0xb97f8488	-0.00024368067
1	0xbf84344b	-1.0328459
2	0x3987c4cf	0.0002589584
3	0xbf7b680b	-0.9820563
4	0xbe88a322	-0.2668696
5	0x3862a930	5.4040167e-05
6	0x379f78e6	1.9010575e-05
7	0xbf0ecb7a	-0.5577923
8	0x3b0d8426	0.002159366
9	0xbef861a0	-0.48511982
10	0x2f4a8900	1.8420465e-10
11	0xb88d18fd	-6.728058e-05
12	0x3900ff14	0.00012302055
13	0xbae524cd	-0.0017482281
14	0xbb938f2d	-0.004503152
15	0xb6951480	-4.4429325e-06
16	0x3b189921	0.0023284631
17	0xbb178189	-0.002311798
18	0xb710b810	-8.625924e-06
19	0x3b2e74fa	0.0026620016
20	0x34285828	1.567829e-07
21	0xbed220bf	-0.41040608
22	0xbbfddcf9	-0.0077472893
23	0xbf28973e	-0.6585578
24	0x398c9601	0.00026814642
25	0x3eee9986	0.46601504
26	0xbeae877f	-0.3408775
27	0xbf933773	-1.1501297
28	0xbfac951b	-1.3483003
29	0xbe673001	-0.22576906
30	0x333037df	4.1029008e-08
31	0xbf30cd66	-0.69063413
32	0x3c02989e	0.007970957
33	0xb847fedf	-4.7682664e-05
34	0x3b478664	0.0030445093
35	0x3080c0d6	9.368033e-10
36	0xb9e7f7b1	-0.00044244298
37	0xbb19fbe2	-0.002349608
38	0x372a6076	1.0155249e-05
39	0x36d7eac2	6.4348287e-06
40	0x3c48e51b	0.012261654
41	0x3a9d5cc1	0.0012005792
42	0xbf4d7365	-0.80254203
43	0x38545b50	5.062978e-05
44	0xbed1b577	-0.4095876
45	0x3f473a1a	0.7782303
46	0xb207182c	-7.86353e-09
47	0xbf89627e	-1.0733182
48	0xbecaba00	-0.39595032
49	0xb1432a7c	-2.8400384e-09
50	0xbf81a935	-1.0129763
51	0x363bf4a0	2.8007562e-06
52	0x3efe4913	0.49665126
53	0xbec6c180	-0.38819504
54	0xbf075640	-0.5286598
55	0x39ce47a7	0.00039344767
56	0xb93d31ee	-0.00018043045
57	0xbf764f58	-0.9621482
58	0xbf38e1a2	-0.7221929
59	0x3bde00f9	0.0067750183
60	0xbee65ff9	-0.44995096
61	0x3c20b2f5	0.009808292
62	0x3b8f30b4	0.0043698195
63	0xb5dc6950	-1.6421927e-06
64	0xb6229bf7	-2.4230665e-06
65	0xbf759bc2	-0.9594079
66	0x38749612	5.8313897e-05
67	0xbf01d786	-0.5071949
68	0xbb57b1ea	-0.0032912442
69	0xb85be690	-5.2428397e-05
70	0x3ed75892	0.4205976
71	0xb915502a	-0.00014239611
72	0xba1ffd53	-0.0006103117
73	0xae211872	-3.6628874e-11
74	0x39e73657	0.0004410024
75	0xbed24ade	-0.41072744
76	0xbc86550b	-0.016397974
77	0xbf04555d	-0.51692754
78	0x3f583752	0.8445941
79	0xba8af13c	-0.0010600458
80	0xbb740aed	-0.0037237958
81	0xbb938eba	-0.0045030983
82	0x377fd87b	1.5249588e-05
83	0xbc3364a9	-0.010949292
84	0xbb05a2a6	-0.0020391135
85	0xbe354df3	-0.17705517
86	0xbecf530b	-0.40493044
87	0x3b9658ef	0.0045882384
88	0xb8b3ca76	-8.5730964e-05
89	0x3a0cef80	0.00053762645
90	0x3f68d270	0.909461
91	0x3aa8b584	0.0012871479
92	0xbbd7c412	-0.0065846527
93	0xbb5f076b	-0.003403152
94	0xbbe8a7b0	-0.007100068
95	0x3ad6cfdd	0.0016388852
96	0xbc498c79	-0.012301558
97	0xbe87d7d3	-0.26531848
98	0x3c2653a2	0.010151776
99	0x37a6dbff	1.9891186e-05
100	0x363ef165	2.8452716e-06
101	0x3c3ac5b1	0.011399672
102	0x3fb3a11b	1.403354
103	0xbfa1ad7c	-1.2631068
104	0xbf7f5b2a	-0.9974848
105	0x3a1a9a72	0.0005897648
106	0xbfa6342d	-1.2984673
107	0xb83952d6	-4.4184584e-05
108	0xa89937f3	-1.7010676e-14
109	0xbb891a80	-0.0041840672
110	0x3c829da2	0.015944306
111	0x3b38e889	0.0028214774
112	0xb5e09f83	-1.6735725e-06
113	0xb9926f63	-0.0002793028
114	0x3597a621	1.1298727e-06
115	0xbb12949d	-0.0022366412
116	0x36dfa3dc	6.6649936e-06
117	0xbfcd6920	-1.6047707
118	0xbf0a16cb	-0.5394103
119	0x3c4ab138	0.012371354
120	0xb8f91456	-0.00011877033
121	0x3c45f860	0.012083143
122	0xbf22187e	-0.6331862
123	0x3bc94ec3	0.0061434223
124	0x3fcac19e	1.5840337
125	0xb772b8f4	-1.4467387e-05
126	0x3f4d57aa	0.8021189
127	0xb81e5597	-3.7749847e-05
