ddpg-bipedal/checkpoint_actor.pth (torch, 31135 bytes, 4 tensors)

fc1.weight f4 [256, 24]
000000 90 22 f0 bc 48 f9 52 bc 56 05 60 3d 50 22 08 bc
       -0.029313356 -0.012876816 0.05469259 -0.008308962
000010 92 89 13 3d 18 6c b1 bc f8 56 d9 3c 10 a6 ef 3c
       0.03601987 -0.021657988 0.026530728 0.02925399
000020 4a 61 7a bd 6c f2 3a bd 52 3c 40 bd 10 29 fe 3c
       -0.06112794 -0.045641348 -0.046932526 0.03102544
000030 b0 fb cf bb b6 90 60 bd 40 7d eb 3c 9c 2d 16 bd
       -0.006347142 -0.054825507 0.028746247 -0.03666459
000040 86 a0 2b 3d 5c ea e6 3c 40 e3 dd 3a 36 ac 7a 3d
       0.041901134 0.028187923 0.0016928688 0.06119939
000050 f2 e3 36 bd 00 3b b7 bc 80 1e 8f 3a 40 16 7f 3b
       -0.04465098 -0.022367 0.0010919124 0.0038923174
000060 1b 92 57 3d 2e 07 a7 3c 7b 1c 03 bd 65 c6 76 3d
       0.05262957 0.020389166 -0.032009583 0.060247798
000070 1a 10 88 bc f5 60 16 bd 9e 32 57 3d 2b 37 9b 3c
       -0.01660924 -0.03671356 0.052538507 0.018947205
000080 55 62 15 3c c5 43 42 3d 64 2b 5a 3c bb 8a d5 bb
       0.009117682 0.04742791 0.013316009 -0.006516782
000090 4f b7 73 bb 2c 9e 79 bd 35 4d 85 bd 41 b9 40 bd
       -0.0037188118 -0.06094186 -0.06508867 -0.047051672
0000a0 dc 90 39 bd dc 85 22 bd d3 7d 2b 3d 8a e9 7f 3c
       -0.045304164 -0.03967844 0.041868042 0.015619645
0000b0 3e 24 14 3d 37 d4 ea bc c3 7e 24 3d 63 a3 09 bd
       0.036167376 -0.028665645 0.040159952 -0.033603083
0000c0 92 9c 98 3d b6 02 86 3e d0 8a b2 be 60 45 7a be
       0.074517384 0.26173943 -0.3487153 -0.24440527
0000d0 54 27 a2 3c 9a 31 0b 3e 9e f3 75 3c 01 2a ba 3d
       0.019794144 0.1359314 0.015011696 0.09090043
0000e0 f0 d9 3d 3e 4d bd 5b 3e cc 4a 52 be bf 21 2e bd
       0.18540168 0.21458931 -0.20536345 -0.04251265
0000f0 89 34 b0 3d 0d 72 8f 3d 3e 03 29 3e a1 4e 23 3e
       0.0860377 0.07004175 0.16505143 0.15947963
000100 6d 46 88 3e 0d 1f 7a 3e 25 18 49 3e 4c e4 63 3e
       0.2661623 0.24425907 0.19638117 0.22255057
000110 a9 c1 86 3e 5c f8 43 3e 23 8d 18 3e 3c c8 0c 3e
       0.26319626 0.1913771 0.1489759 0.13748258
000120 ce a1 56 be 85 ed 00 bf a4 86 1b 3f d6 cc 79 bd
       -0.20960161 -0.50362426 0.6075232 -0.060986362
000130 10 db 0d be d6 9c 44 bd 29 62 99 bc eb c4 74 3c
       -0.13853097 -0.048001133 -0.018723564 0.014939527
000140 43 6d 01 3e 8a cf 5c be b5 72 bd 3d 9d ed 01 be
       0.12639336 -0.21563545 0.09250394 -0.12688299
000150 e3 42 40 bd 0c b2 91 3e a8 06 d1 bb ce d6 a9 3c
       -0.04693879 0.2845615 -0.0063789673 0.02073231
000160 fd 3f 55 3d 6a 4b fe 3b 86 9b 79 3d e4 51 28 bc
       0.052062977 0.007760455 0.060939334 -0.0102734305
000170 02 00 78 bc a9 a4 53 bc 85 3f 6c 3e 92 62 1f 3e
       -0.015136721 -0.012917676 0.23071106 0.15564945
000180 33 8d 0e bf 6f 51 85 bf ee 45 3d 3f 1d 41 0c bf
       -0.556842 -1.0415477 0.7393483 -0.54786855
000190 9f 56 f4 be 53 bb 29 bb a5 d3 cd be ee 20 cc bd
       -0.47722337 -0.0025899007 -0.40200534 -0.09967218
0001a0 fa b1 78 3d 92 b7 b4 be 80 8b f8 bd 4a 9f c7 bd
       0.060716607 -0.35296303 -0.121359825 -0.09747179
0001b0 a4 ba bf be 92 40 4e be 68 e6 f7 bd ab d5 2b be
       -0.37447083 -0.20141819 -0.121044934 -0.16780727
0001c0 61 a9 a0 bd 51 c2 15 be 29 4f 94 bd e7 1f c3 bd
       -0.078448065 -0.14624907 -0.07241661 -0.09527569
0001d0 cf 00 c6 bd 14 a2 f6 bd a0 b1 65 3d 75 06 3f 3e
       -0.09668123 -0.12042633 0.0560776 0.18654807
0001e0 a0 3e 54 bb 90 25 9c bc 26 32 64 bd a4 a1 74 3d
       -0.003238596 -0.01906088 -0.055711888 0.059724465
0001f0 88 6f 1d 3d 38 94 ca bc 38 58 4c bc 7a 53 76 bd
       0.038436443 -0.02472888 -0.012472205 -0.060138203
000200 e0 7b f2 bc 34 1d fc bc 38 d4 a3 bc 32 f2 2e 3d
       -0.029600084 -0.030775644 -0.019998655 0.042711444
000210 34 9f 2a bd 30 93 30 3d e0 4a 53 bc 7a 9b 17 bd
       -0.041655734 0.04310912 -0.01289627 -0.03701351
000220 f4 dd 46 bd 1a 06 21 bd e4 61 85 bc 18 9e 6a bd
       -0.048551515 -0.03931246 -0.01628203 -0.057279676
000230 72 08 6e 3d 50 1a 66 3d a2 ad 2d bd 36 3f 11 bd
       0.058113523 0.056177437 -0.042401917 -0.035460673
000240 99 32 1a 3f d6 db 5e 3f e6 49 af bf 4f 56 6e 3f
       0.60233456 0.87054193 -1.3694427 0.93100446
000250 71 86 49 3e c6 ae 95 be 3e 2d 95 3e ff 1d 3b 3d
       0.19680192 -0.29234904 0.2913608 0.045682903
000260 9e e0 8a be 53 f9 dc bc 70 c2 e2 3e f2 71 8e 3e
       -0.27124494 -0.026974356 0.4428897 0.27821308
000270 ea 7d 35 3e 1a 45 e7 bb 07 2a 28 3d da bd c7 bc
       0.17723814 -0.007057798 0.041055705 -0.02438252
000280 a0 f4 22 3d ec ce 7b bc 09 ef 5f bd 7c 7d 95 bc
       0.039784074 -0.015369158 -0.05467132 -0.018248312
000290 4b d2 73 3d 6c f7 c0 3c 1f 69 05 3e 6a a0 11 be
       0.059526723 0.02355548 0.13028382 -0.1422135
0002a0 03 9d ae 3d f5 92 43 3e 80 54 9a be d7 04 aa be
       0.08526041 0.19099028 -0.30142593 -0.33206818
0002b0 5e 4e 60 bd 22 76 5b 3e 7c 33 f8 3d 88 f4 ff 3d
       -0.054762237 0.21431783 0.12119195 0.124978125
0002c0 d9 ea 46 3e 73 41 8c 3e 06 fb 25 be a1 91 b8 bd
       0.19425525 0.27393684 -0.16209039 -0.090121515
0002d0 f6 9b c7 3d db f0 08 3e a6 0e 5d 3e d5 23 99 3e
       0.09746544 0.13373129 0.21587619 0.2991015
0002e0 79 94 8b 3e d2 84 69 3e e5 04 88 3e d5 d7 5f 3e
       0.27261713 0.22804573 0.26566234 0.21859677
0002f0 ce 01 85 3e 82 67 7a 3e 43 a4 22 3e 16 eb cc 3d
       0.2597794 0.24453548 0.15882973 0.100057766
000300 c6 c5 15 3e 10 db ab be 7f 33 31 bf 12 f4 8c 3e
       0.14626226 -0.3356557 -0.692192 0.2752996
000310 a4 e0 f5 3e 85 ba 09 3f 2e f6 98 3e 89 27 70 be
       0.4802295 0.5380023 0.2987532 -0.23452581
000320 3b 9e cb be 16 91 c0 3c e5 25 c1 3e ac e0 a2 3d
       -0.39769158 0.023506682 0.37724224 0.07953009
000330 7c 57 25 3d 43 be 0c bf 07 3b 02 bd a3 49 67 3d
       0.040366635 -0.54977816 -0.031794574 0.05646671
000340 bd ad 57 bd 58 73 3f bc 13 18 50 bd 55 b8 5d bd
       -0.052655924 -0.011685215 -0.05080421 -0.05413087
000350 41 dd b5 bb d0 4a 6f 3d b6 5b 07 3e df 7e 0e bd
       -0.005550057 0.058420956 0.13218579 -0.034788962
000360 47 3d 3f be 8a 80 82 3e 8d a1 77 be a3 16 c3 be
       -0.18675719 0.25488693 -0.2418272 -0.38103208
000370 ba 0b a8 be a1 45 86 3f 12 ae 65 be a6 d4 b9 3e
       -0.32821447 1.0489999 -0.22429684 0.3629505
000380 a8 bf 09 3f 55 69 24 3e ed 55 d9 3f 81 19 41 bf
       0.5380807 0.16055806 1.6979347 -0.7542954
000390 ec 5e ad bf 92 cd 81 be d9 4c bf 3b 9b 60 6d bc
       -1.3544593 -0.2535215 0.0058380184 -0.014488365
0003a0 12 77 4e 3c 9a 11 8d 3d a8 27 29 3d 5b ef 86 3d
       0.012601631 0.06888123 0.041297585 0.06588622
0003b0 31 14 07 3c b2 26 c3 3d 5a de 99 bb 5c 89 8b 3e
       0.00824456 0.09528865 -0.004695696 0.27253234
0003c0 3e 6e 12 be 54 57 f8 be 68 e3 fd 3e f9 fa 68 3d
       -0.14299867 -0.48504126 0.4958756 0.05687997
0003d0 28 42 5c bd 72 25 d3 bd 5b e2 6f bc 02 ae 09 bd
       -0.05377403 -0.103098765 -0.01464137 -0.033613212
0003e0 b1 3d 19 3e 4a 42 0c be ba b9 10 3e 1c b8 d5 bc
       0.1496494 -0.13697162 0.14133349 -0.026088767
0003f0 ef 56 c0 ba 46 0e 81 3e 34 d0 01 bc 77 cf 6e 3d
       -0.0014674346 0.25206202 -0.007923175 0.058303323

fc1.bias f4 [256]
000000 0d 48 43 be 2c 00 f7 bd 0a 70 be 3e 01 f0 2e bd
       -0.19070454 -0.1206058 0.37194854 -0.042709354
000010 22 f8 33 3e 42 89 2c be 7b 99 c4 be 2a 98 38 3e
       0.17575124 -0.16849235 -0.38398346 0.18026796
000020 2b 58 f1 bd d3 ad 8c 3e fd 7a 0a be b6 b1 0a bf
       -0.11784395 0.27476367 -0.13523479 -0.54177415
000030 62 1a 76 3e 25 c4 0a bd c0 cf 9a 3e f5 67 ba be
       0.24033502 -0.033878464 0.30236626 -0.36407438
000040 75 03 e6 bd f9 ea cc 3d f7 f6 a0 bd b3 01 05 3e
       -0.11231128 0.10005755 -0.07859605 0.1298893
000050 1b 35 9a 3e 4c ec b2 be f2 e8 ae 3e 8d 87 d5 3e
       0.3011864 -0.34945905 0.34162098 0.4170498
000060 ea 12 83 be c1 a8 8c 3e 0f be ab 3e ef 12 69 3e
       -0.25600368 0.274725 0.3354344 0.22761129
000070 43 13 21 bc f6 a2 93 be 86 14 18 be 21 ea c0 3e
       -0.0098312525 -0.28835267 -0.14851579 0.37678626
000080 39 61 d9 3e 98 1a 8e be 36 55 b9 3e 67 8c 45 3e
       0.42456988 -0.27754664 0.36197823 0.1929184
000090 73 f9 1a bd ac f7 7d 3e d0 24 c3 3b f6 63 30 be
       -0.03783555 0.2480151 0.005955316 -0.17225632
0000a0 49 76 d7 bb 27 de b1 bd 1d c3 e0 3e 16 b4 b6 bc
       -0.00657538 -0.0868495 0.4389886 -0.022302669
0000b0 05 b4 6b bd 6e 2d d6 be 09 cd f7 bc 18 bf 5a 3e
       -0.057544727 -0.41831535 -0.030249136 0.21361959
0000c0 a1 d1 cf be fe b6 47 3e 31 f3 6d bc 9c 1a 13 bf
       -0.40589622 0.195034 -0.014523313 -0.5746248
0000d0 d5 0d f7 3c 5c 3e 60 be b8 13 1c be 84 c9 12 be
       0.030157963 -0.21898788 -0.15241897 -0.14334685
0000e0 08 36 c9 bd 83 fb 0f be 5a e3 d1 bd 7d 62 cf 3e
       -0.09824759 -0.14060788 -0.10248442 0.40504828
0000f0 ea 98 ef 3d 53 3a 0a 3e 03 cd ad 3e cc 26 8b bd
       0.11699088 0.13498811 0.33945474 -0.06794509
000100 fb 09 3a 3e 8d 7f 5f be 15 fe 99 3e bc bb 08 3d
       0.1816787 -0.21826 0.30076662 0.033382162
000110 88 23 5f be 73 c0 4a be 45 29 29 be 7c 8e 4e 3e
       -0.21790898 -0.19799976 -0.1651965 0.20171541
000120 cb c3 6c 3e 2b 3a c4 3e 81 de 66 bc da 06 bb 3d
       0.23121564 0.3832563 -0.014091135 0.09132166
000130 c4 11 90 3d e5 af d5 be 9c cb 47 be 84 a7 cf 3e
       0.070346385 -0.4173576 -0.19511265 0.40557492
000140 0d 2c 7a 3e 17 8b 10 be 70 4c cc 3d df a5 3d be
       0.24430867 -0.14115559 0.09975517 -0.18520306
000150 89 43 fb bd 67 96 e4 3d 70 91 a3 bd e5 43 ff bc
       -0.12268741 0.111614995 -0.079867244 -0.031160304
000160 ba f4 1e 3e 90 9c 95 3e e5 33 dc bd f1 f9 5e be
       0.15523043 0.2922101 -0.107520856 -0.21775033
000170 db 07 e6 3c 13 bc 05 3e 9b f9 a7 be c6 60 06 3e
       0.028079918 0.13060026 -0.3280762 0.13122854
000180 51 71 7b 3e 3a 95 4d be 87 2a 77 be 2d ec 12 be
       0.24554946 -0.20076457 -0.24137317 -0.14347906
000190 4b 8d 02 3d f1 2d 95 3e 11 19 64 3e 2b 6f 53 3e
       0.03187303 0.29136613 0.22275187 0.20647876
0001a0 90 66 e1 be d9 1e 85 3e c5 57 a7 3e 60 1f 4f 3e
       -0.4402356 0.26000097 0.3268415 0.20226812
0001b0 33 e8 a7 3e 14 1b 14 3e 23 4b 11 3e 5a 02 1c be
       0.3279434 0.14463454 0.14188819 -0.15235272
0001c0 94 cc 4a be 6c 54 f7 3d 63 70 99 be e8 ee 39 3e
       -0.19804603 0.12076649 -0.29968557 0.18157542
0001d0 d1 07 48 be 24 a4 d8 3e 99 cc da 3d f9 43 a2 3d
       -0.19534232 0.4231273 0.10683555 0.07923121
0001e0 94 29 70 bd cf f8 54 3e 8b 88 9a 3e 1b 08 f7 bd
       -0.058633402 0.20798038 0.301823 -0.12062093
0001f0 7f 71 17 be d9 5e 18 3c 2a a9 c2 bd 32 ab d4 3e
       -0.14789389 0.009299957 -0.09504922 0.41536862
000200 9a 1a c9 3e a6 a0 d8 3e 68 5c 7b 3e bb 1b a5 3e
       0.39278108 0.42310065 0.24546969 0.3224772
000210 88 cb a9 be a2 d5 bf be 72 5b 8b be 8f 4b cd 3d
       -0.33163095 -0.37467676 -0.27218205 0.10024177
000220 05 0c d0 3e e9 98 65 3d 9e 58 e7 be 74 dd 93 bd
       0.4063417 0.05605403 -0.45184797 -0.07219973
000230 7a e9 a0 bd e9 ae 93 3e b4 f6 90 bb d4 4d ad bb
       -0.07857032 0.28844383 -0.0044239406 -0.005288819
000240 fe b4 7f 3e a8 ea 68 3e 86 42 0c 3e 31 90 e9 bd
       0.24971387 0.22745764 0.13697252 -0.114044555
000250 c1 c1 8a 3e 9c 71 dd 3e dd a3 6d 3e 62 85 df 3d
       0.27100947 0.4325074 0.2320704 0.10914113
000260 9b 97 b3 bc 96 63 27 be 60 b1 9b 3e 17 96 85 3d
       -0.021922877 -0.16346583 0.30408764 0.06522768
000270 f7 0e 96 be 24 73 fa 3d 36 81 a3 3b a3 ea ac bd
       -0.29308292 0.122289926 0.0049897684 -0.08443191
000280 70 8a 3f be 34 11 61 3e 84 b4 a7 3e 21 b4 9c 3c
       -0.18705153 0.21979219 0.3275491 0.01912886
000290 7f 98 19 be 6b c4 85 3d b8 46 03 3e ff 8a d4 3e
       -0.14999579 0.065316044 0.12819946 0.41512296
0002a0 2b e4 1e 3e 47 a5 8e bd bb fb 2d be d6 06 b6 3b
       0.15516727 -0.06965118 -0.16990559 0.005555014
0002b0 0d 32 86 3e 0d 57 30 be 59 ef 68 3e 3b c0 12 be
       0.2621006 -0.17220707 0.22747554 -0.14331143
0002c0 b1 bf bd 3e c0 19 d4 bd 68 6a c4 3e 35 ab 77 3d
       0.3706031 -0.10356474 0.38362432 0.06046601
0002d0 36 e9 47 3e 36 05 9a 3e 44 eb c8 3e 42 96 47 bd
       0.19522557 0.300821 0.39241993 -0.04872728
0002e0 ee 15 22 be 4a 26 92 bd 8b 7a 85 3e ef 13 6b bd
       -0.15828678 -0.07136209 0.26070055 -0.057392057
0002f0 13 a9 bc 3e d7 fe 92 3d 5b 87 2e 3e 17 99 27 3c
       0.36847743 0.07177513 0.17043822 0.010229371
000300 b5 af a6 be dc c3 76 3e 00 90 ba 3e 2a 40 f8 be
       -0.3255593 0.24098152 0.36437988 -0.48486453
000310 03 03 9d 3e 64 7a e8 be b0 b3 63 3d 63 b1 0a 3e
       0.3066636 -0.45405877 0.055591285 0.1354423
000320 db cc 4f be 8b 81 0f 3e 55 fb 3c 3e d0 34 4a be
       -0.2029299 0.1401426 0.1845525 -0.19746709
000330 e6 51 93 3d c1 c0 65 3e 7b 87 55 3e cd e9 42 be
       0.07193355 0.22436811 0.20852463 -0.190345
000340 31 01 42 be ba 38 9b bd 69 a7 98 bd b6 df 02 3e
       -0.18945767 -0.07579179 -0.07453806 0.12780651
000350 6d a0 a5 3e 5d ae d0 3d 66 b8 35 be a7 c8 03 bf
       0.32348958 0.10189507 -0.17746124 -0.51478046
000360 7b 04 fa 3d 96 79 d3 3d 61 87 0b 3e c4 1b 1f 3e
       0.12207886 0.10325925 0.13625862 0.15537935
000370 62 28 50 be 66 91 71 be 05 e0 3d be 9f fe 26 be
       -0.20327905 -0.23590621 -0.18542488 -0.16308068
000380 03 e8 14 be 99 59 45 3c 85 b8 9d bd bf 6f ef bd
       -0.1454163 0.0120452875 -0.0770121 -0.11691236
000390 9b e4 af bd f6 25 7a be f2 d7 c8 3e 40 9d 39 3d
       -0.08588525 -0.24428543 0.39227253 0.04531598
0003a0 72 f8 1e be 6e 27 ec 3d 00 df 41 be 4d 78 3d be
       -0.15524462 0.11530958 -0.18932724 -0.18502922
0003b0 25 47 9a 3e 10 4e 50 be b6 6f b0 3e 25 b8 8e 3e
       0.30132404 -0.20342278 0.3446023 0.27874866
0003c0 81 43 54 3e 3d 55 1c be 32 d9 70 3d 3b ab 37 be
       0.20728876 -0.15266891 0.058800884 -0.17936413
0003d0 28 57 73 3e a6 b8 67 bd 43 51 0c bd 66 5d ff 3d
       0.23763716 -0.05657258 -0.034257185 0.12468986
0003e0 b5 dd 19 be 5e 26 5c 3d 4d 8d 48 be 58 c8 ca bd
       -0.15025981 0.053747527 -0.19585152 -0.09901494
0003f0 ad 01 72 be 32 ff 70 bd 77 2f 8b 3e b7 9b d8 3d
       -0.23633452 -0.058837123 0.2718465 0.10576575

fc2.weight f4 [4, 256]
000000 72 ab 9c ba f4 74 b1 3a da 74 ad bd d5 7b 0f bf
       -0.001195295 0.0013538883 -0.08469553 -0.5604833
000010 92 02 af bd 3a 18 1d 3b 65 c3 82 bd 4e 6c a2 bd
       -0.08545412 0.002397074 -0.06384925 -0.07930814
000020 2f 22 cc bd 82 cc 08 bd 35 20 f3 be 9a 97 8c bd
       -0.099674575 -0.03339816 -0.4748551 -0.06864853
000030 57 5c c7 3c 4d 98 c3 bc 37 6f b4 bd 76 2a c1 bd
       0.024336023 -0.023876334 -0.08810275 -0.09431927
000040 92 cf b7 bc 6c 16 9a bd 72 3e 33 bb 23 a9 62 bb
       -0.022437844 -0.07523808 -0.0027350453 -0.0034585677
000050 c3 27 b2 bd ab d8 87 be 24 6f bd bd 67 2f 91 bd
       -0.0869899 -0.26532492 -0.09249714 -0.070891194
000060 2b b9 bd 3d 21 e4 8e bd db 69 96 bd 8e 82 14 be
       0.092638336 -0.06977106 -0.07344409 -0.14502928
000070 09 ef fa bd 74 ad b7 bd 28 c2 9e bd 26 cb 74 bd
       -0.122526236 -0.089686304 -0.07751876 -0.05976405
000080 09 32 90 bd 63 ea dd bd fa 55 96 bd 61 3a 3e be
       -0.070407934 -0.10835721 -0.073406175 -0.18576957
000090 fb 7d 3d bd b6 42 51 bc a1 c1 b2 bd 8a 24 dd bd
       -0.046262722 -0.012772253 -0.08728338 -0.10797985
0000a0 ab 2f 93 bd f9 b5 ed bd 31 f2 d1 bd 0c bc e4 bc
       -0.07186826 -0.11606974 -0.102512725 -0.027921699
0000b0 8d c9 b3 bd f0 eb d6 bd 70 9c 8b be d2 e0 2e bc
       -0.08778677 -0.1049422 -0.2726779 -0.0106737185
0000c0 f7 34 b7 bd 35 60 c7 bd 41 fb b3 bd 5b e9 d7 bd
       -0.08945649 -0.09735147 -0.08788157 -0.10542556
0000d0 5d 08 23 be 79 78 cb bd 8c 6f be bd 84 a9 55 ba
       -0.15921159 -0.09935088 -0.0929862 -0.0008150565
0000e0 30 78 af bd b9 71 ff be f1 7d d8 bd 79 95 91 bd
       -0.08567846 -0.4989145 -0.105708964 -0.07108588
0000f0 cc 5f da bd a2 ca ca bd 7a 24 9b bd 32 20 91 bd
       -0.10662803 -0.099019304 -0.07575317 -0.07086219
000100 75 d4 80 bd 41 9c a8 bc 75 17 06 be c1 3f b4 bd
       -0.06290523 -0.02058232 -0.13094886 -0.088012226
000110 22 df a4 3b 65 76 8b bd 2e be fe ba 1b d1 ac bd
       0.0050314823 -0.06809691 -0.001943534 -0.08438321
000120 58 f8 8f bd 1a aa b8 bd 72 11 06 be 18 5c b6 bd
       -0.0702979 -0.09016819 -0.13092592 -0.08904284
000130 8b c8 ba bd 3b 1f b0 bd bb 88 b3 bd 98 7a b4 bd
       -0.09120282 -0.08599707 -0.08766314 -0.088124454
000140 23 80 9c bd 14 47 b1 3d f4 5f fc bd ac f7 91 3a
       -0.07641628 0.08656135 -0.12322989 0.0011136434
000150 20 77 89 bd 6b de bd bd 4c 0e f6 3a 62 3c bf bd
       -0.067121744 -0.092709385 0.0018772571 -0.09337689
000160 45 c7 a6 bd 55 b2 ad bd 7f 7a 5a bd 71 58 74 bd
       -0.081434764 -0.0848128 -0.053339478 -0.059654657
000170 39 f2 be bd 12 12 8b bd 4b 77 55 be e7 df d7 bd
       -0.09323544 -0.06790556 -0.20846288 -0.10540753
000180 0d 90 b3 bd 90 c8 03 3b 02 4b a8 bd b4 65 9b bd
       -0.0876771 0.0020108558 -0.082174316 -0.07587758
000190 99 5e 91 bd 95 b9 cc bd cf 38 61 be d5 bf c4 bd
       -0.07098121 -0.099963345 -0.21994327 -0.096069016
0001a0 f0 84 c8 bd d8 c5 10 bd be 1e 91 bd b4 39 94 bd
       -0.09790981 -0.03534493 -0.07085942 -0.072375685
0001b0 98 41 1e bf 9b 40 14 be cf 49 96 be f8 95 3a 3a
       -0.6181884 -0.1447777 -0.29353186 0.0007117684
0001c0 fe 06 bb ba 1c 91 13 be 01 48 d9 bd be 3d c4 bd
       -0.0014269052 -0.14410824 -0.10609437 -0.09582089
0001d0 f9 b8 c2 ba ec ab a4 bd bb 8d 82 bd 07 a6 0e bc
       -0.0014856152 -0.08040604 -0.06374689 -0.008706576
0001e0 67 5b a4 bd 9f 73 ab bd cc 01 ca bd 90 13 b9 bd
       -0.08025246 -0.08371662 -0.09863624 -0.090369344
0001f0 5b ce f3 bd 7d 43 94 bd 66 c7 de bd 5f 81 9c bd
       -0.119045936 -0.07239435 -0.10877876 -0.07641863
000200 6e 8e 87 bd 36 33 ac bd 86 88 c7 bd 15 2f ab bd
       -0.06618963 -0.08408205 -0.09742837 -0.083585896
000210 06 b0 9d bd 09 67 a9 bd 89 97 eb bd 3b 1e 51 bd
       -0.076995894 -0.082716055 -0.115035124 -0.05105422
000220 2b 04 a8 bd 8e 94 96 bd fa 2a 41 3d 93 72 dd bd
       -0.0820392 -0.07352553 0.047160126 -0.10812869
000230 f7 e6 2f bd 42 3d ba bd 1a c6 ae bd 27 ca cf bd
       -0.042944875 -0.09093715 -0.085338786 -0.101459794
000240 bc 3b ad bd 15 6d 9f bd ac 05 b6 bd 2c 56 90 bd
       -0.08458659 -0.077844776 -0.088878006 -0.07047686
000250 b0 d2 67 be d0 49 b9 bd a6 16 87 bd cf 7e f5 bd
       -0.22638965 -0.09047282 -0.06596117 -0.119870774
000260 ba 33 9d bd 06 9b 3d 3b bb e0 8e bd 68 d8 a2 bd
       -0.07675882 0.0028931512 -0.06976458 -0.079514325
000270 bc f0 b0 3a 91 34 e6 bd d1 d0 0b be ae 7c ba 3c
       0.0013499479 -0.11240495 -0.13653876 0.02276453
000280 b8 7c bf b9 b4 db 98 be 46 98 8c bd 20 84 bc bd
       -0.00036523282 -0.2985512 -0.06864981 -0.09204888
000290 d7 1c bc bd 9a f7 a7 bb e7 e1 42 bd da fa c5 bd
       -0.09185188 -0.005125952 -0.04757872 -0.09666987
0002a0 e9 3c ac bd a0 78 85 bd a8 0d ac bd 02 3d 8c bd
       -0.08410055 -0.06517148 -0.08401042 -0.06847574
0002b0 25 19 10 be 44 97 7a bd 43 db d2 bd 12 3d 01 be
       -0.14072092 -0.061179414 -0.10295727 -0.12620953
0002c0 70 3c c5 bd 6f c3 e8 bd 64 34 a5 bd f9 ef 86 bd
       -0.09630668 -0.11365401 -0.08066633 -0.0658874
0002d0 84 a8 46 be d9 4f 18 bd 22 1f 90 bd d6 67 ad bd
       -0.19400221 -0.037185524 -0.07037188 -0.08467071
0002e0 80 28 56 38 59 eb ac bd 63 45 48 be 54 3e bf bd
       5.1059294e-05 -0.084433265 -0.19557719 -0.0933806
0002f0 8f 60 97 bd a2 df a2 bc c3 0e af bd e8 b6 d9 bb
       -0.07391464 -0.019882027 -0.085477374 -0.0066441186
000300 8f 60 a4 bd d3 42 89 bd 75 d2 82 bd 51 ef bd be
       -0.080262296 -0.06702199 -0.06387798 -0.37096646
000310 79 cd 8e be ac e6 9e bd aa d2 98 bd c1 16 df bd
       -0.27891138 -0.07758841 -0.07462056 -0.10893012
000320 41 48 56 bd f7 ea c1 bd 26 96 8e bd e8 6a 38 3a
       -0.052315 -0.09468644 -0.06962232 0.0007034973
000330 34 8e 9e bd de 51 97 bd 93 fe 96 be 61 9d b0 bd
       -0.07741967 -0.07388662 -0.294911 -0.08623768
000340 a3 ed 98 bd 30 3e c8 bd 9e c5 d9 bd f5 6f d6 bd
       -0.074672006 -0.09777486 -0.106333956 -0.10470573
000350 58 e0 92 bd 17 60 bf bd 4e 0d ba bd f2 70 84 bd
       -0.071716964 -0.093444996 -0.09084569 -0.06466855
000360 a3 e2 9b bd cd d3 98 bd f2 dd e3 bd d3 98 79 bd
       -0.07611587 -0.07462273 -0.11126317 -0.06093676
000370 c1 ca 4f bd 4f d3 9f bd 80 d1 50 b8 e8 19 7e ba
       -0.05073047 -0.07803976 -4.9786177e-05 -0.00096931914
000380 d5 22 b8 bd 0a f3 2c be ca 69 e1 3a 5c aa 95 bd
       -0.08991019 -0.16889587 0.0017197665 -0.07307884
000390 c5 40 b7 bd ed fc 55 bd 3f 16 bf bd 9d 30 ac bd
       -0.08947901 -0.052243162 -0.09330415 -0.0840771
0003a0 f2 17 b2 bd 2b 0f 82 bd 32 b9 2c 3b a8 13 2c bb
       -0.086959735 -0.06350549 0.0026355502 -0.0026256833
0003b0 ff 14 d1 bd fa 89 a5 bd 35 31 8c bd 91 3d 9a bd
       -0.10209083 -0.080829576 -0.06845323 -0.07531274
0003c0 3b 0d 82 bd f5 a9 8b bc fa f6 04 bc 7e 76 99 bd
       -0.0635018 -0.017048815 -0.008115524 -0.07493304
0003d0 8a 90 11 be e0 ed a2 bc 9a 9a 4f bd 5c 2a 9b bd
       -0.14215294 -0.019888818 -0.05068455 -0.07576439
0003e0 53 f2 79 bd 0a 84 d5 bd 09 66 b4 bd 7b 6c d0 bd
       -0.061022114 -0.10425575 -0.08808524 -0.10176941
0003f0 ed 75 2d 3c 27 9b 9d bd b4 8b 06 be 18 89 bd bd
       0.010587198 -0.076956086 -0.1313923 -0.09254664

fc2.bias f4 [4]
000000 07 12 5a bd 85 a7 2a bd 4c f5 a2 3e 33 f8 43 3e
       -0.05323985 -0.041663665 0.31827772 0.19137649
